{"format": "graph-model", "generatedBy": "2.14.0", "convertedBy": "TensorFlow.js Converter v4.13.0", "signature": {"inputs": {"input_image": {"name": "input_image:0", "dtype": "DT_FLOAT", "tensorShape": {"dim": [{"size": "1"}, {"size": "128"}, {"size": "128"}, {"size": "3"}]}}, "input_mask": {"name": "input_mask:0", "dtype": "DT_FLOAT", "tensorShape": {"dim": [{"size": "1"}, {"size": "128"}, {"size": "128"}, {"size": "1"}]}}}, "outputs": {"1677": {"name": "Identity:0", "dtype": "DT_FLOAT", "tensorShape": {"dim": [{"size": "1"}, {"size": "128"}, {"size": "128"}, {"size": "3"}]}}}}, "modelTopology": {"node": [{"name": "PartitionedCall/model_36/tf.nn.conv2d_transpose_14/conv2d_transpose/input_sizes", "op": "Const", "attr": {"dtype": {"type": "DT_INT32"}, "value": {"tensor": {"dtype": "DT_INT32", "tensorShape": {"dim": [{"size": "4"}]}}}}}, {"name": "unknown_1320", "op": "Const", "attr": {"value": {"tensor": {"dtype": "DT_FLOAT", "tensorShape": {"dim": [{"size": "4"}, {"size": "4"}, {"size": "64"}, {"size": "256"}]}}}, "dtype": {"type": "DT_FLOAT"}}}, {"name": "PartitionedCall/model_36/tf.nn.gelu_14/Gelu/mul", "op": "Const", "attr": {"dtype": {"type": "DT_FLOAT"}, "value": {"tensor": {"dtype": "DT_FLOAT", "tensorShape": {"dim": [{"size": "128"}]}}}}}, {"name": "PartitionedCall/model_36/tf.nn.gelu_14/Gelu/add/x", "op": "Const", "attr": {"value": {"tensor": {"dtype": "DT_FLOAT", "tensorShape": {}}}, "dtype": {"type": "DT_FLOAT"}}}, {"name": "unknown_1315", "op": "Const", "attr": {"value": {"tensor": {"dtype": "DT_FLOAT", "tensorShape": {"dim": [{"size": "128"}]}}}, "dtype": {"type": "DT_FLOAT"}}}, {"name": "PartitionedCall/model_36/tf.nn.conv2d_transpose_13/conv2d_transpose/input_sizes", "op": "Const", "attr": {"dtype": {"type": "DT_INT32"}, "value": {"tensor": {"dtype": "DT_INT32", "tensorShape": {"dim": [{"size": "4"}]}}}}}, {"name": "unknown_1313", "op": "Const", "attr": {"dtype": {"type": "DT_FLOAT"}, "value": {"tensor": {"dtype": "DT_FLOAT", "tensorShape": {"dim": [{"size": "4"}, {"size": "4"}, {"size": "128"}, {"size": "128"}]}}}}}, {"name": "PartitionedCall/model_36/tf.nn.gelu_13/Gelu/mul/x", "op": "Const", "attr": {"dtype": {"type": "DT_FLOAT"}, "value": {"tensor": {"dtype": "DT_FLOAT", "tensorShape": {}}}}}, {"name": "PartitionedCall/model_36/tf.nn.gelu_13/Gelu/add/x", "op": "Const", "attr": {"dtype": {"type": "DT_FLOAT"}, "value": {"tensor": {"dtype": "DT_FLOAT", "tensorShape": {}}}}}, {"name": "PartitionedCall/model_36/tf.compat.v1.gather_11/GatherV2/indices", "op": "Const", "attr": {"value": {"tensor": {"dtype": "DT_INT32", "tensorShape": {}}}, "dtype": {"type": "DT_INT32"}}}, {"name": "PartitionedCall/model_36/tf.compat.v1.gather_11/GatherV2/axis", "op": "Const", "attr": {"value": {"tensor": {"dtype": "DT_INT32", "tensorShape": {}}}, "dtype": {"type": "DT_INT32"}}}, {"name": "unknown_1243", "op": "Const", "attr": {"value": {"tensor": {"dtype": "DT_FLOAT", "tensorShape": {"dim": [{"size": "2"}, {"size": "1"}, {"size": "1"}, {"size": "2"}]}}}, "dtype": {"type": "DT_FLOAT"}}}, {"name": "unknown_1244", "op": "Const", "attr": {"value": {"tensor": {"dtype": "DT_FLOAT", "tensorShape": {"dim": [{"size": "2"}, {"size": "1"}, {"size": "1"}, {"size": "2"}]}}}, "dtype": {"type": "DT_FLOAT"}}}, {"name": "unknown_1245", "op": "Const", "attr": {"value": {"tensor": {"dtype": "DT_FLOAT", "tensorShape": {"dim": [{"size": "2"}, {"size": "1"}, {"size": "1"}, {"size": "2"}]}}}, "dtype": {"type": "DT_FLOAT"}}}, {"name": "unknown_1246", "op": "Const", "attr": {"value": {"tensor": {"dtype": "DT_FLOAT", "tensorShape": {"dim": [{"size": "2"}, {"size": "1"}, {"size": "1"}, {"size": "2"}]}}}, "dtype": {"type": "DT_FLOAT"}}}, {"name": "unknown_1247", "op": "Const", "attr": {"value": {"tensor": {"dtype": "DT_FLOAT", "tensorShape": {"dim": [{"size": "2"}, {"size": "1"}, {"size": "1"}, {"size": "2"}]}}}, "dtype": {"type": "DT_FLOAT"}}}, {"name": "unknown_1248", "op": "Const", "attr": {"dtype": {"type": "DT_FLOAT"}, "value": {"tensor": {"dtype": "DT_FLOAT", "tensorShape": {"dim": [{"size": "2"}, {"size": "1"}, {"size": "1"}, {"size": "2"}]}}}}}, {"name": "unknown_1249", "op": "Const", "attr": {"value": {"tensor": {"dtype": "DT_FLOAT", "tensorShape": {"dim": [{"size": "2"}, {"size": "1"}, {"size": "1"}, {"size": "2"}]}}}, "dtype": {"type": "DT_FLOAT"}}}, {"name": "unknown_1250", "op": "Const", "attr": {"dtype": {"type": "DT_FLOAT"}, "value": {"tensor": {"dtype": "DT_FLOAT", "tensorShape": {"dim": [{"size": "2"}, {"size": "1"}, {"size": "1"}, {"size": "2"}]}}}}}, {"name": "unknown_1251", "op": "Const", "attr": {"value": {"tensor": {"dtype": "DT_FLOAT", "tensorShape": {"dim": [{"size": "2"}, {"size": "1"}, {"size": "1"}, {"size": "2"}]}}}, "dtype": {"type": "DT_FLOAT"}}}, {"name": "unknown_1252", "op": "Const", "attr": {"dtype": {"type": "DT_FLOAT"}, "value": {"tensor": {"dtype": "DT_FLOAT", "tensorShape": {"dim": [{"size": "2"}, {"size": "1"}, {"size": "1"}, {"size": "2"}]}}}}}, {"name": "unknown_1253", "op": "Const", "attr": {"dtype": {"type": "DT_FLOAT"}, "value": {"tensor": {"dtype": "DT_FLOAT", "tensorShape": {"dim": [{"size": "2"}, {"size": "1"}, {"size": "1"}, {"size": "2"}]}}}}}, {"name": "unknown_1254", "op": "Const", "attr": {"dtype": {"type": "DT_FLOAT"}, "value": {"tensor": {"dtype": "DT_FLOAT", "tensorShape": {"dim": [{"size": "2"}, {"size": "1"}, {"size": "1"}, {"size": "2"}]}}}}}, {"name": "unknown_1255", "op": "Const", "attr": {"dtype": {"type": "DT_FLOAT"}, "value": {"tensor": {"dtype": "DT_FLOAT", "tensorShape": {"dim": [{"size": "2"}, {"size": "1"}, {"size": "1"}, {"size": "2"}]}}}}}, {"name": "unknown_1256", "op": "Const", "attr": {"dtype": {"type": "DT_FLOAT"}, "value": {"tensor": {"dtype": "DT_FLOAT", "tensorShape": {"dim": [{"size": "2"}, {"size": "1"}, {"size": "1"}, {"size": "2"}]}}}}}, {"name": "unknown_1257", "op": "Const", "attr": {"value": {"tensor": {"dtype": "DT_FLOAT", "tensorShape": {"dim": [{"size": "2"}, {"size": "1"}, {"size": "1"}, {"size": "2"}]}}}, "dtype": {"type": "DT_FLOAT"}}}, {"name": "unknown_1258", "op": "Const", "attr": {"dtype": {"type": "DT_FLOAT"}, "value": {"tensor": {"dtype": "DT_FLOAT", "tensorShape": {"dim": [{"size": "2"}, {"size": "1"}, {"size": "1"}, {"size": "2"}]}}}}}, {"name": "unknown_1259", "op": "Const", "attr": {"value": {"tensor": {"dtype": "DT_FLOAT", "tensorShape": {"dim": [{"size": "2"}, {"size": "1"}, {"size": "1"}, {"size": "2"}]}}}, "dtype": {"type": "DT_FLOAT"}}}, {"name": "unknown_1260", "op": "Const", "attr": {"dtype": {"type": "DT_FLOAT"}, "value": {"tensor": {"dtype": "DT_FLOAT", "tensorShape": {"dim": [{"size": "2"}, {"size": "1"}, {"size": "1"}, {"size": "2"}]}}}}}, {"name": "unknown_1261", "op": "Const", "attr": {"value": {"tensor": {"dtype": "DT_FLOAT", "tensorShape": {"dim": [{"size": "2"}, {"size": "1"}, {"size": "1"}, {"size": "2"}]}}}, "dtype": {"type": "DT_FLOAT"}}}, {"name": "unknown_1262", "op": "Const", "attr": {"value": {"tensor": {"dtype": "DT_FLOAT", "tensorShape": {"dim": [{"size": "2"}, {"size": "1"}, {"size": "1"}, {"size": "2"}]}}}, "dtype": {"type": "DT_FLOAT"}}}, {"name": "unknown_1263", "op": "Const", "attr": {"value": {"tensor": {"dtype": "DT_FLOAT", "tensorShape": {"dim": [{"size": "2"}, {"size": "1"}, {"size": "1"}, {"size": "2"}]}}}, "dtype": {"type": "DT_FLOAT"}}}, {"name": "unknown_1264", "op": "Const", "attr": {"dtype": {"type": "DT_FLOAT"}, "value": {"tensor": {"dtype": "DT_FLOAT", "tensorShape": {"dim": [{"size": "2"}, {"size": "1"}, {"size": "1"}, {"size": "2"}]}}}}}, {"name": "unknown_1265", "op": "Const", "attr": {"dtype": {"type": "DT_FLOAT"}, "value": {"tensor": {"dtype": "DT_FLOAT", "tensorShape": {"dim": [{"size": "2"}, {"size": "1"}, {"size": "1"}, {"size": "2"}]}}}}}, {"name": "unknown_1266", "op": "Const", "attr": {"dtype": {"type": "DT_FLOAT"}, "value": {"tensor": {"dtype": "DT_FLOAT", "tensorShape": {"dim": [{"size": "2"}, {"size": "1"}, {"size": "1"}, {"size": "2"}]}}}}}, {"name": "unknown_1267", "op": "Const", "attr": {"value": {"tensor": {"dtype": "DT_FLOAT", "tensorShape": {"dim": [{"size": "2"}, {"size": "1"}, {"size": "1"}, {"size": "2"}]}}}, "dtype": {"type": "DT_FLOAT"}}}, {"name": "unknown_1268", "op": "Const", "attr": {"dtype": {"type": "DT_FLOAT"}, "value": {"tensor": {"dtype": "DT_FLOAT", "tensorShape": {"dim": [{"size": "2"}, {"size": "1"}, {"size": "1"}, {"size": "2"}]}}}}}, {"name": "unknown_1269", "op": "Const", "attr": {"value": {"tensor": {"dtype": "DT_FLOAT", "tensorShape": {"dim": [{"size": "2"}, {"size": "1"}, {"size": "1"}, {"size": "2"}]}}}, "dtype": {"type": "DT_FLOAT"}}}, {"name": "unknown_1270", "op": "Const", "attr": {"value": {"tensor": {"dtype": "DT_FLOAT", "tensorShape": {"dim": [{"size": "2"}, {"size": "1"}, {"size": "1"}, {"size": "2"}]}}}, "dtype": {"type": "DT_FLOAT"}}}, {"name": "unknown_1271", "op": "Const", "attr": {"dtype": {"type": "DT_FLOAT"}, "value": {"tensor": {"dtype": "DT_FLOAT", "tensorShape": {"dim": [{"size": "2"}, {"size": "1"}, {"size": "1"}, {"size": "2"}]}}}}}, {"name": "unknown_1272", "op": "Const", "attr": {"dtype": {"type": "DT_FLOAT"}, "value": {"tensor": {"dtype": "DT_FLOAT", "tensorShape": {"dim": [{"size": "2"}, {"size": "1"}, {"size": "1"}, {"size": "2"}]}}}}}, {"name": "unknown_1273", "op": "Const", "attr": {"value": {"tensor": {"dtype": "DT_FLOAT", "tensorShape": {"dim": [{"size": "2"}, {"size": "1"}, {"size": "1"}, {"size": "2"}]}}}, "dtype": {"type": "DT_FLOAT"}}}, {"name": "unknown_1274", "op": "Const", "attr": {"dtype": {"type": "DT_FLOAT"}, "value": {"tensor": {"dtype": "DT_FLOAT", "tensorShape": {"dim": [{"size": "2"}, {"size": "1"}, {"size": "1"}, {"size": "2"}]}}}}}, {"name": "unknown_1275", "op": "Const", "attr": {"value": {"tensor": {"dtype": "DT_FLOAT", "tensorShape": {"dim": [{"size": "2"}, {"size": "1"}, {"size": "1"}, {"size": "2"}]}}}, "dtype": {"type": "DT_FLOAT"}}}, {"name": "unknown_1276", "op": "Const", "attr": {"dtype": {"type": "DT_FLOAT"}, "value": {"tensor": {"dtype": "DT_FLOAT", "tensorShape": {"dim": [{"size": "2"}, {"size": "1"}, {"size": "1"}, {"size": "2"}]}}}}}, {"name": "unknown_1277", "op": "Const", "attr": {"value": {"tensor": {"dtype": "DT_FLOAT", "tensorShape": {"dim": [{"size": "2"}, {"size": "1"}, {"size": "1"}, {"size": "2"}]}}}, "dtype": {"type": "DT_FLOAT"}}}, {"name": "unknown_1278", "op": "Const", "attr": {"value": {"tensor": {"dtype": "DT_FLOAT", "tensorShape": {"dim": [{"size": "2"}, {"size": "1"}, {"size": "1"}, {"size": "2"}]}}}, "dtype": {"type": "DT_FLOAT"}}}, {"name": "unknown_1279", "op": "Const", "attr": {"dtype": {"type": "DT_FLOAT"}, "value": {"tensor": {"dtype": "DT_FLOAT", "tensorShape": {"dim": [{"size": "2"}, {"size": "1"}, {"size": "1"}, {"size": "2"}]}}}}}, {"name": "unknown_1280", "op": "Const", "attr": {"dtype": {"type": "DT_FLOAT"}, "value": {"tensor": {"dtype": "DT_FLOAT", "tensorShape": {"dim": [{"size": "2"}, {"size": "1"}, {"size": "1"}, {"size": "2"}]}}}}}, {"name": "unknown_1281", "op": "Const", "attr": {"value": {"tensor": {"dtype": "DT_FLOAT", "tensorShape": {"dim": [{"size": "2"}, {"size": "1"}, {"size": "1"}, {"size": "2"}]}}}, "dtype": {"type": "DT_FLOAT"}}}, {"name": "unknown_1282", "op": "Const", "attr": {"dtype": {"type": "DT_FLOAT"}, "value": {"tensor": {"dtype": "DT_FLOAT", "tensorShape": {"dim": [{"size": "2"}, {"size": "1"}, {"size": "1"}, {"size": "2"}]}}}}}, {"name": "unknown_1283", "op": "Const", "attr": {"value": {"tensor": {"dtype": "DT_FLOAT", "tensorShape": {"dim": [{"size": "2"}, {"size": "1"}, {"size": "1"}, {"size": "2"}]}}}, "dtype": {"type": "DT_FLOAT"}}}, {"name": "unknown_1284", "op": "Const", "attr": {"value": {"tensor": {"dtype": "DT_FLOAT", "tensorShape": {"dim": [{"size": "2"}, {"size": "1"}, {"size": "1"}, {"size": "2"}]}}}, "dtype": {"type": "DT_FLOAT"}}}, {"name": "unknown_1285", "op": "Const", "attr": {"dtype": {"type": "DT_FLOAT"}, "value": {"tensor": {"dtype": "DT_FLOAT", "tensorShape": {"dim": [{"size": "2"}, {"size": "1"}, {"size": "1"}, {"size": "2"}]}}}}}, {"name": "unknown_1286", "op": "Const", "attr": {"dtype": {"type": "DT_FLOAT"}, "value": {"tensor": {"dtype": "DT_FLOAT", "tensorShape": {"dim": [{"size": "2"}, {"size": "1"}, {"size": "1"}, {"size": "2"}]}}}}}, {"name": "unknown_1287", "op": "Const", "attr": {"dtype": {"type": "DT_FLOAT"}, "value": {"tensor": {"dtype": "DT_FLOAT", "tensorShape": {"dim": [{"size": "2"}, {"size": "1"}, {"size": "1"}, {"size": "2"}]}}}}}, {"name": "unknown_1288", "op": "Const", "attr": {"value": {"tensor": {"dtype": "DT_FLOAT", "tensorShape": {"dim": [{"size": "2"}, {"size": "1"}, {"size": "1"}, {"size": "2"}]}}}, "dtype": {"type": "DT_FLOAT"}}}, {"name": "unknown_1289", "op": "Const", "attr": {"value": {"tensor": {"dtype": "DT_FLOAT", "tensorShape": {"dim": [{"size": "2"}, {"size": "1"}, {"size": "1"}, {"size": "2"}]}}}, "dtype": {"type": "DT_FLOAT"}}}, {"name": "unknown_1290", "op": "Const", "attr": {"value": {"tensor": {"dtype": "DT_FLOAT", "tensorShape": {"dim": [{"size": "2"}, {"size": "1"}, {"size": "1"}, {"size": "2"}]}}}, "dtype": {"type": "DT_FLOAT"}}}, {"name": "unknown_1291", "op": "Const", "attr": {"value": {"tensor": {"dtype": "DT_FLOAT", "tensorShape": {"dim": [{"size": "2"}, {"size": "1"}, {"size": "1"}, {"size": "2"}]}}}, "dtype": {"type": "DT_FLOAT"}}}, {"name": "unknown_1292", "op": "Const", "attr": {"value": {"tensor": {"dtype": "DT_FLOAT", "tensorShape": {"dim": [{"size": "2"}, {"size": "1"}, {"size": "1"}, {"size": "2"}]}}}, "dtype": {"type": "DT_FLOAT"}}}, {"name": "unknown_1293", "op": "Const", "attr": {"value": {"tensor": {"dtype": "DT_FLOAT", "tensorShape": {"dim": [{"size": "2"}, {"size": "1"}, {"size": "1"}, {"size": "2"}]}}}, "dtype": {"type": "DT_FLOAT"}}}, {"name": "unknown_1294", "op": "Const", "attr": {"dtype": {"type": "DT_FLOAT"}, "value": {"tensor": {"dtype": "DT_FLOAT", "tensorShape": {"dim": [{"size": "2"}, {"size": "1"}, {"size": "1"}, {"size": "2"}]}}}}}, {"name": "unknown_1295", "op": "Const", "attr": {"dtype": {"type": "DT_FLOAT"}, "value": {"tensor": {"dtype": "DT_FLOAT", "tensorShape": {"dim": [{"size": "2"}, {"size": "1"}, {"size": "1"}, {"size": "2"}]}}}}}, {"name": "unknown_1296", "op": "Const", "attr": {"dtype": {"type": "DT_FLOAT"}, "value": {"tensor": {"dtype": "DT_FLOAT", "tensorShape": {"dim": [{"size": "2"}, {"size": "1"}, {"size": "1"}, {"size": "2"}]}}}}}, {"name": "unknown_1297", "op": "Const", "attr": {"dtype": {"type": "DT_FLOAT"}, "value": {"tensor": {"dtype": "DT_FLOAT", "tensorShape": {"dim": [{"size": "2"}, {"size": "1"}, {"size": "1"}, {"size": "2"}]}}}}}, {"name": "unknown_1298", "op": "Const", "attr": {"value": {"tensor": {"dtype": "DT_FLOAT", "tensorShape": {"dim": [{"size": "2"}, {"size": "1"}, {"size": "1"}, {"size": "2"}]}}}, "dtype": {"type": "DT_FLOAT"}}}, {"name": "unknown_1299", "op": "Const", "attr": {"dtype": {"type": "DT_FLOAT"}, "value": {"tensor": {"dtype": "DT_FLOAT", "tensorShape": {"dim": [{"size": "2"}, {"size": "1"}, {"size": "1"}, {"size": "2"}]}}}}}, {"name": "unknown_1300", "op": "Const", "attr": {"dtype": {"type": "DT_FLOAT"}, "value": {"tensor": {"dtype": "DT_FLOAT", "tensorShape": {"dim": [{"size": "2"}, {"size": "1"}, {"size": "1"}, {"size": "2"}]}}}}}, {"name": "unknown_1301", "op": "Const", "attr": {"dtype": {"type": "DT_FLOAT"}, "value": {"tensor": {"dtype": "DT_FLOAT", "tensorShape": {"dim": [{"size": "2"}, {"size": "1"}, {"size": "1"}, {"size": "2"}]}}}}}, {"name": "unknown_1302", "op": "Const", "attr": {"dtype": {"type": "DT_FLOAT"}, "value": {"tensor": {"dtype": "DT_FLOAT", "tensorShape": {"dim": [{"size": "2"}, {"size": "1"}, {"size": "1"}, {"size": "2"}]}}}}}, {"name": "unknown_1303", "op": "Const", "attr": {"value": {"tensor": {"dtype": "DT_FLOAT", "tensorShape": {"dim": [{"size": "2"}, {"size": "1"}, {"size": "1"}, {"size": "2"}]}}}, "dtype": {"type": "DT_FLOAT"}}}, {"name": "unknown_1304", "op": "Const", "attr": {"dtype": {"type": "DT_FLOAT"}, "value": {"tensor": {"dtype": "DT_FLOAT", "tensorShape": {"dim": [{"size": "2"}, {"size": "1"}, {"size": "1"}, {"size": "2"}]}}}}}, {"name": "unknown_1305", "op": "Const", "attr": {"dtype": {"type": "DT_FLOAT"}, "value": {"tensor": {"dtype": "DT_FLOAT", "tensorShape": {"dim": [{"size": "2"}, {"size": "1"}, {"size": "1"}, {"size": "2"}]}}}}}, {"name": "PartitionedCall/model_36/tf.split_23/split/split_dim", "op": "Const", "attr": {"value": {"tensor": {"dtype": "DT_INT32", "tensorShape": {}}}, "dtype": {"type": "DT_INT32"}}}, {"name": "unknown_1211", "op": "Const", "attr": {"value": {"tensor": {"dtype": "DT_FLOAT", "tensorShape": {"dim": [{"size": "1"}, {"size": "2"}, {"size": "1"}, {"size": "2"}]}}}, "dtype": {"type": "DT_FLOAT"}}}, {"name": "unknown_1212", "op": "Const", "attr": {"value": {"tensor": {"dtype": "DT_FLOAT", "tensorShape": {"dim": [{"size": "1"}, {"size": "2"}, {"size": "1"}, {"size": "2"}]}}}, "dtype": {"type": "DT_FLOAT"}}}, {"name": "unknown_1213", "op": "Const", "attr": {"value": {"tensor": {"dtype": "DT_FLOAT", "tensorShape": {"dim": [{"size": "1"}, {"size": "2"}, {"size": "1"}, {"size": "2"}]}}}, "dtype": {"type": "DT_FLOAT"}}}, {"name": "unknown_1214", "op": "Const", "attr": {"value": {"tensor": {"dtype": "DT_FLOAT", "tensorShape": {"dim": [{"size": "1"}, {"size": "2"}, {"size": "1"}, {"size": "2"}]}}}, "dtype": {"type": "DT_FLOAT"}}}, {"name": "unknown_1215", "op": "Const", "attr": {"value": {"tensor": {"dtype": "DT_FLOAT", "tensorShape": {"dim": [{"size": "1"}, {"size": "2"}, {"size": "1"}, {"size": "2"}]}}}, "dtype": {"type": "DT_FLOAT"}}}, {"name": "unknown_1216", "op": "Const", "attr": {"dtype": {"type": "DT_FLOAT"}, "value": {"tensor": {"dtype": "DT_FLOAT", "tensorShape": {"dim": [{"size": "1"}, {"size": "2"}, {"size": "1"}, {"size": "2"}]}}}}}, {"name": "unknown_1217", "op": "Const", "attr": {"dtype": {"type": "DT_FLOAT"}, "value": {"tensor": {"dtype": "DT_FLOAT", "tensorShape": {"dim": [{"size": "1"}, {"size": "2"}, {"size": "1"}, {"size": "2"}]}}}}}, {"name": "unknown_1218", "op": "Const", "attr": {"dtype": {"type": "DT_FLOAT"}, "value": {"tensor": {"dtype": "DT_FLOAT", "tensorShape": {"dim": [{"size": "1"}, {"size": "2"}, {"size": "1"}, {"size": "2"}]}}}}}, {"name": "unknown_1219", "op": "Const", "attr": {"dtype": {"type": "DT_FLOAT"}, "value": {"tensor": {"dtype": "DT_FLOAT", "tensorShape": {"dim": [{"size": "1"}, {"size": "2"}, {"size": "1"}, {"size": "2"}]}}}}}, {"name": "unknown_1220", "op": "Const", "attr": {"dtype": {"type": "DT_FLOAT"}, "value": {"tensor": {"dtype": "DT_FLOAT", "tensorShape": {"dim": [{"size": "1"}, {"size": "2"}, {"size": "1"}, {"size": "2"}]}}}}}, {"name": "unknown_1221", "op": "Const", "attr": {"value": {"tensor": {"dtype": "DT_FLOAT", "tensorShape": {"dim": [{"size": "1"}, {"size": "2"}, {"size": "1"}, {"size": "2"}]}}}, "dtype": {"type": "DT_FLOAT"}}}, {"name": "unknown_1222", "op": "Const", "attr": {"dtype": {"type": "DT_FLOAT"}, "value": {"tensor": {"dtype": "DT_FLOAT", "tensorShape": {"dim": [{"size": "1"}, {"size": "2"}, {"size": "1"}, {"size": "2"}]}}}}}, {"name": "unknown_1223", "op": "Const", "attr": {"value": {"tensor": {"dtype": "DT_FLOAT", "tensorShape": {"dim": [{"size": "1"}, {"size": "2"}, {"size": "1"}, {"size": "2"}]}}}, "dtype": {"type": "DT_FLOAT"}}}, {"name": "unknown_1224", "op": "Const", "attr": {"dtype": {"type": "DT_FLOAT"}, "value": {"tensor": {"dtype": "DT_FLOAT", "tensorShape": {"dim": [{"size": "1"}, {"size": "2"}, {"size": "1"}, {"size": "2"}]}}}}}, {"name": "unknown_1225", "op": "Const", "attr": {"dtype": {"type": "DT_FLOAT"}, "value": {"tensor": {"dtype": "DT_FLOAT", "tensorShape": {"dim": [{"size": "1"}, {"size": "2"}, {"size": "1"}, {"size": "2"}]}}}}}, {"name": "unknown_1226", "op": "Const", "attr": {"value": {"tensor": {"dtype": "DT_FLOAT", "tensorShape": {"dim": [{"size": "1"}, {"size": "2"}, {"size": "1"}, {"size": "2"}]}}}, "dtype": {"type": "DT_FLOAT"}}}, {"name": "unknown_1227", "op": "Const", "attr": {"dtype": {"type": "DT_FLOAT"}, "value": {"tensor": {"dtype": "DT_FLOAT", "tensorShape": {"dim": [{"size": "1"}, {"size": "2"}, {"size": "1"}, {"size": "2"}]}}}}}, {"name": "unknown_1228", "op": "Const", "attr": {"dtype": {"type": "DT_FLOAT"}, "value": {"tensor": {"dtype": "DT_FLOAT", "tensorShape": {"dim": [{"size": "1"}, {"size": "2"}, {"size": "1"}, {"size": "2"}]}}}}}, {"name": "unknown_1229", "op": "Const", "attr": {"dtype": {"type": "DT_FLOAT"}, "value": {"tensor": {"dtype": "DT_FLOAT", "tensorShape": {"dim": [{"size": "1"}, {"size": "2"}, {"size": "1"}, {"size": "2"}]}}}}}, {"name": "unknown_1230", "op": "Const", "attr": {"value": {"tensor": {"dtype": "DT_FLOAT", "tensorShape": {"dim": [{"size": "1"}, {"size": "2"}, {"size": "1"}, {"size": "2"}]}}}, "dtype": {"type": "DT_FLOAT"}}}, {"name": "unknown_1231", "op": "Const", "attr": {"dtype": {"type": "DT_FLOAT"}, "value": {"tensor": {"dtype": "DT_FLOAT", "tensorShape": {"dim": [{"size": "1"}, {"size": "2"}, {"size": "1"}, {"size": "2"}]}}}}}, {"name": "unknown_1232", "op": "Const", "attr": {"dtype": {"type": "DT_FLOAT"}, "value": {"tensor": {"dtype": "DT_FLOAT", "tensorShape": {"dim": [{"size": "1"}, {"size": "2"}, {"size": "1"}, {"size": "2"}]}}}}}, {"name": "unknown_1233", "op": "Const", "attr": {"value": {"tensor": {"dtype": "DT_FLOAT", "tensorShape": {"dim": [{"size": "1"}, {"size": "2"}, {"size": "1"}, {"size": "2"}]}}}, "dtype": {"type": "DT_FLOAT"}}}, {"name": "unknown_1234", "op": "Const", "attr": {"dtype": {"type": "DT_FLOAT"}, "value": {"tensor": {"dtype": "DT_FLOAT", "tensorShape": {"dim": [{"size": "1"}, {"size": "2"}, {"size": "1"}, {"size": "2"}]}}}}}, {"name": "unknown_1235", "op": "Const", "attr": {"dtype": {"type": "DT_FLOAT"}, "value": {"tensor": {"dtype": "DT_FLOAT", "tensorShape": {"dim": [{"size": "1"}, {"size": "2"}, {"size": "1"}, {"size": "2"}]}}}}}, {"name": "unknown_1236", "op": "Const", "attr": {"value": {"tensor": {"dtype": "DT_FLOAT", "tensorShape": {"dim": [{"size": "1"}, {"size": "2"}, {"size": "1"}, {"size": "2"}]}}}, "dtype": {"type": "DT_FLOAT"}}}, {"name": "unknown_1237", "op": "Const", "attr": {"value": {"tensor": {"dtype": "DT_FLOAT", "tensorShape": {"dim": [{"size": "1"}, {"size": "2"}, {"size": "1"}, {"size": "2"}]}}}, "dtype": {"type": "DT_FLOAT"}}}, {"name": "unknown_1238", "op": "Const", "attr": {"value": {"tensor": {"dtype": "DT_FLOAT", "tensorShape": {"dim": [{"size": "1"}, {"size": "2"}, {"size": "1"}, {"size": "2"}]}}}, "dtype": {"type": "DT_FLOAT"}}}, {"name": "unknown_1239", "op": "Const", "attr": {"dtype": {"type": "DT_FLOAT"}, "value": {"tensor": {"dtype": "DT_FLOAT", "tensorShape": {"dim": [{"size": "1"}, {"size": "2"}, {"size": "1"}, {"size": "2"}]}}}}}, {"name": "unknown_1240", "op": "Const", "attr": {"value": {"tensor": {"dtype": "DT_FLOAT", "tensorShape": {"dim": [{"size": "1"}, {"size": "2"}, {"size": "1"}, {"size": "2"}]}}}, "dtype": {"type": "DT_FLOAT"}}}, {"name": "unknown_1241", "op": "Const", "attr": {"value": {"tensor": {"dtype": "DT_FLOAT", "tensorShape": {"dim": [{"size": "1"}, {"size": "2"}, {"size": "1"}, {"size": "2"}]}}}, "dtype": {"type": "DT_FLOAT"}}}, {"name": "PartitionedCall/model_36/tf.split_22/split/split_dim", "op": "Const", "attr": {"dtype": {"type": "DT_INT32"}, "value": {"tensor": {"dtype": "DT_INT32", "tensorShape": {}}}}}, {"name": "unknown_1209", "op": "Const", "attr": {"value": {"tensor": {"dtype": "DT_FLOAT", "tensorShape": {"dim": [{"size": "1"}, {"size": "1"}, {"size": "128"}, {"size": "32"}]}}}, "dtype": {"type": "DT_FLOAT"}}}, {"name": "unknown_1210", "op": "Const", "attr": {"value": {"tensor": {"dtype": "DT_FLOAT", "tensorShape": {"dim": [{"size": "32"}]}}}, "dtype": {"type": "DT_FLOAT"}}}, {"name": "unknown_1242", "op": "Const", "attr": {"dtype": {"type": "DT_FLOAT"}, "value": {"tensor": {"dtype": "DT_FLOAT", "tensorShape": {"dim": [{"size": "1"}, {"size": "2"}, {"size": "1"}, {"size": "2"}]}}}}}, {"name": "PartitionedCall/model_36/tf.concat_6387/concat/axis", "op": "Const", "attr": {"value": {"tensor": {"dtype": "DT_INT32", "tensorShape": {}}}, "dtype": {"type": "DT_INT32"}}}, {"name": "unknown_1306", "op": "Const", "attr": {"value": {"tensor": {"dtype": "DT_FLOAT", "tensorShape": {"dim": [{"size": "2"}, {"size": "1"}, {"size": "1"}, {"size": "2"}]}}}, "dtype": {"type": "DT_FLOAT"}}}, {"name": "PartitionedCall/model_36/tf.concat_6388/concat/axis", "op": "Const", "attr": {"value": {"tensor": {"dtype": "DT_INT32", "tensorShape": {}}}, "dtype": {"type": "DT_INT32"}}}, {"name": "PartitionedCall/model_36/tf.compat.v1.transpose_12212/transpose/perm", "op": "Const", "attr": {"value": {"tensor": {"dtype": "DT_INT32", "tensorShape": {"dim": [{"size": "4"}]}}}, "dtype": {"type": "DT_INT32"}}}, {"name": "PartitionedCall/model_36/tf.reshape_22/Reshape/shape", "op": "Const", "attr": {"value": {"tensor": {"dtype": "DT_INT32", "tensorShape": {"dim": [{"size": "5"}]}}}, "dtype": {"type": "DT_INT32"}}}, {"name": "unknown_1307", "op": "Const", "attr": {"value": {"tensor": {"dtype": "DT_INT64", "tensorShape": {"dim": [{"size": "5"}]}}}, "dtype": {"type": "DT_INT64"}}}, {"name": "unknown_1308", "op": "Const", "attr": {"dtype": {"type": "DT_INT64"}, "value": {"tensor": {"dtype": "DT_INT64", "tensorShape": {"dim": [{"size": "5"}]}}}}}, {"name": "PartitionedCall/model_36/tf.strided_slice_24/StridedSlice/strides", "op": "Const", "attr": {"value": {"tensor": {"dtype": "DT_INT64", "tensorShape": {"dim": [{"size": "5"}]}}}, "dtype": {"type": "DT_INT64"}}}, {"name": "PartitionedCall/model_36/tf.reshape_23/Reshape/shape", "op": "Const", "attr": {"dtype": {"type": "DT_INT32"}, "value": {"tensor": {"dtype": "DT_INT32", "tensorShape": {"dim": [{"size": "4"}]}}}}}, {"name": "PartitionedCall/model_36/tf.concat_6966/concat/axis", "op": "Const", "attr": {"dtype": {"type": "DT_INT32"}, "value": {"tensor": {"dtype": "DT_INT32", "tensorShape": {}}}}}, {"name": "PartitionedCall/model_36/tf.compat.v1.transpose_13319/transpose/perm", "op": "Const", "attr": {"value": {"tensor": {"dtype": "DT_INT32", "tensorShape": {"dim": [{"size": "4"}]}}}, "dtype": {"type": "DT_INT32"}}}, {"name": "unknown_1309", "op": "Const", "attr": {"value": {"tensor": {"dtype": "DT_FLOAT", "tensorShape": {"dim": [{"size": "1"}, {"size": "1"}, {"size": "128"}, {"size": "256"}]}}}, "dtype": {"type": "DT_FLOAT"}}}, {"name": "unknown_1310", "op": "Const", "attr": {"dtype": {"type": "DT_FLOAT"}, "value": {"tensor": {"dtype": "DT_FLOAT", "tensorShape": {"dim": [{"size": "256"}]}}}}}, {"name": "ConstantFolding/PartitionedCall/model_36/tf.nn.gelu_13/Gelu/truediv_recip", "op": "Const", "attr": {"value": {"tensor": {"dtype": "DT_FLOAT", "tensorShape": {}}}, "dtype": {"type": "DT_FLOAT"}}}, {"name": "unknown_1311", "op": "Const", "attr": {"value": {"tensor": {"dtype": "DT_FLOAT", "tensorShape": {"dim": [{"size": "1"}, {"size": "1"}, {"size": "256"}, {"size": "128"}]}}}, "dtype": {"type": "DT_FLOAT"}}}, {"name": "unknown_1312", "op": "Const", "attr": {"value": {"tensor": {"dtype": "DT_FLOAT", "tensorShape": {"dim": [{"size": "128"}]}}}, "dtype": {"type": "DT_FLOAT"}}}, {"name": "PartitionedCall/model_36/tf.math.add_87/Add/y", "op": "Const", "attr": {"value": {"tensor": {"dtype": "DT_FLOAT", "tensorShape": {"dim": [{"size": "128"}]}}}, "dtype": {"type": "DT_FLOAT"}}}, {"name": "PartitionedCall/model_36/tf.strided_slice_25/StridedSlice/begin", "op": "Const", "attr": {"dtype": {"type": "DT_INT32"}, "value": {"tensor": {"dtype": "DT_INT32", "tensorShape": {"dim": [{"size": "4"}]}}}}}, {"name": "PartitionedCall/model_36/tf.strided_slice_25/StridedSlice/end", "op": "Const", "attr": {"dtype": {"type": "DT_INT32"}, "value": {"tensor": {"dtype": "DT_INT32", "tensorShape": {"dim": [{"size": "4"}]}}}}}, {"name": "PartitionedCall/model_36/tf.strided_slice_25/ones_like", "op": "Const", "attr": {"dtype": {"type": "DT_INT32"}, "value": {"tensor": {"dtype": "DT_INT32", "tensorShape": {"dim": [{"size": "4"}]}}}}}, {"name": "unknown_1314", "op": "Const", "attr": {"value": {"tensor": {"dtype": "DT_FLOAT", "tensorShape": {"dim": [{"size": "128"}]}}}, "dtype": {"type": "DT_FLOAT"}}}, {"name": "unknown_1208", "op": "Const", "attr": {"dtype": {"type": "DT_FLOAT"}, "value": {"tensor": {"dtype": "DT_FLOAT", "tensorShape": {"dim": [{"size": "128"}]}}}}}, {"name": "PartitionedCall/model_36/tf.nn.conv2d_transpose_12/conv2d_transpose/input_sizes", "op": "Const", "attr": {"dtype": {"type": "DT_INT32"}, "value": {"tensor": {"dtype": "DT_INT32", "tensorShape": {"dim": [{"size": "4"}]}}}}}, {"name": "unknown_1206", "op": "Const", "attr": {"value": {"tensor": {"dtype": "DT_FLOAT", "tensorShape": {"dim": [{"size": "4"}, {"size": "4"}, {"size": "128"}, {"size": "128"}]}}}, "dtype": {"type": "DT_FLOAT"}}}, {"name": "PartitionedCall/model_36/tf.nn.gelu_12/Gelu/mul/x", "op": "Const", "attr": {"dtype": {"type": "DT_FLOAT"}, "value": {"tensor": {"dtype": "DT_FLOAT", "tensorShape": {}}}}}, {"name": "PartitionedCall/model_36/tf.nn.gelu_12/Gelu/add/x", "op": "Const", "attr": {"dtype": {"type": "DT_FLOAT"}, "value": {"tensor": {"dtype": "DT_FLOAT", "tensorShape": {}}}}}, {"name": "PartitionedCall/model_36/tf.compat.v1.gather_10/GatherV2/indices", "op": "Const", "attr": {"value": {"tensor": {"dtype": "DT_INT32", "tensorShape": {}}}, "dtype": {"type": "DT_INT32"}}}, {"name": "PartitionedCall/model_36/tf.compat.v1.gather_10/GatherV2/axis", "op": "Const", "attr": {"dtype": {"type": "DT_INT32"}, "value": {"tensor": {"dtype": "DT_INT32", "tensorShape": {}}}}}, {"name": "unknown_1136", "op": "Const", "attr": {"value": {"tensor": {"dtype": "DT_FLOAT", "tensorShape": {"dim": [{"size": "2"}, {"size": "1"}, {"size": "1"}, {"size": "2"}]}}}, "dtype": {"type": "DT_FLOAT"}}}, {"name": "unknown_1137", "op": "Const", "attr": {"dtype": {"type": "DT_FLOAT"}, "value": {"tensor": {"dtype": "DT_FLOAT", "tensorShape": {"dim": [{"size": "2"}, {"size": "1"}, {"size": "1"}, {"size": "2"}]}}}}}, {"name": "unknown_1138", "op": "Const", "attr": {"value": {"tensor": {"dtype": "DT_FLOAT", "tensorShape": {"dim": [{"size": "2"}, {"size": "1"}, {"size": "1"}, {"size": "2"}]}}}, "dtype": {"type": "DT_FLOAT"}}}, {"name": "unknown_1139", "op": "Const", "attr": {"dtype": {"type": "DT_FLOAT"}, "value": {"tensor": {"dtype": "DT_FLOAT", "tensorShape": {"dim": [{"size": "2"}, {"size": "1"}, {"size": "1"}, {"size": "2"}]}}}}}, {"name": "unknown_1140", "op": "Const", "attr": {"value": {"tensor": {"dtype": "DT_FLOAT", "tensorShape": {"dim": [{"size": "2"}, {"size": "1"}, {"size": "1"}, {"size": "2"}]}}}, "dtype": {"type": "DT_FLOAT"}}}, {"name": "unknown_1141", "op": "Const", "attr": {"dtype": {"type": "DT_FLOAT"}, "value": {"tensor": {"dtype": "DT_FLOAT", "tensorShape": {"dim": [{"size": "2"}, {"size": "1"}, {"size": "1"}, {"size": "2"}]}}}}}, {"name": "unknown_1142", "op": "Const", "attr": {"value": {"tensor": {"dtype": "DT_FLOAT", "tensorShape": {"dim": [{"size": "2"}, {"size": "1"}, {"size": "1"}, {"size": "2"}]}}}, "dtype": {"type": "DT_FLOAT"}}}, {"name": "unknown_1143", "op": "Const", "attr": {"dtype": {"type": "DT_FLOAT"}, "value": {"tensor": {"dtype": "DT_FLOAT", "tensorShape": {"dim": [{"size": "2"}, {"size": "1"}, {"size": "1"}, {"size": "2"}]}}}}}, {"name": "unknown_1144", "op": "Const", "attr": {"dtype": {"type": "DT_FLOAT"}, "value": {"tensor": {"dtype": "DT_FLOAT", "tensorShape": {"dim": [{"size": "2"}, {"size": "1"}, {"size": "1"}, {"size": "2"}]}}}}}, {"name": "unknown_1145", "op": "Const", "attr": {"value": {"tensor": {"dtype": "DT_FLOAT", "tensorShape": {"dim": [{"size": "2"}, {"size": "1"}, {"size": "1"}, {"size": "2"}]}}}, "dtype": {"type": "DT_FLOAT"}}}, {"name": "unknown_1146", "op": "Const", "attr": {"dtype": {"type": "DT_FLOAT"}, "value": {"tensor": {"dtype": "DT_FLOAT", "tensorShape": {"dim": [{"size": "2"}, {"size": "1"}, {"size": "1"}, {"size": "2"}]}}}}}, {"name": "unknown_1147", "op": "Const", "attr": {"value": {"tensor": {"dtype": "DT_FLOAT", "tensorShape": {"dim": [{"size": "2"}, {"size": "1"}, {"size": "1"}, {"size": "2"}]}}}, "dtype": {"type": "DT_FLOAT"}}}, {"name": "unknown_1148", "op": "Const", "attr": {"value": {"tensor": {"dtype": "DT_FLOAT", "tensorShape": {"dim": [{"size": "2"}, {"size": "1"}, {"size": "1"}, {"size": "2"}]}}}, "dtype": {"type": "DT_FLOAT"}}}, {"name": "unknown_1149", "op": "Const", "attr": {"value": {"tensor": {"dtype": "DT_FLOAT", "tensorShape": {"dim": [{"size": "2"}, {"size": "1"}, {"size": "1"}, {"size": "2"}]}}}, "dtype": {"type": "DT_FLOAT"}}}, {"name": "unknown_1150", "op": "Const", "attr": {"dtype": {"type": "DT_FLOAT"}, "value": {"tensor": {"dtype": "DT_FLOAT", "tensorShape": {"dim": [{"size": "2"}, {"size": "1"}, {"size": "1"}, {"size": "2"}]}}}}}, {"name": "unknown_1151", "op": "Const", "attr": {"value": {"tensor": {"dtype": "DT_FLOAT", "tensorShape": {"dim": [{"size": "2"}, {"size": "1"}, {"size": "1"}, {"size": "2"}]}}}, "dtype": {"type": "DT_FLOAT"}}}, {"name": "unknown_1152", "op": "Const", "attr": {"dtype": {"type": "DT_FLOAT"}, "value": {"tensor": {"dtype": "DT_FLOAT", "tensorShape": {"dim": [{"size": "2"}, {"size": "1"}, {"size": "1"}, {"size": "2"}]}}}}}, {"name": "unknown_1153", "op": "Const", "attr": {"dtype": {"type": "DT_FLOAT"}, "value": {"tensor": {"dtype": "DT_FLOAT", "tensorShape": {"dim": [{"size": "2"}, {"size": "1"}, {"size": "1"}, {"size": "2"}]}}}}}, {"name": "unknown_1154", "op": "Const", "attr": {"dtype": {"type": "DT_FLOAT"}, "value": {"tensor": {"dtype": "DT_FLOAT", "tensorShape": {"dim": [{"size": "2"}, {"size": "1"}, {"size": "1"}, {"size": "2"}]}}}}}, {"name": "unknown_1155", "op": "Const", "attr": {"value": {"tensor": {"dtype": "DT_FLOAT", "tensorShape": {"dim": [{"size": "2"}, {"size": "1"}, {"size": "1"}, {"size": "2"}]}}}, "dtype": {"type": "DT_FLOAT"}}}, {"name": "unknown_1156", "op": "Const", "attr": {"value": {"tensor": {"dtype": "DT_FLOAT", "tensorShape": {"dim": [{"size": "2"}, {"size": "1"}, {"size": "1"}, {"size": "2"}]}}}, "dtype": {"type": "DT_FLOAT"}}}, {"name": "unknown_1157", "op": "Const", "attr": {"dtype": {"type": "DT_FLOAT"}, "value": {"tensor": {"dtype": "DT_FLOAT", "tensorShape": {"dim": [{"size": "2"}, {"size": "1"}, {"size": "1"}, {"size": "2"}]}}}}}, {"name": "unknown_1158", "op": "Const", "attr": {"dtype": {"type": "DT_FLOAT"}, "value": {"tensor": {"dtype": "DT_FLOAT", "tensorShape": {"dim": [{"size": "2"}, {"size": "1"}, {"size": "1"}, {"size": "2"}]}}}}}, {"name": "unknown_1159", "op": "Const", "attr": {"dtype": {"type": "DT_FLOAT"}, "value": {"tensor": {"dtype": "DT_FLOAT", "tensorShape": {"dim": [{"size": "2"}, {"size": "1"}, {"size": "1"}, {"size": "2"}]}}}}}, {"name": "unknown_1160", "op": "Const", "attr": {"dtype": {"type": "DT_FLOAT"}, "value": {"tensor": {"dtype": "DT_FLOAT", "tensorShape": {"dim": [{"size": "2"}, {"size": "1"}, {"size": "1"}, {"size": "2"}]}}}}}, {"name": "unknown_1161", "op": "Const", "attr": {"dtype": {"type": "DT_FLOAT"}, "value": {"tensor": {"dtype": "DT_FLOAT", "tensorShape": {"dim": [{"size": "2"}, {"size": "1"}, {"size": "1"}, {"size": "2"}]}}}}}, {"name": "unknown_1162", "op": "Const", "attr": {"value": {"tensor": {"dtype": "DT_FLOAT", "tensorShape": {"dim": [{"size": "2"}, {"size": "1"}, {"size": "1"}, {"size": "2"}]}}}, "dtype": {"type": "DT_FLOAT"}}}, {"name": "unknown_1163", "op": "Const", "attr": {"value": {"tensor": {"dtype": "DT_FLOAT", "tensorShape": {"dim": [{"size": "2"}, {"size": "1"}, {"size": "1"}, {"size": "2"}]}}}, "dtype": {"type": "DT_FLOAT"}}}, {"name": "unknown_1164", "op": "Const", "attr": {"dtype": {"type": "DT_FLOAT"}, "value": {"tensor": {"dtype": "DT_FLOAT", "tensorShape": {"dim": [{"size": "2"}, {"size": "1"}, {"size": "1"}, {"size": "2"}]}}}}}, {"name": "unknown_1165", "op": "Const", "attr": {"dtype": {"type": "DT_FLOAT"}, "value": {"tensor": {"dtype": "DT_FLOAT", "tensorShape": {"dim": [{"size": "2"}, {"size": "1"}, {"size": "1"}, {"size": "2"}]}}}}}, {"name": "unknown_1166", "op": "Const", "attr": {"value": {"tensor": {"dtype": "DT_FLOAT", "tensorShape": {"dim": [{"size": "2"}, {"size": "1"}, {"size": "1"}, {"size": "2"}]}}}, "dtype": {"type": "DT_FLOAT"}}}, {"name": "unknown_1167", "op": "Const", "attr": {"dtype": {"type": "DT_FLOAT"}, "value": {"tensor": {"dtype": "DT_FLOAT", "tensorShape": {"dim": [{"size": "2"}, {"size": "1"}, {"size": "1"}, {"size": "2"}]}}}}}, {"name": "unknown_1168", "op": "Const", "attr": {"dtype": {"type": "DT_FLOAT"}, "value": {"tensor": {"dtype": "DT_FLOAT", "tensorShape": {"dim": [{"size": "2"}, {"size": "1"}, {"size": "1"}, {"size": "2"}]}}}}}, {"name": "unknown_1169", "op": "Const", "attr": {"dtype": {"type": "DT_FLOAT"}, "value": {"tensor": {"dtype": "DT_FLOAT", "tensorShape": {"dim": [{"size": "2"}, {"size": "1"}, {"size": "1"}, {"size": "2"}]}}}}}, {"name": "unknown_1170", "op": "Const", "attr": {"value": {"tensor": {"dtype": "DT_FLOAT", "tensorShape": {"dim": [{"size": "2"}, {"size": "1"}, {"size": "1"}, {"size": "2"}]}}}, "dtype": {"type": "DT_FLOAT"}}}, {"name": "unknown_1171", "op": "Const", "attr": {"value": {"tensor": {"dtype": "DT_FLOAT", "tensorShape": {"dim": [{"size": "2"}, {"size": "1"}, {"size": "1"}, {"size": "2"}]}}}, "dtype": {"type": "DT_FLOAT"}}}, {"name": "unknown_1172", "op": "Const", "attr": {"dtype": {"type": "DT_FLOAT"}, "value": {"tensor": {"dtype": "DT_FLOAT", "tensorShape": {"dim": [{"size": "2"}, {"size": "1"}, {"size": "1"}, {"size": "2"}]}}}}}, {"name": "unknown_1173", "op": "Const", "attr": {"value": {"tensor": {"dtype": "DT_FLOAT", "tensorShape": {"dim": [{"size": "2"}, {"size": "1"}, {"size": "1"}, {"size": "2"}]}}}, "dtype": {"type": "DT_FLOAT"}}}, {"name": "unknown_1174", "op": "Const", "attr": {"value": {"tensor": {"dtype": "DT_FLOAT", "tensorShape": {"dim": [{"size": "2"}, {"size": "1"}, {"size": "1"}, {"size": "2"}]}}}, "dtype": {"type": "DT_FLOAT"}}}, {"name": "unknown_1175", "op": "Const", "attr": {"value": {"tensor": {"dtype": "DT_FLOAT", "tensorShape": {"dim": [{"size": "2"}, {"size": "1"}, {"size": "1"}, {"size": "2"}]}}}, "dtype": {"type": "DT_FLOAT"}}}, {"name": "unknown_1176", "op": "Const", "attr": {"dtype": {"type": "DT_FLOAT"}, "value": {"tensor": {"dtype": "DT_FLOAT", "tensorShape": {"dim": [{"size": "2"}, {"size": "1"}, {"size": "1"}, {"size": "2"}]}}}}}, {"name": "unknown_1177", "op": "Const", "attr": {"dtype": {"type": "DT_FLOAT"}, "value": {"tensor": {"dtype": "DT_FLOAT", "tensorShape": {"dim": [{"size": "2"}, {"size": "1"}, {"size": "1"}, {"size": "2"}]}}}}}, {"name": "unknown_1178", "op": "Const", "attr": {"dtype": {"type": "DT_FLOAT"}, "value": {"tensor": {"dtype": "DT_FLOAT", "tensorShape": {"dim": [{"size": "2"}, {"size": "1"}, {"size": "1"}, {"size": "2"}]}}}}}, {"name": "unknown_1179", "op": "Const", "attr": {"value": {"tensor": {"dtype": "DT_FLOAT", "tensorShape": {"dim": [{"size": "2"}, {"size": "1"}, {"size": "1"}, {"size": "2"}]}}}, "dtype": {"type": "DT_FLOAT"}}}, {"name": "unknown_1180", "op": "Const", "attr": {"dtype": {"type": "DT_FLOAT"}, "value": {"tensor": {"dtype": "DT_FLOAT", "tensorShape": {"dim": [{"size": "2"}, {"size": "1"}, {"size": "1"}, {"size": "2"}]}}}}}, {"name": "unknown_1181", "op": "Const", "attr": {"value": {"tensor": {"dtype": "DT_FLOAT", "tensorShape": {"dim": [{"size": "2"}, {"size": "1"}, {"size": "1"}, {"size": "2"}]}}}, "dtype": {"type": "DT_FLOAT"}}}, {"name": "unknown_1182", "op": "Const", "attr": {"dtype": {"type": "DT_FLOAT"}, "value": {"tensor": {"dtype": "DT_FLOAT", "tensorShape": {"dim": [{"size": "2"}, {"size": "1"}, {"size": "1"}, {"size": "2"}]}}}}}, {"name": "unknown_1183", "op": "Const", "attr": {"value": {"tensor": {"dtype": "DT_FLOAT", "tensorShape": {"dim": [{"size": "2"}, {"size": "1"}, {"size": "1"}, {"size": "2"}]}}}, "dtype": {"type": "DT_FLOAT"}}}, {"name": "unknown_1184", "op": "Const", "attr": {"value": {"tensor": {"dtype": "DT_FLOAT", "tensorShape": {"dim": [{"size": "2"}, {"size": "1"}, {"size": "1"}, {"size": "2"}]}}}, "dtype": {"type": "DT_FLOAT"}}}, {"name": "unknown_1185", "op": "Const", "attr": {"dtype": {"type": "DT_FLOAT"}, "value": {"tensor": {"dtype": "DT_FLOAT", "tensorShape": {"dim": [{"size": "2"}, {"size": "1"}, {"size": "1"}, {"size": "2"}]}}}}}, {"name": "unknown_1186", "op": "Const", "attr": {"dtype": {"type": "DT_FLOAT"}, "value": {"tensor": {"dtype": "DT_FLOAT", "tensorShape": {"dim": [{"size": "2"}, {"size": "1"}, {"size": "1"}, {"size": "2"}]}}}}}, {"name": "unknown_1187", "op": "Const", "attr": {"value": {"tensor": {"dtype": "DT_FLOAT", "tensorShape": {"dim": [{"size": "2"}, {"size": "1"}, {"size": "1"}, {"size": "2"}]}}}, "dtype": {"type": "DT_FLOAT"}}}, {"name": "unknown_1188", "op": "Const", "attr": {"dtype": {"type": "DT_FLOAT"}, "value": {"tensor": {"dtype": "DT_FLOAT", "tensorShape": {"dim": [{"size": "2"}, {"size": "1"}, {"size": "1"}, {"size": "2"}]}}}}}, {"name": "unknown_1189", "op": "Const", "attr": {"dtype": {"type": "DT_FLOAT"}, "value": {"tensor": {"dtype": "DT_FLOAT", "tensorShape": {"dim": [{"size": "2"}, {"size": "1"}, {"size": "1"}, {"size": "2"}]}}}}}, {"name": "unknown_1190", "op": "Const", "attr": {"dtype": {"type": "DT_FLOAT"}, "value": {"tensor": {"dtype": "DT_FLOAT", "tensorShape": {"dim": [{"size": "2"}, {"size": "1"}, {"size": "1"}, {"size": "2"}]}}}}}, {"name": "unknown_1191", "op": "Const", "attr": {"value": {"tensor": {"dtype": "DT_FLOAT", "tensorShape": {"dim": [{"size": "2"}, {"size": "1"}, {"size": "1"}, {"size": "2"}]}}}, "dtype": {"type": "DT_FLOAT"}}}, {"name": "unknown_1192", "op": "Const", "attr": {"dtype": {"type": "DT_FLOAT"}, "value": {"tensor": {"dtype": "DT_FLOAT", "tensorShape": {"dim": [{"size": "2"}, {"size": "1"}, {"size": "1"}, {"size": "2"}]}}}}}, {"name": "unknown_1193", "op": "Const", "attr": {"dtype": {"type": "DT_FLOAT"}, "value": {"tensor": {"dtype": "DT_FLOAT", "tensorShape": {"dim": [{"size": "2"}, {"size": "1"}, {"size": "1"}, {"size": "2"}]}}}}}, {"name": "unknown_1194", "op": "Const", "attr": {"dtype": {"type": "DT_FLOAT"}, "value": {"tensor": {"dtype": "DT_FLOAT", "tensorShape": {"dim": [{"size": "2"}, {"size": "1"}, {"size": "1"}, {"size": "2"}]}}}}}, {"name": "unknown_1195", "op": "Const", "attr": {"dtype": {"type": "DT_FLOAT"}, "value": {"tensor": {"dtype": "DT_FLOAT", "tensorShape": {"dim": [{"size": "2"}, {"size": "1"}, {"size": "1"}, {"size": "2"}]}}}}}, {"name": "unknown_1196", "op": "Const", "attr": {"dtype": {"type": "DT_FLOAT"}, "value": {"tensor": {"dtype": "DT_FLOAT", "tensorShape": {"dim": [{"size": "2"}, {"size": "1"}, {"size": "1"}, {"size": "2"}]}}}}}, {"name": "unknown_1197", "op": "Const", "attr": {"value": {"tensor": {"dtype": "DT_FLOAT", "tensorShape": {"dim": [{"size": "2"}, {"size": "1"}, {"size": "1"}, {"size": "2"}]}}}, "dtype": {"type": "DT_FLOAT"}}}, {"name": "unknown_1198", "op": "Const", "attr": {"dtype": {"type": "DT_FLOAT"}, "value": {"tensor": {"dtype": "DT_FLOAT", "tensorShape": {"dim": [{"size": "2"}, {"size": "1"}, {"size": "1"}, {"size": "2"}]}}}}}, {"name": "PartitionedCall/model_36/tf.split_21/split/split_dim", "op": "Const", "attr": {"value": {"tensor": {"dtype": "DT_INT32", "tensorShape": {}}}, "dtype": {"type": "DT_INT32"}}}, {"name": "unknown_1104", "op": "Const", "attr": {"value": {"tensor": {"dtype": "DT_FLOAT", "tensorShape": {"dim": [{"size": "1"}, {"size": "2"}, {"size": "1"}, {"size": "2"}]}}}, "dtype": {"type": "DT_FLOAT"}}}, {"name": "unknown_1105", "op": "Const", "attr": {"value": {"tensor": {"dtype": "DT_FLOAT", "tensorShape": {"dim": [{"size": "1"}, {"size": "2"}, {"size": "1"}, {"size": "2"}]}}}, "dtype": {"type": "DT_FLOAT"}}}, {"name": "unknown_1106", "op": "Const", "attr": {"dtype": {"type": "DT_FLOAT"}, "value": {"tensor": {"dtype": "DT_FLOAT", "tensorShape": {"dim": [{"size": "1"}, {"size": "2"}, {"size": "1"}, {"size": "2"}]}}}}}, {"name": "unknown_1107", "op": "Const", "attr": {"value": {"tensor": {"dtype": "DT_FLOAT", "tensorShape": {"dim": [{"size": "1"}, {"size": "2"}, {"size": "1"}, {"size": "2"}]}}}, "dtype": {"type": "DT_FLOAT"}}}, {"name": "unknown_1108", "op": "Const", "attr": {"dtype": {"type": "DT_FLOAT"}, "value": {"tensor": {"dtype": "DT_FLOAT", "tensorShape": {"dim": [{"size": "1"}, {"size": "2"}, {"size": "1"}, {"size": "2"}]}}}}}, {"name": "unknown_1109", "op": "Const", "attr": {"dtype": {"type": "DT_FLOAT"}, "value": {"tensor": {"dtype": "DT_FLOAT", "tensorShape": {"dim": [{"size": "1"}, {"size": "2"}, {"size": "1"}, {"size": "2"}]}}}}}, {"name": "unknown_1110", "op": "Const", "attr": {"value": {"tensor": {"dtype": "DT_FLOAT", "tensorShape": {"dim": [{"size": "1"}, {"size": "2"}, {"size": "1"}, {"size": "2"}]}}}, "dtype": {"type": "DT_FLOAT"}}}, {"name": "unknown_1111", "op": "Const", "attr": {"value": {"tensor": {"dtype": "DT_FLOAT", "tensorShape": {"dim": [{"size": "1"}, {"size": "2"}, {"size": "1"}, {"size": "2"}]}}}, "dtype": {"type": "DT_FLOAT"}}}, {"name": "unknown_1112", "op": "Const", "attr": {"dtype": {"type": "DT_FLOAT"}, "value": {"tensor": {"dtype": "DT_FLOAT", "tensorShape": {"dim": [{"size": "1"}, {"size": "2"}, {"size": "1"}, {"size": "2"}]}}}}}, {"name": "unknown_1113", "op": "Const", "attr": {"dtype": {"type": "DT_FLOAT"}, "value": {"tensor": {"dtype": "DT_FLOAT", "tensorShape": {"dim": [{"size": "1"}, {"size": "2"}, {"size": "1"}, {"size": "2"}]}}}}}, {"name": "unknown_1114", "op": "Const", "attr": {"value": {"tensor": {"dtype": "DT_FLOAT", "tensorShape": {"dim": [{"size": "1"}, {"size": "2"}, {"size": "1"}, {"size": "2"}]}}}, "dtype": {"type": "DT_FLOAT"}}}, {"name": "unknown_1115", "op": "Const", "attr": {"value": {"tensor": {"dtype": "DT_FLOAT", "tensorShape": {"dim": [{"size": "1"}, {"size": "2"}, {"size": "1"}, {"size": "2"}]}}}, "dtype": {"type": "DT_FLOAT"}}}, {"name": "unknown_1116", "op": "Const", "attr": {"dtype": {"type": "DT_FLOAT"}, "value": {"tensor": {"dtype": "DT_FLOAT", "tensorShape": {"dim": [{"size": "1"}, {"size": "2"}, {"size": "1"}, {"size": "2"}]}}}}}, {"name": "unknown_1117", "op": "Const", "attr": {"dtype": {"type": "DT_FLOAT"}, "value": {"tensor": {"dtype": "DT_FLOAT", "tensorShape": {"dim": [{"size": "1"}, {"size": "2"}, {"size": "1"}, {"size": "2"}]}}}}}, {"name": "unknown_1118", "op": "Const", "attr": {"value": {"tensor": {"dtype": "DT_FLOAT", "tensorShape": {"dim": [{"size": "1"}, {"size": "2"}, {"size": "1"}, {"size": "2"}]}}}, "dtype": {"type": "DT_FLOAT"}}}, {"name": "unknown_1119", "op": "Const", "attr": {"value": {"tensor": {"dtype": "DT_FLOAT", "tensorShape": {"dim": [{"size": "1"}, {"size": "2"}, {"size": "1"}, {"size": "2"}]}}}, "dtype": {"type": "DT_FLOAT"}}}, {"name": "unknown_1120", "op": "Const", "attr": {"dtype": {"type": "DT_FLOAT"}, "value": {"tensor": {"dtype": "DT_FLOAT", "tensorShape": {"dim": [{"size": "1"}, {"size": "2"}, {"size": "1"}, {"size": "2"}]}}}}}, {"name": "unknown_1121", "op": "Const", "attr": {"value": {"tensor": {"dtype": "DT_FLOAT", "tensorShape": {"dim": [{"size": "1"}, {"size": "2"}, {"size": "1"}, {"size": "2"}]}}}, "dtype": {"type": "DT_FLOAT"}}}, {"name": "unknown_1122", "op": "Const", "attr": {"dtype": {"type": "DT_FLOAT"}, "value": {"tensor": {"dtype": "DT_FLOAT", "tensorShape": {"dim": [{"size": "1"}, {"size": "2"}, {"size": "1"}, {"size": "2"}]}}}}}, {"name": "unknown_1123", "op": "Const", "attr": {"value": {"tensor": {"dtype": "DT_FLOAT", "tensorShape": {"dim": [{"size": "1"}, {"size": "2"}, {"size": "1"}, {"size": "2"}]}}}, "dtype": {"type": "DT_FLOAT"}}}, {"name": "unknown_1124", "op": "Const", "attr": {"value": {"tensor": {"dtype": "DT_FLOAT", "tensorShape": {"dim": [{"size": "1"}, {"size": "2"}, {"size": "1"}, {"size": "2"}]}}}, "dtype": {"type": "DT_FLOAT"}}}, {"name": "unknown_1125", "op": "Const", "attr": {"value": {"tensor": {"dtype": "DT_FLOAT", "tensorShape": {"dim": [{"size": "1"}, {"size": "2"}, {"size": "1"}, {"size": "2"}]}}}, "dtype": {"type": "DT_FLOAT"}}}, {"name": "unknown_1126", "op": "Const", "attr": {"dtype": {"type": "DT_FLOAT"}, "value": {"tensor": {"dtype": "DT_FLOAT", "tensorShape": {"dim": [{"size": "1"}, {"size": "2"}, {"size": "1"}, {"size": "2"}]}}}}}, {"name": "unknown_1127", "op": "Const", "attr": {"dtype": {"type": "DT_FLOAT"}, "value": {"tensor": {"dtype": "DT_FLOAT", "tensorShape": {"dim": [{"size": "1"}, {"size": "2"}, {"size": "1"}, {"size": "2"}]}}}}}, {"name": "unknown_1128", "op": "Const", "attr": {"dtype": {"type": "DT_FLOAT"}, "value": {"tensor": {"dtype": "DT_FLOAT", "tensorShape": {"dim": [{"size": "1"}, {"size": "2"}, {"size": "1"}, {"size": "2"}]}}}}}, {"name": "unknown_1129", "op": "Const", "attr": {"dtype": {"type": "DT_FLOAT"}, "value": {"tensor": {"dtype": "DT_FLOAT", "tensorShape": {"dim": [{"size": "1"}, {"size": "2"}, {"size": "1"}, {"size": "2"}]}}}}}, {"name": "unknown_1130", "op": "Const", "attr": {"value": {"tensor": {"dtype": "DT_FLOAT", "tensorShape": {"dim": [{"size": "1"}, {"size": "2"}, {"size": "1"}, {"size": "2"}]}}}, "dtype": {"type": "DT_FLOAT"}}}, {"name": "unknown_1131", "op": "Const", "attr": {"value": {"tensor": {"dtype": "DT_FLOAT", "tensorShape": {"dim": [{"size": "1"}, {"size": "2"}, {"size": "1"}, {"size": "2"}]}}}, "dtype": {"type": "DT_FLOAT"}}}, {"name": "unknown_1132", "op": "Const", "attr": {"dtype": {"type": "DT_FLOAT"}, "value": {"tensor": {"dtype": "DT_FLOAT", "tensorShape": {"dim": [{"size": "1"}, {"size": "2"}, {"size": "1"}, {"size": "2"}]}}}}}, {"name": "unknown_1133", "op": "Const", "attr": {"dtype": {"type": "DT_FLOAT"}, "value": {"tensor": {"dtype": "DT_FLOAT", "tensorShape": {"dim": [{"size": "1"}, {"size": "2"}, {"size": "1"}, {"size": "2"}]}}}}}, {"name": "unknown_1134", "op": "Const", "attr": {"value": {"tensor": {"dtype": "DT_FLOAT", "tensorShape": {"dim": [{"size": "1"}, {"size": "2"}, {"size": "1"}, {"size": "2"}]}}}, "dtype": {"type": "DT_FLOAT"}}}, {"name": "PartitionedCall/model_36/tf.split_20/split/split_dim", "op": "Const", "attr": {"dtype": {"type": "DT_INT32"}, "value": {"tensor": {"dtype": "DT_INT32", "tensorShape": {}}}}}, {"name": "unknown_1102", "op": "Const", "attr": {"dtype": {"type": "DT_FLOAT"}, "value": {"tensor": {"dtype": "DT_FLOAT", "tensorShape": {"dim": [{"size": "1"}, {"size": "1"}, {"size": "128"}, {"size": "32"}]}}}}}, {"name": "unknown_1103", "op": "Const", "attr": {"dtype": {"type": "DT_FLOAT"}, "value": {"tensor": {"dtype": "DT_FLOAT", "tensorShape": {"dim": [{"size": "32"}]}}}}}, {"name": "unknown_1135", "op": "Const", "attr": {"dtype": {"type": "DT_FLOAT"}, "value": {"tensor": {"dtype": "DT_FLOAT", "tensorShape": {"dim": [{"size": "1"}, {"size": "2"}, {"size": "1"}, {"size": "2"}]}}}}}, {"name": "PartitionedCall/model_36/tf.concat_5807/concat/axis", "op": "Const", "attr": {"dtype": {"type": "DT_INT32"}, "value": {"tensor": {"dtype": "DT_INT32", "tensorShape": {}}}}}, {"name": "unknown_1199", "op": "Const", "attr": {"dtype": {"type": "DT_FLOAT"}, "value": {"tensor": {"dtype": "DT_FLOAT", "tensorShape": {"dim": [{"size": "2"}, {"size": "1"}, {"size": "1"}, {"size": "2"}]}}}}}, {"name": "PartitionedCall/model_36/tf.concat_5808/concat/axis", "op": "Const", "attr": {"value": {"tensor": {"dtype": "DT_INT32", "tensorShape": {}}}, "dtype": {"type": "DT_INT32"}}}, {"name": "PartitionedCall/model_36/tf.compat.v1.transpose_11102/transpose/perm", "op": "Const", "attr": {"dtype": {"type": "DT_INT32"}, "value": {"tensor": {"dtype": "DT_INT32", "tensorShape": {"dim": [{"size": "4"}]}}}}}, {"name": "PartitionedCall/model_36/tf.reshape_20/Reshape/shape", "op": "Const", "attr": {"value": {"tensor": {"dtype": "DT_INT32", "tensorShape": {"dim": [{"size": "5"}]}}}, "dtype": {"type": "DT_INT32"}}}, {"name": "unknown_1200", "op": "Const", "attr": {"value": {"tensor": {"dtype": "DT_INT64", "tensorShape": {"dim": [{"size": "5"}]}}}, "dtype": {"type": "DT_INT64"}}}, {"name": "unknown_1201", "op": "Const", "attr": {"dtype": {"type": "DT_INT64"}, "value": {"tensor": {"dtype": "DT_INT64", "tensorShape": {"dim": [{"size": "5"}]}}}}}, {"name": "PartitionedCall/model_36/tf.strided_slice_22/StridedSlice/strides", "op": "Const", "attr": {"dtype": {"type": "DT_INT64"}, "value": {"tensor": {"dtype": "DT_INT64", "tensorShape": {"dim": [{"size": "5"}]}}}}}, {"name": "PartitionedCall/model_36/tf.reshape_21/Reshape/shape", "op": "Const", "attr": {"dtype": {"type": "DT_INT32"}, "value": {"tensor": {"dtype": "DT_INT32", "tensorShape": {"dim": [{"size": "4"}]}}}}}, {"name": "PartitionedCall/model_36/tf.concat_6386/concat/axis", "op": "Const", "attr": {"dtype": {"type": "DT_INT32"}, "value": {"tensor": {"dtype": "DT_INT32", "tensorShape": {}}}}}, {"name": "PartitionedCall/model_36/tf.compat.v1.transpose_12209/transpose/perm", "op": "Const", "attr": {"dtype": {"type": "DT_INT32"}, "value": {"tensor": {"dtype": "DT_INT32", "tensorShape": {"dim": [{"size": "4"}]}}}}}, {"name": "unknown_1202", "op": "Const", "attr": {"value": {"tensor": {"dtype": "DT_FLOAT", "tensorShape": {"dim": [{"size": "1"}, {"size": "1"}, {"size": "128"}, {"size": "256"}]}}}, "dtype": {"type": "DT_FLOAT"}}}, {"name": "unknown_1203", "op": "Const", "attr": {"value": {"tensor": {"dtype": "DT_FLOAT", "tensorShape": {"dim": [{"size": "256"}]}}}, "dtype": {"type": "DT_FLOAT"}}}, {"name": "ConstantFolding/PartitionedCall/model_36/tf.nn.gelu_12/Gelu/truediv_recip", "op": "Const", "attr": {"value": {"tensor": {"dtype": "DT_FLOAT", "tensorShape": {}}}, "dtype": {"type": "DT_FLOAT"}}}, {"name": "unknown_1204", "op": "Const", "attr": {"value": {"tensor": {"dtype": "DT_FLOAT", "tensorShape": {"dim": [{"size": "1"}, {"size": "1"}, {"size": "256"}, {"size": "128"}]}}}, "dtype": {"type": "DT_FLOAT"}}}, {"name": "unknown_1205", "op": "Const", "attr": {"dtype": {"type": "DT_FLOAT"}, "value": {"tensor": {"dtype": "DT_FLOAT", "tensorShape": {"dim": [{"size": "128"}]}}}}}, {"name": "PartitionedCall/model_36/tf.math.add_81/Add/y", "op": "Const", "attr": {"dtype": {"type": "DT_FLOAT"}, "value": {"tensor": {"dtype": "DT_FLOAT", "tensorShape": {"dim": [{"size": "128"}]}}}}}, {"name": "PartitionedCall/model_36/tf.strided_slice_23/StridedSlice/begin", "op": "Const", "attr": {"dtype": {"type": "DT_INT32"}, "value": {"tensor": {"dtype": "DT_INT32", "tensorShape": {"dim": [{"size": "4"}]}}}}}, {"name": "PartitionedCall/model_36/tf.strided_slice_23/StridedSlice/end", "op": "Const", "attr": {"value": {"tensor": {"dtype": "DT_INT32", "tensorShape": {"dim": [{"size": "4"}]}}}, "dtype": {"type": "DT_INT32"}}}, {"name": "PartitionedCall/model_36/tf.strided_slice_23/ones_like", "op": "Const", "attr": {"dtype": {"type": "DT_INT32"}, "value": {"tensor": {"dtype": "DT_INT32", "tensorShape": {"dim": [{"size": "4"}]}}}}}, {"name": "unknown_1207", "op": "Const", "attr": {"value": {"tensor": {"dtype": "DT_FLOAT", "tensorShape": {"dim": [{"size": "128"}]}}}, "dtype": {"type": "DT_FLOAT"}}}, {"name": "unknown_1101", "op": "Const", "attr": {"value": {"tensor": {"dtype": "DT_FLOAT", "tensorShape": {"dim": [{"size": "128"}]}}}, "dtype": {"type": "DT_FLOAT"}}}, {"name": "PartitionedCall/model_36/tf.nn.conv2d_transpose_11/conv2d_transpose/input_sizes", "op": "Const", "attr": {"dtype": {"type": "DT_INT32"}, "value": {"tensor": {"dtype": "DT_INT32", "tensorShape": {"dim": [{"size": "4"}]}}}}}, {"name": "unknown_1099", "op": "Const", "attr": {"dtype": {"type": "DT_FLOAT"}, "value": {"tensor": {"dtype": "DT_FLOAT", "tensorShape": {"dim": [{"size": "4"}, {"size": "4"}, {"size": "128"}, {"size": "128"}]}}}}}, {"name": "PartitionedCall/model_36/tf.nn.gelu_11/Gelu/mul/x", "op": "Const", "attr": {"dtype": {"type": "DT_FLOAT"}, "value": {"tensor": {"dtype": "DT_FLOAT", "tensorShape": {}}}}}, {"name": "PartitionedCall/model_36/tf.nn.gelu_11/Gelu/add/x", "op": "Const", "attr": {"dtype": {"type": "DT_FLOAT"}, "value": {"tensor": {"dtype": "DT_FLOAT", "tensorShape": {}}}}}, {"name": "PartitionedCall/model_36/tf.compat.v1.gather_9/GatherV2/indices", "op": "Const", "attr": {"dtype": {"type": "DT_INT32"}, "value": {"tensor": {"dtype": "DT_INT32", "tensorShape": {}}}}}, {"name": "PartitionedCall/model_36/tf.compat.v1.gather_9/GatherV2/axis", "op": "Const", "attr": {"value": {"tensor": {"dtype": "DT_INT32", "tensorShape": {}}}, "dtype": {"type": "DT_INT32"}}}, {"name": "unknown_1029", "op": "Const", "attr": {"value": {"tensor": {"dtype": "DT_FLOAT", "tensorShape": {"dim": [{"size": "2"}, {"size": "1"}, {"size": "1"}, {"size": "2"}]}}}, "dtype": {"type": "DT_FLOAT"}}}, {"name": "unknown_1030", "op": "Const", "attr": {"dtype": {"type": "DT_FLOAT"}, "value": {"tensor": {"dtype": "DT_FLOAT", "tensorShape": {"dim": [{"size": "2"}, {"size": "1"}, {"size": "1"}, {"size": "2"}]}}}}}, {"name": "unknown_1031", "op": "Const", "attr": {"dtype": {"type": "DT_FLOAT"}, "value": {"tensor": {"dtype": "DT_FLOAT", "tensorShape": {"dim": [{"size": "2"}, {"size": "1"}, {"size": "1"}, {"size": "2"}]}}}}}, {"name": "unknown_1032", "op": "Const", "attr": {"dtype": {"type": "DT_FLOAT"}, "value": {"tensor": {"dtype": "DT_FLOAT", "tensorShape": {"dim": [{"size": "2"}, {"size": "1"}, {"size": "1"}, {"size": "2"}]}}}}}, {"name": "unknown_1033", "op": "Const", "attr": {"dtype": {"type": "DT_FLOAT"}, "value": {"tensor": {"dtype": "DT_FLOAT", "tensorShape": {"dim": [{"size": "2"}, {"size": "1"}, {"size": "1"}, {"size": "2"}]}}}}}, {"name": "unknown_1034", "op": "Const", "attr": {"value": {"tensor": {"dtype": "DT_FLOAT", "tensorShape": {"dim": [{"size": "2"}, {"size": "1"}, {"size": "1"}, {"size": "2"}]}}}, "dtype": {"type": "DT_FLOAT"}}}, {"name": "unknown_1035", "op": "Const", "attr": {"value": {"tensor": {"dtype": "DT_FLOAT", "tensorShape": {"dim": [{"size": "2"}, {"size": "1"}, {"size": "1"}, {"size": "2"}]}}}, "dtype": {"type": "DT_FLOAT"}}}, {"name": "unknown_1036", "op": "Const", "attr": {"dtype": {"type": "DT_FLOAT"}, "value": {"tensor": {"dtype": "DT_FLOAT", "tensorShape": {"dim": [{"size": "2"}, {"size": "1"}, {"size": "1"}, {"size": "2"}]}}}}}, {"name": "unknown_1037", "op": "Const", "attr": {"value": {"tensor": {"dtype": "DT_FLOAT", "tensorShape": {"dim": [{"size": "2"}, {"size": "1"}, {"size": "1"}, {"size": "2"}]}}}, "dtype": {"type": "DT_FLOAT"}}}, {"name": "unknown_1038", "op": "Const", "attr": {"value": {"tensor": {"dtype": "DT_FLOAT", "tensorShape": {"dim": [{"size": "2"}, {"size": "1"}, {"size": "1"}, {"size": "2"}]}}}, "dtype": {"type": "DT_FLOAT"}}}, {"name": "unknown_1039", "op": "Const", "attr": {"value": {"tensor": {"dtype": "DT_FLOAT", "tensorShape": {"dim": [{"size": "2"}, {"size": "1"}, {"size": "1"}, {"size": "2"}]}}}, "dtype": {"type": "DT_FLOAT"}}}, {"name": "unknown_1040", "op": "Const", "attr": {"value": {"tensor": {"dtype": "DT_FLOAT", "tensorShape": {"dim": [{"size": "2"}, {"size": "1"}, {"size": "1"}, {"size": "2"}]}}}, "dtype": {"type": "DT_FLOAT"}}}, {"name": "unknown_1041", "op": "Const", "attr": {"value": {"tensor": {"dtype": "DT_FLOAT", "tensorShape": {"dim": [{"size": "2"}, {"size": "1"}, {"size": "1"}, {"size": "2"}]}}}, "dtype": {"type": "DT_FLOAT"}}}, {"name": "unknown_1042", "op": "Const", "attr": {"dtype": {"type": "DT_FLOAT"}, "value": {"tensor": {"dtype": "DT_FLOAT", "tensorShape": {"dim": [{"size": "2"}, {"size": "1"}, {"size": "1"}, {"size": "2"}]}}}}}, {"name": "unknown_1043", "op": "Const", "attr": {"value": {"tensor": {"dtype": "DT_FLOAT", "tensorShape": {"dim": [{"size": "2"}, {"size": "1"}, {"size": "1"}, {"size": "2"}]}}}, "dtype": {"type": "DT_FLOAT"}}}, {"name": "unknown_1044", "op": "Const", "attr": {"value": {"tensor": {"dtype": "DT_FLOAT", "tensorShape": {"dim": [{"size": "2"}, {"size": "1"}, {"size": "1"}, {"size": "2"}]}}}, "dtype": {"type": "DT_FLOAT"}}}, {"name": "unknown_1045", "op": "Const", "attr": {"value": {"tensor": {"dtype": "DT_FLOAT", "tensorShape": {"dim": [{"size": "2"}, {"size": "1"}, {"size": "1"}, {"size": "2"}]}}}, "dtype": {"type": "DT_FLOAT"}}}, {"name": "unknown_1046", "op": "Const", "attr": {"value": {"tensor": {"dtype": "DT_FLOAT", "tensorShape": {"dim": [{"size": "2"}, {"size": "1"}, {"size": "1"}, {"size": "2"}]}}}, "dtype": {"type": "DT_FLOAT"}}}, {"name": "unknown_1047", "op": "Const", "attr": {"dtype": {"type": "DT_FLOAT"}, "value": {"tensor": {"dtype": "DT_FLOAT", "tensorShape": {"dim": [{"size": "2"}, {"size": "1"}, {"size": "1"}, {"size": "2"}]}}}}}, {"name": "unknown_1048", "op": "Const", "attr": {"value": {"tensor": {"dtype": "DT_FLOAT", "tensorShape": {"dim": [{"size": "2"}, {"size": "1"}, {"size": "1"}, {"size": "2"}]}}}, "dtype": {"type": "DT_FLOAT"}}}, {"name": "unknown_1049", "op": "Const", "attr": {"value": {"tensor": {"dtype": "DT_FLOAT", "tensorShape": {"dim": [{"size": "2"}, {"size": "1"}, {"size": "1"}, {"size": "2"}]}}}, "dtype": {"type": "DT_FLOAT"}}}, {"name": "unknown_1050", "op": "Const", "attr": {"value": {"tensor": {"dtype": "DT_FLOAT", "tensorShape": {"dim": [{"size": "2"}, {"size": "1"}, {"size": "1"}, {"size": "2"}]}}}, "dtype": {"type": "DT_FLOAT"}}}, {"name": "unknown_1051", "op": "Const", "attr": {"value": {"tensor": {"dtype": "DT_FLOAT", "tensorShape": {"dim": [{"size": "2"}, {"size": "1"}, {"size": "1"}, {"size": "2"}]}}}, "dtype": {"type": "DT_FLOAT"}}}, {"name": "unknown_1052", "op": "Const", "attr": {"value": {"tensor": {"dtype": "DT_FLOAT", "tensorShape": {"dim": [{"size": "2"}, {"size": "1"}, {"size": "1"}, {"size": "2"}]}}}, "dtype": {"type": "DT_FLOAT"}}}, {"name": "unknown_1053", "op": "Const", "attr": {"dtype": {"type": "DT_FLOAT"}, "value": {"tensor": {"dtype": "DT_FLOAT", "tensorShape": {"dim": [{"size": "2"}, {"size": "1"}, {"size": "1"}, {"size": "2"}]}}}}}, {"name": "unknown_1054", "op": "Const", "attr": {"value": {"tensor": {"dtype": "DT_FLOAT", "tensorShape": {"dim": [{"size": "2"}, {"size": "1"}, {"size": "1"}, {"size": "2"}]}}}, "dtype": {"type": "DT_FLOAT"}}}, {"name": "unknown_1055", "op": "Const", "attr": {"value": {"tensor": {"dtype": "DT_FLOAT", "tensorShape": {"dim": [{"size": "2"}, {"size": "1"}, {"size": "1"}, {"size": "2"}]}}}, "dtype": {"type": "DT_FLOAT"}}}, {"name": "unknown_1056", "op": "Const", "attr": {"value": {"tensor": {"dtype": "DT_FLOAT", "tensorShape": {"dim": [{"size": "2"}, {"size": "1"}, {"size": "1"}, {"size": "2"}]}}}, "dtype": {"type": "DT_FLOAT"}}}, {"name": "unknown_1057", "op": "Const", "attr": {"dtype": {"type": "DT_FLOAT"}, "value": {"tensor": {"dtype": "DT_FLOAT", "tensorShape": {"dim": [{"size": "2"}, {"size": "1"}, {"size": "1"}, {"size": "2"}]}}}}}, {"name": "unknown_1058", "op": "Const", "attr": {"value": {"tensor": {"dtype": "DT_FLOAT", "tensorShape": {"dim": [{"size": "2"}, {"size": "1"}, {"size": "1"}, {"size": "2"}]}}}, "dtype": {"type": "DT_FLOAT"}}}, {"name": "unknown_1059", "op": "Const", "attr": {"value": {"tensor": {"dtype": "DT_FLOAT", "tensorShape": {"dim": [{"size": "2"}, {"size": "1"}, {"size": "1"}, {"size": "2"}]}}}, "dtype": {"type": "DT_FLOAT"}}}, {"name": "unknown_1060", "op": "Const", "attr": {"value": {"tensor": {"dtype": "DT_FLOAT", "tensorShape": {"dim": [{"size": "2"}, {"size": "1"}, {"size": "1"}, {"size": "2"}]}}}, "dtype": {"type": "DT_FLOAT"}}}, {"name": "unknown_1061", "op": "Const", "attr": {"dtype": {"type": "DT_FLOAT"}, "value": {"tensor": {"dtype": "DT_FLOAT", "tensorShape": {"dim": [{"size": "2"}, {"size": "1"}, {"size": "1"}, {"size": "2"}]}}}}}, {"name": "unknown_1062", "op": "Const", "attr": {"value": {"tensor": {"dtype": "DT_FLOAT", "tensorShape": {"dim": [{"size": "2"}, {"size": "1"}, {"size": "1"}, {"size": "2"}]}}}, "dtype": {"type": "DT_FLOAT"}}}, {"name": "unknown_1063", "op": "Const", "attr": {"value": {"tensor": {"dtype": "DT_FLOAT", "tensorShape": {"dim": [{"size": "2"}, {"size": "1"}, {"size": "1"}, {"size": "2"}]}}}, "dtype": {"type": "DT_FLOAT"}}}, {"name": "unknown_1064", "op": "Const", "attr": {"value": {"tensor": {"dtype": "DT_FLOAT", "tensorShape": {"dim": [{"size": "2"}, {"size": "1"}, {"size": "1"}, {"size": "2"}]}}}, "dtype": {"type": "DT_FLOAT"}}}, {"name": "unknown_1065", "op": "Const", "attr": {"value": {"tensor": {"dtype": "DT_FLOAT", "tensorShape": {"dim": [{"size": "2"}, {"size": "1"}, {"size": "1"}, {"size": "2"}]}}}, "dtype": {"type": "DT_FLOAT"}}}, {"name": "unknown_1066", "op": "Const", "attr": {"value": {"tensor": {"dtype": "DT_FLOAT", "tensorShape": {"dim": [{"size": "2"}, {"size": "1"}, {"size": "1"}, {"size": "2"}]}}}, "dtype": {"type": "DT_FLOAT"}}}, {"name": "unknown_1067", "op": "Const", "attr": {"dtype": {"type": "DT_FLOAT"}, "value": {"tensor": {"dtype": "DT_FLOAT", "tensorShape": {"dim": [{"size": "2"}, {"size": "1"}, {"size": "1"}, {"size": "2"}]}}}}}, {"name": "unknown_1068", "op": "Const", "attr": {"value": {"tensor": {"dtype": "DT_FLOAT", "tensorShape": {"dim": [{"size": "2"}, {"size": "1"}, {"size": "1"}, {"size": "2"}]}}}, "dtype": {"type": "DT_FLOAT"}}}, {"name": "unknown_1069", "op": "Const", "attr": {"dtype": {"type": "DT_FLOAT"}, "value": {"tensor": {"dtype": "DT_FLOAT", "tensorShape": {"dim": [{"size": "2"}, {"size": "1"}, {"size": "1"}, {"size": "2"}]}}}}}, {"name": "unknown_1070", "op": "Const", "attr": {"dtype": {"type": "DT_FLOAT"}, "value": {"tensor": {"dtype": "DT_FLOAT", "tensorShape": {"dim": [{"size": "2"}, {"size": "1"}, {"size": "1"}, {"size": "2"}]}}}}}, {"name": "unknown_1071", "op": "Const", "attr": {"dtype": {"type": "DT_FLOAT"}, "value": {"tensor": {"dtype": "DT_FLOAT", "tensorShape": {"dim": [{"size": "2"}, {"size": "1"}, {"size": "1"}, {"size": "2"}]}}}}}, {"name": "unknown_1072", "op": "Const", "attr": {"value": {"tensor": {"dtype": "DT_FLOAT", "tensorShape": {"dim": [{"size": "2"}, {"size": "1"}, {"size": "1"}, {"size": "2"}]}}}, "dtype": {"type": "DT_FLOAT"}}}, {"name": "unknown_1073", "op": "Const", "attr": {"dtype": {"type": "DT_FLOAT"}, "value": {"tensor": {"dtype": "DT_FLOAT", "tensorShape": {"dim": [{"size": "2"}, {"size": "1"}, {"size": "1"}, {"size": "2"}]}}}}}, {"name": "unknown_1074", "op": "Const", "attr": {"dtype": {"type": "DT_FLOAT"}, "value": {"tensor": {"dtype": "DT_FLOAT", "tensorShape": {"dim": [{"size": "2"}, {"size": "1"}, {"size": "1"}, {"size": "2"}]}}}}}, {"name": "unknown_1075", "op": "Const", "attr": {"dtype": {"type": "DT_FLOAT"}, "value": {"tensor": {"dtype": "DT_FLOAT", "tensorShape": {"dim": [{"size": "2"}, {"size": "1"}, {"size": "1"}, {"size": "2"}]}}}}}, {"name": "unknown_1076", "op": "Const", "attr": {"dtype": {"type": "DT_FLOAT"}, "value": {"tensor": {"dtype": "DT_FLOAT", "tensorShape": {"dim": [{"size": "2"}, {"size": "1"}, {"size": "1"}, {"size": "2"}]}}}}}, {"name": "unknown_1077", "op": "Const", "attr": {"value": {"tensor": {"dtype": "DT_FLOAT", "tensorShape": {"dim": [{"size": "2"}, {"size": "1"}, {"size": "1"}, {"size": "2"}]}}}, "dtype": {"type": "DT_FLOAT"}}}, {"name": "unknown_1078", "op": "Const", "attr": {"value": {"tensor": {"dtype": "DT_FLOAT", "tensorShape": {"dim": [{"size": "2"}, {"size": "1"}, {"size": "1"}, {"size": "2"}]}}}, "dtype": {"type": "DT_FLOAT"}}}, {"name": "unknown_1079", "op": "Const", "attr": {"dtype": {"type": "DT_FLOAT"}, "value": {"tensor": {"dtype": "DT_FLOAT", "tensorShape": {"dim": [{"size": "2"}, {"size": "1"}, {"size": "1"}, {"size": "2"}]}}}}}, {"name": "unknown_1080", "op": "Const", "attr": {"value": {"tensor": {"dtype": "DT_FLOAT", "tensorShape": {"dim": [{"size": "2"}, {"size": "1"}, {"size": "1"}, {"size": "2"}]}}}, "dtype": {"type": "DT_FLOAT"}}}, {"name": "unknown_1081", "op": "Const", "attr": {"value": {"tensor": {"dtype": "DT_FLOAT", "tensorShape": {"dim": [{"size": "2"}, {"size": "1"}, {"size": "1"}, {"size": "2"}]}}}, "dtype": {"type": "DT_FLOAT"}}}, {"name": "unknown_1082", "op": "Const", "attr": {"dtype": {"type": "DT_FLOAT"}, "value": {"tensor": {"dtype": "DT_FLOAT", "tensorShape": {"dim": [{"size": "2"}, {"size": "1"}, {"size": "1"}, {"size": "2"}]}}}}}, {"name": "unknown_1083", "op": "Const", "attr": {"value": {"tensor": {"dtype": "DT_FLOAT", "tensorShape": {"dim": [{"size": "2"}, {"size": "1"}, {"size": "1"}, {"size": "2"}]}}}, "dtype": {"type": "DT_FLOAT"}}}, {"name": "unknown_1084", "op": "Const", "attr": {"dtype": {"type": "DT_FLOAT"}, "value": {"tensor": {"dtype": "DT_FLOAT", "tensorShape": {"dim": [{"size": "2"}, {"size": "1"}, {"size": "1"}, {"size": "2"}]}}}}}, {"name": "unknown_1085", "op": "Const", "attr": {"dtype": {"type": "DT_FLOAT"}, "value": {"tensor": {"dtype": "DT_FLOAT", "tensorShape": {"dim": [{"size": "2"}, {"size": "1"}, {"size": "1"}, {"size": "2"}]}}}}}, {"name": "unknown_1086", "op": "Const", "attr": {"dtype": {"type": "DT_FLOAT"}, "value": {"tensor": {"dtype": "DT_FLOAT", "tensorShape": {"dim": [{"size": "2"}, {"size": "1"}, {"size": "1"}, {"size": "2"}]}}}}}, {"name": "unknown_1087", "op": "Const", "attr": {"dtype": {"type": "DT_FLOAT"}, "value": {"tensor": {"dtype": "DT_FLOAT", "tensorShape": {"dim": [{"size": "2"}, {"size": "1"}, {"size": "1"}, {"size": "2"}]}}}}}, {"name": "unknown_1088", "op": "Const", "attr": {"value": {"tensor": {"dtype": "DT_FLOAT", "tensorShape": {"dim": [{"size": "2"}, {"size": "1"}, {"size": "1"}, {"size": "2"}]}}}, "dtype": {"type": "DT_FLOAT"}}}, {"name": "unknown_1089", "op": "Const", "attr": {"value": {"tensor": {"dtype": "DT_FLOAT", "tensorShape": {"dim": [{"size": "2"}, {"size": "1"}, {"size": "1"}, {"size": "2"}]}}}, "dtype": {"type": "DT_FLOAT"}}}, {"name": "unknown_1090", "op": "Const", "attr": {"value": {"tensor": {"dtype": "DT_FLOAT", "tensorShape": {"dim": [{"size": "2"}, {"size": "1"}, {"size": "1"}, {"size": "2"}]}}}, "dtype": {"type": "DT_FLOAT"}}}, {"name": "unknown_1091", "op": "Const", "attr": {"value": {"tensor": {"dtype": "DT_FLOAT", "tensorShape": {"dim": [{"size": "2"}, {"size": "1"}, {"size": "1"}, {"size": "2"}]}}}, "dtype": {"type": "DT_FLOAT"}}}, {"name": "PartitionedCall/model_36/tf.split_19/split/split_dim", "op": "Const", "attr": {"dtype": {"type": "DT_INT32"}, "value": {"tensor": {"dtype": "DT_INT32", "tensorShape": {}}}}}, {"name": "unknown_997", "op": "Const", "attr": {"dtype": {"type": "DT_FLOAT"}, "value": {"tensor": {"dtype": "DT_FLOAT", "tensorShape": {"dim": [{"size": "1"}, {"size": "2"}, {"size": "1"}, {"size": "2"}]}}}}}, {"name": "unknown_998", "op": "Const", "attr": {"dtype": {"type": "DT_FLOAT"}, "value": {"tensor": {"dtype": "DT_FLOAT", "tensorShape": {"dim": [{"size": "1"}, {"size": "2"}, {"size": "1"}, {"size": "2"}]}}}}}, {"name": "unknown_999", "op": "Const", "attr": {"value": {"tensor": {"dtype": "DT_FLOAT", "tensorShape": {"dim": [{"size": "1"}, {"size": "2"}, {"size": "1"}, {"size": "2"}]}}}, "dtype": {"type": "DT_FLOAT"}}}, {"name": "unknown_1000", "op": "Const", "attr": {"value": {"tensor": {"dtype": "DT_FLOAT", "tensorShape": {"dim": [{"size": "1"}, {"size": "2"}, {"size": "1"}, {"size": "2"}]}}}, "dtype": {"type": "DT_FLOAT"}}}, {"name": "unknown_1001", "op": "Const", "attr": {"dtype": {"type": "DT_FLOAT"}, "value": {"tensor": {"dtype": "DT_FLOAT", "tensorShape": {"dim": [{"size": "1"}, {"size": "2"}, {"size": "1"}, {"size": "2"}]}}}}}, {"name": "unknown_1002", "op": "Const", "attr": {"dtype": {"type": "DT_FLOAT"}, "value": {"tensor": {"dtype": "DT_FLOAT", "tensorShape": {"dim": [{"size": "1"}, {"size": "2"}, {"size": "1"}, {"size": "2"}]}}}}}, {"name": "unknown_1003", "op": "Const", "attr": {"value": {"tensor": {"dtype": "DT_FLOAT", "tensorShape": {"dim": [{"size": "1"}, {"size": "2"}, {"size": "1"}, {"size": "2"}]}}}, "dtype": {"type": "DT_FLOAT"}}}, {"name": "unknown_1004", "op": "Const", "attr": {"dtype": {"type": "DT_FLOAT"}, "value": {"tensor": {"dtype": "DT_FLOAT", "tensorShape": {"dim": [{"size": "1"}, {"size": "2"}, {"size": "1"}, {"size": "2"}]}}}}}, {"name": "unknown_1005", "op": "Const", "attr": {"value": {"tensor": {"dtype": "DT_FLOAT", "tensorShape": {"dim": [{"size": "1"}, {"size": "2"}, {"size": "1"}, {"size": "2"}]}}}, "dtype": {"type": "DT_FLOAT"}}}, {"name": "unknown_1006", "op": "Const", "attr": {"value": {"tensor": {"dtype": "DT_FLOAT", "tensorShape": {"dim": [{"size": "1"}, {"size": "2"}, {"size": "1"}, {"size": "2"}]}}}, "dtype": {"type": "DT_FLOAT"}}}, {"name": "unknown_1007", "op": "Const", "attr": {"dtype": {"type": "DT_FLOAT"}, "value": {"tensor": {"dtype": "DT_FLOAT", "tensorShape": {"dim": [{"size": "1"}, {"size": "2"}, {"size": "1"}, {"size": "2"}]}}}}}, {"name": "unknown_1008", "op": "Const", "attr": {"dtype": {"type": "DT_FLOAT"}, "value": {"tensor": {"dtype": "DT_FLOAT", "tensorShape": {"dim": [{"size": "1"}, {"size": "2"}, {"size": "1"}, {"size": "2"}]}}}}}, {"name": "unknown_1009", "op": "Const", "attr": {"dtype": {"type": "DT_FLOAT"}, "value": {"tensor": {"dtype": "DT_FLOAT", "tensorShape": {"dim": [{"size": "1"}, {"size": "2"}, {"size": "1"}, {"size": "2"}]}}}}}, {"name": "unknown_1010", "op": "Const", "attr": {"dtype": {"type": "DT_FLOAT"}, "value": {"tensor": {"dtype": "DT_FLOAT", "tensorShape": {"dim": [{"size": "1"}, {"size": "2"}, {"size": "1"}, {"size": "2"}]}}}}}, {"name": "unknown_1011", "op": "Const", "attr": {"dtype": {"type": "DT_FLOAT"}, "value": {"tensor": {"dtype": "DT_FLOAT", "tensorShape": {"dim": [{"size": "1"}, {"size": "2"}, {"size": "1"}, {"size": "2"}]}}}}}, {"name": "unknown_1012", "op": "Const", "attr": {"value": {"tensor": {"dtype": "DT_FLOAT", "tensorShape": {"dim": [{"size": "1"}, {"size": "2"}, {"size": "1"}, {"size": "2"}]}}}, "dtype": {"type": "DT_FLOAT"}}}, {"name": "unknown_1013", "op": "Const", "attr": {"value": {"tensor": {"dtype": "DT_FLOAT", "tensorShape": {"dim": [{"size": "1"}, {"size": "2"}, {"size": "1"}, {"size": "2"}]}}}, "dtype": {"type": "DT_FLOAT"}}}, {"name": "unknown_1014", "op": "Const", "attr": {"value": {"tensor": {"dtype": "DT_FLOAT", "tensorShape": {"dim": [{"size": "1"}, {"size": "2"}, {"size": "1"}, {"size": "2"}]}}}, "dtype": {"type": "DT_FLOAT"}}}, {"name": "unknown_1015", "op": "Const", "attr": {"value": {"tensor": {"dtype": "DT_FLOAT", "tensorShape": {"dim": [{"size": "1"}, {"size": "2"}, {"size": "1"}, {"size": "2"}]}}}, "dtype": {"type": "DT_FLOAT"}}}, {"name": "unknown_1016", "op": "Const", "attr": {"value": {"tensor": {"dtype": "DT_FLOAT", "tensorShape": {"dim": [{"size": "1"}, {"size": "2"}, {"size": "1"}, {"size": "2"}]}}}, "dtype": {"type": "DT_FLOAT"}}}, {"name": "unknown_1017", "op": "Const", "attr": {"dtype": {"type": "DT_FLOAT"}, "value": {"tensor": {"dtype": "DT_FLOAT", "tensorShape": {"dim": [{"size": "1"}, {"size": "2"}, {"size": "1"}, {"size": "2"}]}}}}}, {"name": "unknown_1018", "op": "Const", "attr": {"dtype": {"type": "DT_FLOAT"}, "value": {"tensor": {"dtype": "DT_FLOAT", "tensorShape": {"dim": [{"size": "1"}, {"size": "2"}, {"size": "1"}, {"size": "2"}]}}}}}, {"name": "unknown_1019", "op": "Const", "attr": {"value": {"tensor": {"dtype": "DT_FLOAT", "tensorShape": {"dim": [{"size": "1"}, {"size": "2"}, {"size": "1"}, {"size": "2"}]}}}, "dtype": {"type": "DT_FLOAT"}}}, {"name": "unknown_1020", "op": "Const", "attr": {"value": {"tensor": {"dtype": "DT_FLOAT", "tensorShape": {"dim": [{"size": "1"}, {"size": "2"}, {"size": "1"}, {"size": "2"}]}}}, "dtype": {"type": "DT_FLOAT"}}}, {"name": "unknown_1021", "op": "Const", "attr": {"value": {"tensor": {"dtype": "DT_FLOAT", "tensorShape": {"dim": [{"size": "1"}, {"size": "2"}, {"size": "1"}, {"size": "2"}]}}}, "dtype": {"type": "DT_FLOAT"}}}, {"name": "unknown_1022", "op": "Const", "attr": {"dtype": {"type": "DT_FLOAT"}, "value": {"tensor": {"dtype": "DT_FLOAT", "tensorShape": {"dim": [{"size": "1"}, {"size": "2"}, {"size": "1"}, {"size": "2"}]}}}}}, {"name": "unknown_1023", "op": "Const", "attr": {"value": {"tensor": {"dtype": "DT_FLOAT", "tensorShape": {"dim": [{"size": "1"}, {"size": "2"}, {"size": "1"}, {"size": "2"}]}}}, "dtype": {"type": "DT_FLOAT"}}}, {"name": "unknown_1024", "op": "Const", "attr": {"value": {"tensor": {"dtype": "DT_FLOAT", "tensorShape": {"dim": [{"size": "1"}, {"size": "2"}, {"size": "1"}, {"size": "2"}]}}}, "dtype": {"type": "DT_FLOAT"}}}, {"name": "unknown_1025", "op": "Const", "attr": {"value": {"tensor": {"dtype": "DT_FLOAT", "tensorShape": {"dim": [{"size": "1"}, {"size": "2"}, {"size": "1"}, {"size": "2"}]}}}, "dtype": {"type": "DT_FLOAT"}}}, {"name": "unknown_1026", "op": "Const", "attr": {"dtype": {"type": "DT_FLOAT"}, "value": {"tensor": {"dtype": "DT_FLOAT", "tensorShape": {"dim": [{"size": "1"}, {"size": "2"}, {"size": "1"}, {"size": "2"}]}}}}}, {"name": "unknown_1027", "op": "Const", "attr": {"value": {"tensor": {"dtype": "DT_FLOAT", "tensorShape": {"dim": [{"size": "1"}, {"size": "2"}, {"size": "1"}, {"size": "2"}]}}}, "dtype": {"type": "DT_FLOAT"}}}, {"name": "PartitionedCall/model_36/tf.split_18/split/split_dim", "op": "Const", "attr": {"value": {"tensor": {"dtype": "DT_INT32", "tensorShape": {}}}, "dtype": {"type": "DT_INT32"}}}, {"name": "unknown_995", "op": "Const", "attr": {"value": {"tensor": {"dtype": "DT_FLOAT", "tensorShape": {"dim": [{"size": "1"}, {"size": "1"}, {"size": "128"}, {"size": "32"}]}}}, "dtype": {"type": "DT_FLOAT"}}}, {"name": "unknown_996", "op": "Const", "attr": {"value": {"tensor": {"dtype": "DT_FLOAT", "tensorShape": {"dim": [{"size": "32"}]}}}, "dtype": {"type": "DT_FLOAT"}}}, {"name": "unknown_1028", "op": "Const", "attr": {"value": {"tensor": {"dtype": "DT_FLOAT", "tensorShape": {"dim": [{"size": "1"}, {"size": "2"}, {"size": "1"}, {"size": "2"}]}}}, "dtype": {"type": "DT_FLOAT"}}}, {"name": "PartitionedCall/model_36/tf.concat_5227/concat/axis", "op": "Const", "attr": {"value": {"tensor": {"dtype": "DT_INT32", "tensorShape": {}}}, "dtype": {"type": "DT_INT32"}}}, {"name": "unknown_1092", "op": "Const", "attr": {"value": {"tensor": {"dtype": "DT_FLOAT", "tensorShape": {"dim": [{"size": "2"}, {"size": "1"}, {"size": "1"}, {"size": "2"}]}}}, "dtype": {"type": "DT_FLOAT"}}}, {"name": "PartitionedCall/model_36/tf.concat_5228/concat/axis", "op": "Const", "attr": {"dtype": {"type": "DT_INT32"}, "value": {"tensor": {"dtype": "DT_INT32", "tensorShape": {}}}}}, {"name": "PartitionedCall/model_36/tf.compat.v1.transpose_9992/transpose/perm", "op": "Const", "attr": {"dtype": {"type": "DT_INT32"}, "value": {"tensor": {"dtype": "DT_INT32", "tensorShape": {"dim": [{"size": "4"}]}}}}}, {"name": "PartitionedCall/model_36/tf.reshape_18/Reshape/shape", "op": "Const", "attr": {"value": {"tensor": {"dtype": "DT_INT32", "tensorShape": {"dim": [{"size": "5"}]}}}, "dtype": {"type": "DT_INT32"}}}, {"name": "unknown_1093", "op": "Const", "attr": {"value": {"tensor": {"dtype": "DT_INT64", "tensorShape": {"dim": [{"size": "5"}]}}}, "dtype": {"type": "DT_INT64"}}}, {"name": "unknown_1094", "op": "Const", "attr": {"value": {"tensor": {"dtype": "DT_INT64", "tensorShape": {"dim": [{"size": "5"}]}}}, "dtype": {"type": "DT_INT64"}}}, {"name": "PartitionedCall/model_36/tf.strided_slice_20/StridedSlice/strides", "op": "Const", "attr": {"value": {"tensor": {"dtype": "DT_INT64", "tensorShape": {"dim": [{"size": "5"}]}}}, "dtype": {"type": "DT_INT64"}}}, {"name": "PartitionedCall/model_36/tf.reshape_19/Reshape/shape", "op": "Const", "attr": {"value": {"tensor": {"dtype": "DT_INT32", "tensorShape": {"dim": [{"size": "4"}]}}}, "dtype": {"type": "DT_INT32"}}}, {"name": "PartitionedCall/model_36/tf.concat_5806/concat/axis", "op": "Const", "attr": {"dtype": {"type": "DT_INT32"}, "value": {"tensor": {"dtype": "DT_INT32", "tensorShape": {}}}}}, {"name": "PartitionedCall/model_36/tf.compat.v1.transpose_11099/transpose/perm", "op": "Const", "attr": {"dtype": {"type": "DT_INT32"}, "value": {"tensor": {"dtype": "DT_INT32", "tensorShape": {"dim": [{"size": "4"}]}}}}}, {"name": "unknown_1095", "op": "Const", "attr": {"value": {"tensor": {"dtype": "DT_FLOAT", "tensorShape": {"dim": [{"size": "1"}, {"size": "1"}, {"size": "128"}, {"size": "256"}]}}}, "dtype": {"type": "DT_FLOAT"}}}, {"name": "unknown_1096", "op": "Const", "attr": {"dtype": {"type": "DT_FLOAT"}, "value": {"tensor": {"dtype": "DT_FLOAT", "tensorShape": {"dim": [{"size": "256"}]}}}}}, {"name": "ConstantFolding/PartitionedCall/model_36/tf.nn.gelu_11/Gelu/truediv_recip", "op": "Const", "attr": {"dtype": {"type": "DT_FLOAT"}, "value": {"tensor": {"dtype": "DT_FLOAT", "tensorShape": {}}}}}, {"name": "unknown_1097", "op": "Const", "attr": {"dtype": {"type": "DT_FLOAT"}, "value": {"tensor": {"dtype": "DT_FLOAT", "tensorShape": {"dim": [{"size": "1"}, {"size": "1"}, {"size": "256"}, {"size": "128"}]}}}}}, {"name": "unknown_1098", "op": "Const", "attr": {"value": {"tensor": {"dtype": "DT_FLOAT", "tensorShape": {"dim": [{"size": "128"}]}}}, "dtype": {"type": "DT_FLOAT"}}}, {"name": "PartitionedCall/model_36/tf.math.add_75/Add/y", "op": "Const", "attr": {"value": {"tensor": {"dtype": "DT_FLOAT", "tensorShape": {"dim": [{"size": "128"}]}}}, "dtype": {"type": "DT_FLOAT"}}}, {"name": "PartitionedCall/model_36/tf.strided_slice_21/StridedSlice/begin", "op": "Const", "attr": {"dtype": {"type": "DT_INT32"}, "value": {"tensor": {"dtype": "DT_INT32", "tensorShape": {"dim": [{"size": "4"}]}}}}}, {"name": "PartitionedCall/model_36/tf.strided_slice_21/StridedSlice/end", "op": "Const", "attr": {"value": {"tensor": {"dtype": "DT_INT32", "tensorShape": {"dim": [{"size": "4"}]}}}, "dtype": {"type": "DT_INT32"}}}, {"name": "PartitionedCall/model_36/tf.strided_slice_21/ones_like", "op": "Const", "attr": {"value": {"tensor": {"dtype": "DT_INT32", "tensorShape": {"dim": [{"size": "4"}]}}}, "dtype": {"type": "DT_INT32"}}}, {"name": "unknown_1100", "op": "Const", "attr": {"value": {"tensor": {"dtype": "DT_FLOAT", "tensorShape": {"dim": [{"size": "128"}]}}}, "dtype": {"type": "DT_FLOAT"}}}, {"name": "unknown_994", "op": "Const", "attr": {"value": {"tensor": {"dtype": "DT_FLOAT", "tensorShape": {"dim": [{"size": "128"}]}}}, "dtype": {"type": "DT_FLOAT"}}}, {"name": "PartitionedCall/model_36/tf.nn.conv2d_transpose_10/conv2d_transpose/input_sizes", "op": "Const", "attr": {"value": {"tensor": {"dtype": "DT_INT32", "tensorShape": {"dim": [{"size": "4"}]}}}, "dtype": {"type": "DT_INT32"}}}, {"name": "unknown_992", "op": "Const", "attr": {"value": {"tensor": {"dtype": "DT_FLOAT", "tensorShape": {"dim": [{"size": "4"}, {"size": "4"}, {"size": "128"}, {"size": "128"}]}}}, "dtype": {"type": "DT_FLOAT"}}}, {"name": "PartitionedCall/model_36/tf.nn.gelu_10/Gelu/mul/x", "op": "Const", "attr": {"dtype": {"type": "DT_FLOAT"}, "value": {"tensor": {"dtype": "DT_FLOAT", "tensorShape": {}}}}}, {"name": "PartitionedCall/model_36/tf.nn.gelu_10/Gelu/add/x", "op": "Const", "attr": {"dtype": {"type": "DT_FLOAT"}, "value": {"tensor": {"dtype": "DT_FLOAT", "tensorShape": {}}}}}, {"name": "PartitionedCall/model_36/tf.compat.v1.gather_8/GatherV2/indices", "op": "Const", "attr": {"dtype": {"type": "DT_INT32"}, "value": {"tensor": {"dtype": "DT_INT32", "tensorShape": {}}}}}, {"name": "PartitionedCall/model_36/tf.compat.v1.gather_8/GatherV2/axis", "op": "Const", "attr": {"value": {"tensor": {"dtype": "DT_INT32", "tensorShape": {}}}, "dtype": {"type": "DT_INT32"}}}, {"name": "unknown_922", "op": "Const", "attr": {"value": {"tensor": {"dtype": "DT_FLOAT", "tensorShape": {"dim": [{"size": "2"}, {"size": "1"}, {"size": "1"}, {"size": "2"}]}}}, "dtype": {"type": "DT_FLOAT"}}}, {"name": "unknown_923", "op": "Const", "attr": {"dtype": {"type": "DT_FLOAT"}, "value": {"tensor": {"dtype": "DT_FLOAT", "tensorShape": {"dim": [{"size": "2"}, {"size": "1"}, {"size": "1"}, {"size": "2"}]}}}}}, {"name": "unknown_924", "op": "Const", "attr": {"dtype": {"type": "DT_FLOAT"}, "value": {"tensor": {"dtype": "DT_FLOAT", "tensorShape": {"dim": [{"size": "2"}, {"size": "1"}, {"size": "1"}, {"size": "2"}]}}}}}, {"name": "unknown_925", "op": "Const", "attr": {"value": {"tensor": {"dtype": "DT_FLOAT", "tensorShape": {"dim": [{"size": "2"}, {"size": "1"}, {"size": "1"}, {"size": "2"}]}}}, "dtype": {"type": "DT_FLOAT"}}}, {"name": "unknown_926", "op": "Const", "attr": {"value": {"tensor": {"dtype": "DT_FLOAT", "tensorShape": {"dim": [{"size": "2"}, {"size": "1"}, {"size": "1"}, {"size": "2"}]}}}, "dtype": {"type": "DT_FLOAT"}}}, {"name": "unknown_927", "op": "Const", "attr": {"dtype": {"type": "DT_FLOAT"}, "value": {"tensor": {"dtype": "DT_FLOAT", "tensorShape": {"dim": [{"size": "2"}, {"size": "1"}, {"size": "1"}, {"size": "2"}]}}}}}, {"name": "unknown_928", "op": "Const", "attr": {"value": {"tensor": {"dtype": "DT_FLOAT", "tensorShape": {"dim": [{"size": "2"}, {"size": "1"}, {"size": "1"}, {"size": "2"}]}}}, "dtype": {"type": "DT_FLOAT"}}}, {"name": "unknown_929", "op": "Const", "attr": {"dtype": {"type": "DT_FLOAT"}, "value": {"tensor": {"dtype": "DT_FLOAT", "tensorShape": {"dim": [{"size": "2"}, {"size": "1"}, {"size": "1"}, {"size": "2"}]}}}}}, {"name": "unknown_930", "op": "Const", "attr": {"dtype": {"type": "DT_FLOAT"}, "value": {"tensor": {"dtype": "DT_FLOAT", "tensorShape": {"dim": [{"size": "2"}, {"size": "1"}, {"size": "1"}, {"size": "2"}]}}}}}, {"name": "unknown_931", "op": "Const", "attr": {"dtype": {"type": "DT_FLOAT"}, "value": {"tensor": {"dtype": "DT_FLOAT", "tensorShape": {"dim": [{"size": "2"}, {"size": "1"}, {"size": "1"}, {"size": "2"}]}}}}}, {"name": "unknown_932", "op": "Const", "attr": {"dtype": {"type": "DT_FLOAT"}, "value": {"tensor": {"dtype": "DT_FLOAT", "tensorShape": {"dim": [{"size": "2"}, {"size": "1"}, {"size": "1"}, {"size": "2"}]}}}}}, {"name": "unknown_933", "op": "Const", "attr": {"value": {"tensor": {"dtype": "DT_FLOAT", "tensorShape": {"dim": [{"size": "2"}, {"size": "1"}, {"size": "1"}, {"size": "2"}]}}}, "dtype": {"type": "DT_FLOAT"}}}, {"name": "unknown_934", "op": "Const", "attr": {"dtype": {"type": "DT_FLOAT"}, "value": {"tensor": {"dtype": "DT_FLOAT", "tensorShape": {"dim": [{"size": "2"}, {"size": "1"}, {"size": "1"}, {"size": "2"}]}}}}}, {"name": "unknown_935", "op": "Const", "attr": {"dtype": {"type": "DT_FLOAT"}, "value": {"tensor": {"dtype": "DT_FLOAT", "tensorShape": {"dim": [{"size": "2"}, {"size": "1"}, {"size": "1"}, {"size": "2"}]}}}}}, {"name": "unknown_936", "op": "Const", "attr": {"value": {"tensor": {"dtype": "DT_FLOAT", "tensorShape": {"dim": [{"size": "2"}, {"size": "1"}, {"size": "1"}, {"size": "2"}]}}}, "dtype": {"type": "DT_FLOAT"}}}, {"name": "unknown_937", "op": "Const", "attr": {"value": {"tensor": {"dtype": "DT_FLOAT", "tensorShape": {"dim": [{"size": "2"}, {"size": "1"}, {"size": "1"}, {"size": "2"}]}}}, "dtype": {"type": "DT_FLOAT"}}}, {"name": "unknown_938", "op": "Const", "attr": {"value": {"tensor": {"dtype": "DT_FLOAT", "tensorShape": {"dim": [{"size": "2"}, {"size": "1"}, {"size": "1"}, {"size": "2"}]}}}, "dtype": {"type": "DT_FLOAT"}}}, {"name": "unknown_939", "op": "Const", "attr": {"dtype": {"type": "DT_FLOAT"}, "value": {"tensor": {"dtype": "DT_FLOAT", "tensorShape": {"dim": [{"size": "2"}, {"size": "1"}, {"size": "1"}, {"size": "2"}]}}}}}, {"name": "unknown_940", "op": "Const", "attr": {"value": {"tensor": {"dtype": "DT_FLOAT", "tensorShape": {"dim": [{"size": "2"}, {"size": "1"}, {"size": "1"}, {"size": "2"}]}}}, "dtype": {"type": "DT_FLOAT"}}}, {"name": "unknown_941", "op": "Const", "attr": {"value": {"tensor": {"dtype": "DT_FLOAT", "tensorShape": {"dim": [{"size": "2"}, {"size": "1"}, {"size": "1"}, {"size": "2"}]}}}, "dtype": {"type": "DT_FLOAT"}}}, {"name": "unknown_942", "op": "Const", "attr": {"dtype": {"type": "DT_FLOAT"}, "value": {"tensor": {"dtype": "DT_FLOAT", "tensorShape": {"dim": [{"size": "2"}, {"size": "1"}, {"size": "1"}, {"size": "2"}]}}}}}, {"name": "unknown_943", "op": "Const", "attr": {"dtype": {"type": "DT_FLOAT"}, "value": {"tensor": {"dtype": "DT_FLOAT", "tensorShape": {"dim": [{"size": "2"}, {"size": "1"}, {"size": "1"}, {"size": "2"}]}}}}}, {"name": "unknown_944", "op": "Const", "attr": {"value": {"tensor": {"dtype": "DT_FLOAT", "tensorShape": {"dim": [{"size": "2"}, {"size": "1"}, {"size": "1"}, {"size": "2"}]}}}, "dtype": {"type": "DT_FLOAT"}}}, {"name": "unknown_945", "op": "Const", "attr": {"dtype": {"type": "DT_FLOAT"}, "value": {"tensor": {"dtype": "DT_FLOAT", "tensorShape": {"dim": [{"size": "2"}, {"size": "1"}, {"size": "1"}, {"size": "2"}]}}}}}, {"name": "unknown_946", "op": "Const", "attr": {"dtype": {"type": "DT_FLOAT"}, "value": {"tensor": {"dtype": "DT_FLOAT", "tensorShape": {"dim": [{"size": "2"}, {"size": "1"}, {"size": "1"}, {"size": "2"}]}}}}}, {"name": "unknown_947", "op": "Const", "attr": {"value": {"tensor": {"dtype": "DT_FLOAT", "tensorShape": {"dim": [{"size": "2"}, {"size": "1"}, {"size": "1"}, {"size": "2"}]}}}, "dtype": {"type": "DT_FLOAT"}}}, {"name": "unknown_948", "op": "Const", "attr": {"dtype": {"type": "DT_FLOAT"}, "value": {"tensor": {"dtype": "DT_FLOAT", "tensorShape": {"dim": [{"size": "2"}, {"size": "1"}, {"size": "1"}, {"size": "2"}]}}}}}, {"name": "unknown_949", "op": "Const", "attr": {"value": {"tensor": {"dtype": "DT_FLOAT", "tensorShape": {"dim": [{"size": "2"}, {"size": "1"}, {"size": "1"}, {"size": "2"}]}}}, "dtype": {"type": "DT_FLOAT"}}}, {"name": "unknown_950", "op": "Const", "attr": {"value": {"tensor": {"dtype": "DT_FLOAT", "tensorShape": {"dim": [{"size": "2"}, {"size": "1"}, {"size": "1"}, {"size": "2"}]}}}, "dtype": {"type": "DT_FLOAT"}}}, {"name": "unknown_951", "op": "Const", "attr": {"value": {"tensor": {"dtype": "DT_FLOAT", "tensorShape": {"dim": [{"size": "2"}, {"size": "1"}, {"size": "1"}, {"size": "2"}]}}}, "dtype": {"type": "DT_FLOAT"}}}, {"name": "unknown_952", "op": "Const", "attr": {"dtype": {"type": "DT_FLOAT"}, "value": {"tensor": {"dtype": "DT_FLOAT", "tensorShape": {"dim": [{"size": "2"}, {"size": "1"}, {"size": "1"}, {"size": "2"}]}}}}}, {"name": "unknown_953", "op": "Const", "attr": {"value": {"tensor": {"dtype": "DT_FLOAT", "tensorShape": {"dim": [{"size": "2"}, {"size": "1"}, {"size": "1"}, {"size": "2"}]}}}, "dtype": {"type": "DT_FLOAT"}}}, {"name": "unknown_954", "op": "Const", "attr": {"dtype": {"type": "DT_FLOAT"}, "value": {"tensor": {"dtype": "DT_FLOAT", "tensorShape": {"dim": [{"size": "2"}, {"size": "1"}, {"size": "1"}, {"size": "2"}]}}}}}, {"name": "unknown_955", "op": "Const", "attr": {"value": {"tensor": {"dtype": "DT_FLOAT", "tensorShape": {"dim": [{"size": "2"}, {"size": "1"}, {"size": "1"}, {"size": "2"}]}}}, "dtype": {"type": "DT_FLOAT"}}}, {"name": "unknown_956", "op": "Const", "attr": {"value": {"tensor": {"dtype": "DT_FLOAT", "tensorShape": {"dim": [{"size": "2"}, {"size": "1"}, {"size": "1"}, {"size": "2"}]}}}, "dtype": {"type": "DT_FLOAT"}}}, {"name": "unknown_957", "op": "Const", "attr": {"value": {"tensor": {"dtype": "DT_FLOAT", "tensorShape": {"dim": [{"size": "2"}, {"size": "1"}, {"size": "1"}, {"size": "2"}]}}}, "dtype": {"type": "DT_FLOAT"}}}, {"name": "unknown_958", "op": "Const", "attr": {"dtype": {"type": "DT_FLOAT"}, "value": {"tensor": {"dtype": "DT_FLOAT", "tensorShape": {"dim": [{"size": "2"}, {"size": "1"}, {"size": "1"}, {"size": "2"}]}}}}}, {"name": "unknown_959", "op": "Const", "attr": {"dtype": {"type": "DT_FLOAT"}, "value": {"tensor": {"dtype": "DT_FLOAT", "tensorShape": {"dim": [{"size": "2"}, {"size": "1"}, {"size": "1"}, {"size": "2"}]}}}}}, {"name": "unknown_960", "op": "Const", "attr": {"dtype": {"type": "DT_FLOAT"}, "value": {"tensor": {"dtype": "DT_FLOAT", "tensorShape": {"dim": [{"size": "2"}, {"size": "1"}, {"size": "1"}, {"size": "2"}]}}}}}, {"name": "unknown_961", "op": "Const", "attr": {"value": {"tensor": {"dtype": "DT_FLOAT", "tensorShape": {"dim": [{"size": "2"}, {"size": "1"}, {"size": "1"}, {"size": "2"}]}}}, "dtype": {"type": "DT_FLOAT"}}}, {"name": "unknown_962", "op": "Const", "attr": {"value": {"tensor": {"dtype": "DT_FLOAT", "tensorShape": {"dim": [{"size": "2"}, {"size": "1"}, {"size": "1"}, {"size": "2"}]}}}, "dtype": {"type": "DT_FLOAT"}}}, {"name": "unknown_963", "op": "Const", "attr": {"dtype": {"type": "DT_FLOAT"}, "value": {"tensor": {"dtype": "DT_FLOAT", "tensorShape": {"dim": [{"size": "2"}, {"size": "1"}, {"size": "1"}, {"size": "2"}]}}}}}, {"name": "unknown_964", "op": "Const", "attr": {"value": {"tensor": {"dtype": "DT_FLOAT", "tensorShape": {"dim": [{"size": "2"}, {"size": "1"}, {"size": "1"}, {"size": "2"}]}}}, "dtype": {"type": "DT_FLOAT"}}}, {"name": "unknown_965", "op": "Const", "attr": {"value": {"tensor": {"dtype": "DT_FLOAT", "tensorShape": {"dim": [{"size": "2"}, {"size": "1"}, {"size": "1"}, {"size": "2"}]}}}, "dtype": {"type": "DT_FLOAT"}}}, {"name": "unknown_966", "op": "Const", "attr": {"value": {"tensor": {"dtype": "DT_FLOAT", "tensorShape": {"dim": [{"size": "2"}, {"size": "1"}, {"size": "1"}, {"size": "2"}]}}}, "dtype": {"type": "DT_FLOAT"}}}, {"name": "unknown_967", "op": "Const", "attr": {"dtype": {"type": "DT_FLOAT"}, "value": {"tensor": {"dtype": "DT_FLOAT", "tensorShape": {"dim": [{"size": "2"}, {"size": "1"}, {"size": "1"}, {"size": "2"}]}}}}}, {"name": "unknown_968", "op": "Const", "attr": {"value": {"tensor": {"dtype": "DT_FLOAT", "tensorShape": {"dim": [{"size": "2"}, {"size": "1"}, {"size": "1"}, {"size": "2"}]}}}, "dtype": {"type": "DT_FLOAT"}}}, {"name": "unknown_969", "op": "Const", "attr": {"value": {"tensor": {"dtype": "DT_FLOAT", "tensorShape": {"dim": [{"size": "2"}, {"size": "1"}, {"size": "1"}, {"size": "2"}]}}}, "dtype": {"type": "DT_FLOAT"}}}, {"name": "unknown_970", "op": "Const", "attr": {"dtype": {"type": "DT_FLOAT"}, "value": {"tensor": {"dtype": "DT_FLOAT", "tensorShape": {"dim": [{"size": "2"}, {"size": "1"}, {"size": "1"}, {"size": "2"}]}}}}}, {"name": "unknown_971", "op": "Const", "attr": {"value": {"tensor": {"dtype": "DT_FLOAT", "tensorShape": {"dim": [{"size": "2"}, {"size": "1"}, {"size": "1"}, {"size": "2"}]}}}, "dtype": {"type": "DT_FLOAT"}}}, {"name": "unknown_972", "op": "Const", "attr": {"dtype": {"type": "DT_FLOAT"}, "value": {"tensor": {"dtype": "DT_FLOAT", "tensorShape": {"dim": [{"size": "2"}, {"size": "1"}, {"size": "1"}, {"size": "2"}]}}}}}, {"name": "unknown_973", "op": "Const", "attr": {"dtype": {"type": "DT_FLOAT"}, "value": {"tensor": {"dtype": "DT_FLOAT", "tensorShape": {"dim": [{"size": "2"}, {"size": "1"}, {"size": "1"}, {"size": "2"}]}}}}}, {"name": "unknown_974", "op": "Const", "attr": {"value": {"tensor": {"dtype": "DT_FLOAT", "tensorShape": {"dim": [{"size": "2"}, {"size": "1"}, {"size": "1"}, {"size": "2"}]}}}, "dtype": {"type": "DT_FLOAT"}}}, {"name": "unknown_975", "op": "Const", "attr": {"value": {"tensor": {"dtype": "DT_FLOAT", "tensorShape": {"dim": [{"size": "2"}, {"size": "1"}, {"size": "1"}, {"size": "2"}]}}}, "dtype": {"type": "DT_FLOAT"}}}, {"name": "unknown_976", "op": "Const", "attr": {"dtype": {"type": "DT_FLOAT"}, "value": {"tensor": {"dtype": "DT_FLOAT", "tensorShape": {"dim": [{"size": "2"}, {"size": "1"}, {"size": "1"}, {"size": "2"}]}}}}}, {"name": "unknown_977", "op": "Const", "attr": {"value": {"tensor": {"dtype": "DT_FLOAT", "tensorShape": {"dim": [{"size": "2"}, {"size": "1"}, {"size": "1"}, {"size": "2"}]}}}, "dtype": {"type": "DT_FLOAT"}}}, {"name": "unknown_978", "op": "Const", "attr": {"value": {"tensor": {"dtype": "DT_FLOAT", "tensorShape": {"dim": [{"size": "2"}, {"size": "1"}, {"size": "1"}, {"size": "2"}]}}}, "dtype": {"type": "DT_FLOAT"}}}, {"name": "unknown_979", "op": "Const", "attr": {"dtype": {"type": "DT_FLOAT"}, "value": {"tensor": {"dtype": "DT_FLOAT", "tensorShape": {"dim": [{"size": "2"}, {"size": "1"}, {"size": "1"}, {"size": "2"}]}}}}}, {"name": "unknown_980", "op": "Const", "attr": {"dtype": {"type": "DT_FLOAT"}, "value": {"tensor": {"dtype": "DT_FLOAT", "tensorShape": {"dim": [{"size": "2"}, {"size": "1"}, {"size": "1"}, {"size": "2"}]}}}}}, {"name": "unknown_981", "op": "Const", "attr": {"dtype": {"type": "DT_FLOAT"}, "value": {"tensor": {"dtype": "DT_FLOAT", "tensorShape": {"dim": [{"size": "2"}, {"size": "1"}, {"size": "1"}, {"size": "2"}]}}}}}, {"name": "unknown_982", "op": "Const", "attr": {"value": {"tensor": {"dtype": "DT_FLOAT", "tensorShape": {"dim": [{"size": "2"}, {"size": "1"}, {"size": "1"}, {"size": "2"}]}}}, "dtype": {"type": "DT_FLOAT"}}}, {"name": "unknown_983", "op": "Const", "attr": {"dtype": {"type": "DT_FLOAT"}, "value": {"tensor": {"dtype": "DT_FLOAT", "tensorShape": {"dim": [{"size": "2"}, {"size": "1"}, {"size": "1"}, {"size": "2"}]}}}}}, {"name": "unknown_984", "op": "Const", "attr": {"value": {"tensor": {"dtype": "DT_FLOAT", "tensorShape": {"dim": [{"size": "2"}, {"size": "1"}, {"size": "1"}, {"size": "2"}]}}}, "dtype": {"type": "DT_FLOAT"}}}, {"name": "PartitionedCall/model_36/tf.split_17/split/split_dim", "op": "Const", "attr": {"value": {"tensor": {"dtype": "DT_INT32", "tensorShape": {}}}, "dtype": {"type": "DT_INT32"}}}, {"name": "unknown_890", "op": "Const", "attr": {"dtype": {"type": "DT_FLOAT"}, "value": {"tensor": {"dtype": "DT_FLOAT", "tensorShape": {"dim": [{"size": "1"}, {"size": "2"}, {"size": "1"}, {"size": "2"}]}}}}}, {"name": "unknown_891", "op": "Const", "attr": {"dtype": {"type": "DT_FLOAT"}, "value": {"tensor": {"dtype": "DT_FLOAT", "tensorShape": {"dim": [{"size": "1"}, {"size": "2"}, {"size": "1"}, {"size": "2"}]}}}}}, {"name": "unknown_892", "op": "Const", "attr": {"value": {"tensor": {"dtype": "DT_FLOAT", "tensorShape": {"dim": [{"size": "1"}, {"size": "2"}, {"size": "1"}, {"size": "2"}]}}}, "dtype": {"type": "DT_FLOAT"}}}, {"name": "unknown_893", "op": "Const", "attr": {"value": {"tensor": {"dtype": "DT_FLOAT", "tensorShape": {"dim": [{"size": "1"}, {"size": "2"}, {"size": "1"}, {"size": "2"}]}}}, "dtype": {"type": "DT_FLOAT"}}}, {"name": "unknown_894", "op": "Const", "attr": {"value": {"tensor": {"dtype": "DT_FLOAT", "tensorShape": {"dim": [{"size": "1"}, {"size": "2"}, {"size": "1"}, {"size": "2"}]}}}, "dtype": {"type": "DT_FLOAT"}}}, {"name": "unknown_895", "op": "Const", "attr": {"value": {"tensor": {"dtype": "DT_FLOAT", "tensorShape": {"dim": [{"size": "1"}, {"size": "2"}, {"size": "1"}, {"size": "2"}]}}}, "dtype": {"type": "DT_FLOAT"}}}, {"name": "unknown_896", "op": "Const", "attr": {"dtype": {"type": "DT_FLOAT"}, "value": {"tensor": {"dtype": "DT_FLOAT", "tensorShape": {"dim": [{"size": "1"}, {"size": "2"}, {"size": "1"}, {"size": "2"}]}}}}}, {"name": "unknown_897", "op": "Const", "attr": {"dtype": {"type": "DT_FLOAT"}, "value": {"tensor": {"dtype": "DT_FLOAT", "tensorShape": {"dim": [{"size": "1"}, {"size": "2"}, {"size": "1"}, {"size": "2"}]}}}}}, {"name": "unknown_898", "op": "Const", "attr": {"value": {"tensor": {"dtype": "DT_FLOAT", "tensorShape": {"dim": [{"size": "1"}, {"size": "2"}, {"size": "1"}, {"size": "2"}]}}}, "dtype": {"type": "DT_FLOAT"}}}, {"name": "unknown_899", "op": "Const", "attr": {"value": {"tensor": {"dtype": "DT_FLOAT", "tensorShape": {"dim": [{"size": "1"}, {"size": "2"}, {"size": "1"}, {"size": "2"}]}}}, "dtype": {"type": "DT_FLOAT"}}}, {"name": "unknown_900", "op": "Const", "attr": {"dtype": {"type": "DT_FLOAT"}, "value": {"tensor": {"dtype": "DT_FLOAT", "tensorShape": {"dim": [{"size": "1"}, {"size": "2"}, {"size": "1"}, {"size": "2"}]}}}}}, {"name": "unknown_901", "op": "Const", "attr": {"dtype": {"type": "DT_FLOAT"}, "value": {"tensor": {"dtype": "DT_FLOAT", "tensorShape": {"dim": [{"size": "1"}, {"size": "2"}, {"size": "1"}, {"size": "2"}]}}}}}, {"name": "unknown_902", "op": "Const", "attr": {"value": {"tensor": {"dtype": "DT_FLOAT", "tensorShape": {"dim": [{"size": "1"}, {"size": "2"}, {"size": "1"}, {"size": "2"}]}}}, "dtype": {"type": "DT_FLOAT"}}}, {"name": "unknown_903", "op": "Const", "attr": {"value": {"tensor": {"dtype": "DT_FLOAT", "tensorShape": {"dim": [{"size": "1"}, {"size": "2"}, {"size": "1"}, {"size": "2"}]}}}, "dtype": {"type": "DT_FLOAT"}}}, {"name": "unknown_904", "op": "Const", "attr": {"value": {"tensor": {"dtype": "DT_FLOAT", "tensorShape": {"dim": [{"size": "1"}, {"size": "2"}, {"size": "1"}, {"size": "2"}]}}}, "dtype": {"type": "DT_FLOAT"}}}, {"name": "unknown_905", "op": "Const", "attr": {"value": {"tensor": {"dtype": "DT_FLOAT", "tensorShape": {"dim": [{"size": "1"}, {"size": "2"}, {"size": "1"}, {"size": "2"}]}}}, "dtype": {"type": "DT_FLOAT"}}}, {"name": "unknown_906", "op": "Const", "attr": {"dtype": {"type": "DT_FLOAT"}, "value": {"tensor": {"dtype": "DT_FLOAT", "tensorShape": {"dim": [{"size": "1"}, {"size": "2"}, {"size": "1"}, {"size": "2"}]}}}}}, {"name": "unknown_907", "op": "Const", "attr": {"value": {"tensor": {"dtype": "DT_FLOAT", "tensorShape": {"dim": [{"size": "1"}, {"size": "2"}, {"size": "1"}, {"size": "2"}]}}}, "dtype": {"type": "DT_FLOAT"}}}, {"name": "unknown_908", "op": "Const", "attr": {"value": {"tensor": {"dtype": "DT_FLOAT", "tensorShape": {"dim": [{"size": "1"}, {"size": "2"}, {"size": "1"}, {"size": "2"}]}}}, "dtype": {"type": "DT_FLOAT"}}}, {"name": "unknown_909", "op": "Const", "attr": {"value": {"tensor": {"dtype": "DT_FLOAT", "tensorShape": {"dim": [{"size": "1"}, {"size": "2"}, {"size": "1"}, {"size": "2"}]}}}, "dtype": {"type": "DT_FLOAT"}}}, {"name": "unknown_910", "op": "Const", "attr": {"value": {"tensor": {"dtype": "DT_FLOAT", "tensorShape": {"dim": [{"size": "1"}, {"size": "2"}, {"size": "1"}, {"size": "2"}]}}}, "dtype": {"type": "DT_FLOAT"}}}, {"name": "unknown_911", "op": "Const", "attr": {"dtype": {"type": "DT_FLOAT"}, "value": {"tensor": {"dtype": "DT_FLOAT", "tensorShape": {"dim": [{"size": "1"}, {"size": "2"}, {"size": "1"}, {"size": "2"}]}}}}}, {"name": "unknown_912", "op": "Const", "attr": {"value": {"tensor": {"dtype": "DT_FLOAT", "tensorShape": {"dim": [{"size": "1"}, {"size": "2"}, {"size": "1"}, {"size": "2"}]}}}, "dtype": {"type": "DT_FLOAT"}}}, {"name": "unknown_913", "op": "Const", "attr": {"value": {"tensor": {"dtype": "DT_FLOAT", "tensorShape": {"dim": [{"size": "1"}, {"size": "2"}, {"size": "1"}, {"size": "2"}]}}}, "dtype": {"type": "DT_FLOAT"}}}, {"name": "unknown_914", "op": "Const", "attr": {"dtype": {"type": "DT_FLOAT"}, "value": {"tensor": {"dtype": "DT_FLOAT", "tensorShape": {"dim": [{"size": "1"}, {"size": "2"}, {"size": "1"}, {"size": "2"}]}}}}}, {"name": "unknown_915", "op": "Const", "attr": {"value": {"tensor": {"dtype": "DT_FLOAT", "tensorShape": {"dim": [{"size": "1"}, {"size": "2"}, {"size": "1"}, {"size": "2"}]}}}, "dtype": {"type": "DT_FLOAT"}}}, {"name": "unknown_916", "op": "Const", "attr": {"dtype": {"type": "DT_FLOAT"}, "value": {"tensor": {"dtype": "DT_FLOAT", "tensorShape": {"dim": [{"size": "1"}, {"size": "2"}, {"size": "1"}, {"size": "2"}]}}}}}, {"name": "unknown_917", "op": "Const", "attr": {"dtype": {"type": "DT_FLOAT"}, "value": {"tensor": {"dtype": "DT_FLOAT", "tensorShape": {"dim": [{"size": "1"}, {"size": "2"}, {"size": "1"}, {"size": "2"}]}}}}}, {"name": "unknown_918", "op": "Const", "attr": {"dtype": {"type": "DT_FLOAT"}, "value": {"tensor": {"dtype": "DT_FLOAT", "tensorShape": {"dim": [{"size": "1"}, {"size": "2"}, {"size": "1"}, {"size": "2"}]}}}}}, {"name": "unknown_919", "op": "Const", "attr": {"dtype": {"type": "DT_FLOAT"}, "value": {"tensor": {"dtype": "DT_FLOAT", "tensorShape": {"dim": [{"size": "1"}, {"size": "2"}, {"size": "1"}, {"size": "2"}]}}}}}, {"name": "unknown_920", "op": "Const", "attr": {"dtype": {"type": "DT_FLOAT"}, "value": {"tensor": {"dtype": "DT_FLOAT", "tensorShape": {"dim": [{"size": "1"}, {"size": "2"}, {"size": "1"}, {"size": "2"}]}}}}}, {"name": "PartitionedCall/model_36/tf.split_16/split/split_dim", "op": "Const", "attr": {"dtype": {"type": "DT_INT32"}, "value": {"tensor": {"dtype": "DT_INT32", "tensorShape": {}}}}}, {"name": "unknown_888", "op": "Const", "attr": {"value": {"tensor": {"dtype": "DT_FLOAT", "tensorShape": {"dim": [{"size": "1"}, {"size": "1"}, {"size": "128"}, {"size": "32"}]}}}, "dtype": {"type": "DT_FLOAT"}}}, {"name": "unknown_889", "op": "Const", "attr": {"dtype": {"type": "DT_FLOAT"}, "value": {"tensor": {"dtype": "DT_FLOAT", "tensorShape": {"dim": [{"size": "32"}]}}}}}, {"name": "unknown_921", "op": "Const", "attr": {"value": {"tensor": {"dtype": "DT_FLOAT", "tensorShape": {"dim": [{"size": "1"}, {"size": "2"}, {"size": "1"}, {"size": "2"}]}}}, "dtype": {"type": "DT_FLOAT"}}}, {"name": "PartitionedCall/model_36/tf.concat_4647/concat/axis", "op": "Const", "attr": {"value": {"tensor": {"dtype": "DT_INT32", "tensorShape": {}}}, "dtype": {"type": "DT_INT32"}}}, {"name": "unknown_985", "op": "Const", "attr": {"dtype": {"type": "DT_FLOAT"}, "value": {"tensor": {"dtype": "DT_FLOAT", "tensorShape": {"dim": [{"size": "2"}, {"size": "1"}, {"size": "1"}, {"size": "2"}]}}}}}, {"name": "PartitionedCall/model_36/tf.concat_4648/concat/axis", "op": "Const", "attr": {"value": {"tensor": {"dtype": "DT_INT32", "tensorShape": {}}}, "dtype": {"type": "DT_INT32"}}}, {"name": "PartitionedCall/model_36/tf.compat.v1.transpose_8882/transpose/perm", "op": "Const", "attr": {"value": {"tensor": {"dtype": "DT_INT32", "tensorShape": {"dim": [{"size": "4"}]}}}, "dtype": {"type": "DT_INT32"}}}, {"name": "PartitionedCall/model_36/tf.reshape_16/Reshape/shape", "op": "Const", "attr": {"value": {"tensor": {"dtype": "DT_INT32", "tensorShape": {"dim": [{"size": "5"}]}}}, "dtype": {"type": "DT_INT32"}}}, {"name": "unknown_986", "op": "Const", "attr": {"dtype": {"type": "DT_INT64"}, "value": {"tensor": {"dtype": "DT_INT64", "tensorShape": {"dim": [{"size": "5"}]}}}}}, {"name": "unknown_987", "op": "Const", "attr": {"value": {"tensor": {"dtype": "DT_INT64", "tensorShape": {"dim": [{"size": "5"}]}}}, "dtype": {"type": "DT_INT64"}}}, {"name": "PartitionedCall/model_36/tf.strided_slice_18/StridedSlice/strides", "op": "Const", "attr": {"value": {"tensor": {"dtype": "DT_INT64", "tensorShape": {"dim": [{"size": "5"}]}}}, "dtype": {"type": "DT_INT64"}}}, {"name": "PartitionedCall/model_36/tf.reshape_17/Reshape/shape", "op": "Const", "attr": {"dtype": {"type": "DT_INT32"}, "value": {"tensor": {"dtype": "DT_INT32", "tensorShape": {"dim": [{"size": "4"}]}}}}}, {"name": "PartitionedCall/model_36/tf.concat_5226/concat/axis", "op": "Const", "attr": {"dtype": {"type": "DT_INT32"}, "value": {"tensor": {"dtype": "DT_INT32", "tensorShape": {}}}}}, {"name": "PartitionedCall/model_36/tf.compat.v1.transpose_9989/transpose/perm", "op": "Const", "attr": {"dtype": {"type": "DT_INT32"}, "value": {"tensor": {"dtype": "DT_INT32", "tensorShape": {"dim": [{"size": "4"}]}}}}}, {"name": "unknown_988", "op": "Const", "attr": {"dtype": {"type": "DT_FLOAT"}, "value": {"tensor": {"dtype": "DT_FLOAT", "tensorShape": {"dim": [{"size": "1"}, {"size": "1"}, {"size": "128"}, {"size": "256"}]}}}}}, {"name": "unknown_989", "op": "Const", "attr": {"dtype": {"type": "DT_FLOAT"}, "value": {"tensor": {"dtype": "DT_FLOAT", "tensorShape": {"dim": [{"size": "256"}]}}}}}, {"name": "ConstantFolding/PartitionedCall/model_36/tf.nn.gelu_10/Gelu/truediv_recip", "op": "Const", "attr": {"dtype": {"type": "DT_FLOAT"}, "value": {"tensor": {"dtype": "DT_FLOAT", "tensorShape": {}}}}}, {"name": "unknown_990", "op": "Const", "attr": {"dtype": {"type": "DT_FLOAT"}, "value": {"tensor": {"dtype": "DT_FLOAT", "tensorShape": {"dim": [{"size": "1"}, {"size": "1"}, {"size": "256"}, {"size": "128"}]}}}}}, {"name": "unknown_991", "op": "Const", "attr": {"value": {"tensor": {"dtype": "DT_FLOAT", "tensorShape": {"dim": [{"size": "128"}]}}}, "dtype": {"type": "DT_FLOAT"}}}, {"name": "PartitionedCall/model_36/tf.math.add_69/Add/y", "op": "Const", "attr": {"value": {"tensor": {"dtype": "DT_FLOAT", "tensorShape": {"dim": [{"size": "128"}]}}}, "dtype": {"type": "DT_FLOAT"}}}, {"name": "PartitionedCall/model_36/tf.strided_slice_19/StridedSlice/begin", "op": "Const", "attr": {"dtype": {"type": "DT_INT32"}, "value": {"tensor": {"dtype": "DT_INT32", "tensorShape": {"dim": [{"size": "4"}]}}}}}, {"name": "PartitionedCall/model_36/tf.strided_slice_19/StridedSlice/end", "op": "Const", "attr": {"value": {"tensor": {"dtype": "DT_INT32", "tensorShape": {"dim": [{"size": "4"}]}}}, "dtype": {"type": "DT_INT32"}}}, {"name": "PartitionedCall/model_36/tf.strided_slice_19/ones_like", "op": "Const", "attr": {"value": {"tensor": {"dtype": "DT_INT32", "tensorShape": {"dim": [{"size": "4"}]}}}, "dtype": {"type": "DT_INT32"}}}, {"name": "unknown_993", "op": "Const", "attr": {"value": {"tensor": {"dtype": "DT_FLOAT", "tensorShape": {"dim": [{"size": "128"}]}}}, "dtype": {"type": "DT_FLOAT"}}}, {"name": "unknown_1316", "op": "Const", "attr": {"dtype": {"type": "DT_FLOAT"}, "value": {"tensor": {"dtype": "DT_FLOAT", "tensorShape": {"dim": [{"size": "5"}, {"size": "5"}, {"size": "128"}, {"size": "1"}]}}}}}, {"name": "unknown_1317", "op": "Const", "attr": {"value": {"tensor": {"dtype": "DT_FLOAT", "tensorShape": {"dim": [{"size": "128"}]}}}, "dtype": {"type": "DT_FLOAT"}}}, {"name": "ConstantFolding/PartitionedCall/model_36/tf.nn.gelu_14/Gelu/truediv_recip", "op": "Const", "attr": {"value": {"tensor": {"dtype": "DT_FLOAT", "tensorShape": {}}}, "dtype": {"type": "DT_FLOAT"}}}, {"name": "unknown_1319", "op": "Const", "attr": {"value": {"tensor": {"dtype": "DT_FLOAT", "tensorShape": {"dim": [{"size": "128"}]}}}, "dtype": {"type": "DT_FLOAT"}}}, {"name": "PartitionedCall/model_36/tf.concat_4646/concat/axis", "op": "Const", "attr": {"dtype": {"type": "DT_INT32"}, "value": {"tensor": {"dtype": "DT_INT32", "tensorShape": {}}}}}, {"name": "unknown_883", "op": "Const", "attr": {"value": {"tensor": {"dtype": "DT_FLOAT", "tensorShape": {"dim": [{"size": "3"}, {"size": "3"}, {"size": "4"}, {"size": "64"}]}}}, "dtype": {"type": "DT_FLOAT"}}}, {"name": "unknown_884", "op": "Const", "attr": {"dtype": {"type": "DT_FLOAT"}, "value": {"tensor": {"dtype": "DT_FLOAT", "tensorShape": {"dim": [{"size": "64"}]}}}}}, {"name": "unknown_885", "op": "Const", "attr": {"value": {"tensor": {"dtype": "DT_INT32", "tensorShape": {"dim": [{"size": "4"}, {"size": "2"}]}}}, "dtype": {"type": "DT_INT32"}}}, {"name": "unknown_886", "op": "Const", "attr": {"value": {"tensor": {"dtype": "DT_FLOAT", "tensorShape": {"dim": [{"size": "3"}, {"size": "3"}, {"size": "64"}, {"size": "128"}]}}}, "dtype": {"type": "DT_FLOAT"}}}, {"name": "unknown_887", "op": "Const", "attr": {"dtype": {"type": "DT_FLOAT"}, "value": {"tensor": {"dtype": "DT_FLOAT", "tensorShape": {"dim": [{"size": "128"}]}}}}}, {"name": "PartitionedCall/model_36/tf.concat_6967/concat/axis", "op": "Const", "attr": {"value": {"tensor": {"dtype": "DT_INT32", "tensorShape": {}}}, "dtype": {"type": "DT_INT32"}}}, {"name": "PartitionedCall/model_36/tf.math.add_92/Add/y", "op": "Const", "attr": {"dtype": {"type": "DT_FLOAT"}, "value": {"tensor": {"dtype": "DT_FLOAT", "tensorShape": {"dim": [{"size": "64"}]}}}}}, {"name": "PartitionedCall/model_36/tf.strided_slice_26/StridedSlice/begin", "op": "Const", "attr": {"value": {"tensor": {"dtype": "DT_INT32", "tensorShape": {"dim": [{"size": "4"}]}}}, "dtype": {"type": "DT_INT32"}}}, {"name": "PartitionedCall/model_36/tf.strided_slice_26/StridedSlice/end", "op": "Const", "attr": {"value": {"tensor": {"dtype": "DT_INT32", "tensorShape": {"dim": [{"size": "4"}]}}}, "dtype": {"type": "DT_INT32"}}}, {"name": "PartitionedCall/model_36/tf.strided_slice_26/ones_like", "op": "Const", "attr": {"dtype": {"type": "DT_INT32"}, "value": {"tensor": {"dtype": "DT_INT32", "tensorShape": {"dim": [{"size": "4"}]}}}}}, {"name": "unknown_1321", "op": "Const", "attr": {"dtype": {"type": "DT_FLOAT"}, "value": {"tensor": {"dtype": "DT_FLOAT", "tensorShape": {"dim": [{"size": "64"}]}}}}}, {"name": "unknown_1322", "op": "Const", "attr": {"value": {"tensor": {"dtype": "DT_FLOAT", "tensorShape": {"dim": [{"size": "64"}]}}}, "dtype": {"type": "DT_FLOAT"}}}, {"name": "PartitionedCall/model_36/tf.concat_6968/concat/axis", "op": "Const", "attr": {"dtype": {"type": "DT_INT32"}, "value": {"tensor": {"dtype": "DT_INT32", "tensorShape": {}}}}}, {"name": "unknown_1323", "op": "Const", "attr": {"value": {"tensor": {"dtype": "DT_FLOAT", "tensorShape": {"dim": [{"size": "1"}, {"size": "1"}, {"size": "67"}, {"size": "3"}]}}}, "dtype": {"type": "DT_FLOAT"}}}, {"name": "unknown_1324", "op": "Const", "attr": {"value": {"tensor": {"dtype": "DT_FLOAT", "tensorShape": {"dim": [{"size": "3"}]}}}, "dtype": {"type": "DT_FLOAT"}}}, {"name": "PartitionedCall/model_36/tf.nn.conv2d_transpose_9/conv2d_transpose/input_sizes", "op": "Const", "attr": {"value": {"tensor": {"dtype": "DT_INT32", "tensorShape": {"dim": [{"size": "4"}]}}}, "dtype": {"type": "DT_INT32"}}}, {"name": "unknown_878", "op": "Const", "attr": {"value": {"tensor": {"dtype": "DT_FLOAT", "tensorShape": {"dim": [{"size": "4"}, {"size": "4"}, {"size": "64"}, {"size": "256"}]}}}, "dtype": {"type": "DT_FLOAT"}}}, {"name": "PartitionedCall/model_36/tf.nn.gelu_9/Gelu/mul", "op": "Const", "attr": {"value": {"tensor": {"dtype": "DT_FLOAT", "tensorShape": {"dim": [{"size": "128"}]}}}, "dtype": {"type": "DT_FLOAT"}}}, {"name": "PartitionedCall/model_36/tf.nn.gelu_9/Gelu/add/x", "op": "Const", "attr": {"value": {"tensor": {"dtype": "DT_FLOAT", "tensorShape": {}}}, "dtype": {"type": "DT_FLOAT"}}}, {"name": "unknown_873", "op": "Const", "attr": {"dtype": {"type": "DT_FLOAT"}, "value": {"tensor": {"dtype": "DT_FLOAT", "tensorShape": {"dim": [{"size": "128"}]}}}}}, {"name": "PartitionedCall/model_36/tf.nn.conv2d_transpose_8/conv2d_transpose/input_sizes", "op": "Const", "attr": {"dtype": {"type": "DT_INT32"}, "value": {"tensor": {"dtype": "DT_INT32", "tensorShape": {"dim": [{"size": "4"}]}}}}}, {"name": "unknown_871", "op": "Const", "attr": {"value": {"tensor": {"dtype": "DT_FLOAT", "tensorShape": {"dim": [{"size": "4"}, {"size": "4"}, {"size": "128"}, {"size": "128"}]}}}, "dtype": {"type": "DT_FLOAT"}}}, {"name": "PartitionedCall/model_36/tf.nn.gelu_8/Gelu/mul/x", "op": "Const", "attr": {"dtype": {"type": "DT_FLOAT"}, "value": {"tensor": {"dtype": "DT_FLOAT", "tensorShape": {}}}}}, {"name": "PartitionedCall/model_36/tf.nn.gelu_8/Gelu/add/x", "op": "Const", "attr": {"dtype": {"type": "DT_FLOAT"}, "value": {"tensor": {"dtype": "DT_FLOAT", "tensorShape": {}}}}}, {"name": "PartitionedCall/model_36/tf.compat.v1.gather_7/GatherV2/indices", "op": "Const", "attr": {"value": {"tensor": {"dtype": "DT_INT32", "tensorShape": {}}}, "dtype": {"type": "DT_INT32"}}}, {"name": "PartitionedCall/model_36/tf.compat.v1.gather_7/GatherV2/axis", "op": "Const", "attr": {"dtype": {"type": "DT_INT32"}, "value": {"tensor": {"dtype": "DT_INT32", "tensorShape": {}}}}}, {"name": "unknown_801", "op": "Const", "attr": {"dtype": {"type": "DT_FLOAT"}, "value": {"tensor": {"dtype": "DT_FLOAT", "tensorShape": {"dim": [{"size": "2"}, {"size": "1"}, {"size": "1"}, {"size": "2"}]}}}}}, {"name": "unknown_802", "op": "Const", "attr": {"value": {"tensor": {"dtype": "DT_FLOAT", "tensorShape": {"dim": [{"size": "2"}, {"size": "1"}, {"size": "1"}, {"size": "2"}]}}}, "dtype": {"type": "DT_FLOAT"}}}, {"name": "unknown_803", "op": "Const", "attr": {"dtype": {"type": "DT_FLOAT"}, "value": {"tensor": {"dtype": "DT_FLOAT", "tensorShape": {"dim": [{"size": "2"}, {"size": "1"}, {"size": "1"}, {"size": "2"}]}}}}}, {"name": "unknown_804", "op": "Const", "attr": {"value": {"tensor": {"dtype": "DT_FLOAT", "tensorShape": {"dim": [{"size": "2"}, {"size": "1"}, {"size": "1"}, {"size": "2"}]}}}, "dtype": {"type": "DT_FLOAT"}}}, {"name": "unknown_805", "op": "Const", "attr": {"value": {"tensor": {"dtype": "DT_FLOAT", "tensorShape": {"dim": [{"size": "2"}, {"size": "1"}, {"size": "1"}, {"size": "2"}]}}}, "dtype": {"type": "DT_FLOAT"}}}, {"name": "unknown_806", "op": "Const", "attr": {"value": {"tensor": {"dtype": "DT_FLOAT", "tensorShape": {"dim": [{"size": "2"}, {"size": "1"}, {"size": "1"}, {"size": "2"}]}}}, "dtype": {"type": "DT_FLOAT"}}}, {"name": "unknown_807", "op": "Const", "attr": {"value": {"tensor": {"dtype": "DT_FLOAT", "tensorShape": {"dim": [{"size": "2"}, {"size": "1"}, {"size": "1"}, {"size": "2"}]}}}, "dtype": {"type": "DT_FLOAT"}}}, {"name": "unknown_808", "op": "Const", "attr": {"dtype": {"type": "DT_FLOAT"}, "value": {"tensor": {"dtype": "DT_FLOAT", "tensorShape": {"dim": [{"size": "2"}, {"size": "1"}, {"size": "1"}, {"size": "2"}]}}}}}, {"name": "unknown_809", "op": "Const", "attr": {"value": {"tensor": {"dtype": "DT_FLOAT", "tensorShape": {"dim": [{"size": "2"}, {"size": "1"}, {"size": "1"}, {"size": "2"}]}}}, "dtype": {"type": "DT_FLOAT"}}}, {"name": "unknown_810", "op": "Const", "attr": {"dtype": {"type": "DT_FLOAT"}, "value": {"tensor": {"dtype": "DT_FLOAT", "tensorShape": {"dim": [{"size": "2"}, {"size": "1"}, {"size": "1"}, {"size": "2"}]}}}}}, {"name": "unknown_811", "op": "Const", "attr": {"value": {"tensor": {"dtype": "DT_FLOAT", "tensorShape": {"dim": [{"size": "2"}, {"size": "1"}, {"size": "1"}, {"size": "2"}]}}}, "dtype": {"type": "DT_FLOAT"}}}, {"name": "unknown_812", "op": "Const", "attr": {"value": {"tensor": {"dtype": "DT_FLOAT", "tensorShape": {"dim": [{"size": "2"}, {"size": "1"}, {"size": "1"}, {"size": "2"}]}}}, "dtype": {"type": "DT_FLOAT"}}}, {"name": "unknown_813", "op": "Const", "attr": {"value": {"tensor": {"dtype": "DT_FLOAT", "tensorShape": {"dim": [{"size": "2"}, {"size": "1"}, {"size": "1"}, {"size": "2"}]}}}, "dtype": {"type": "DT_FLOAT"}}}, {"name": "unknown_814", "op": "Const", "attr": {"dtype": {"type": "DT_FLOAT"}, "value": {"tensor": {"dtype": "DT_FLOAT", "tensorShape": {"dim": [{"size": "2"}, {"size": "1"}, {"size": "1"}, {"size": "2"}]}}}}}, {"name": "unknown_815", "op": "Const", "attr": {"dtype": {"type": "DT_FLOAT"}, "value": {"tensor": {"dtype": "DT_FLOAT", "tensorShape": {"dim": [{"size": "2"}, {"size": "1"}, {"size": "1"}, {"size": "2"}]}}}}}, {"name": "unknown_816", "op": "Const", "attr": {"value": {"tensor": {"dtype": "DT_FLOAT", "tensorShape": {"dim": [{"size": "2"}, {"size": "1"}, {"size": "1"}, {"size": "2"}]}}}, "dtype": {"type": "DT_FLOAT"}}}, {"name": "unknown_817", "op": "Const", "attr": {"dtype": {"type": "DT_FLOAT"}, "value": {"tensor": {"dtype": "DT_FLOAT", "tensorShape": {"dim": [{"size": "2"}, {"size": "1"}, {"size": "1"}, {"size": "2"}]}}}}}, {"name": "unknown_818", "op": "Const", "attr": {"dtype": {"type": "DT_FLOAT"}, "value": {"tensor": {"dtype": "DT_FLOAT", "tensorShape": {"dim": [{"size": "2"}, {"size": "1"}, {"size": "1"}, {"size": "2"}]}}}}}, {"name": "unknown_819", "op": "Const", "attr": {"value": {"tensor": {"dtype": "DT_FLOAT", "tensorShape": {"dim": [{"size": "2"}, {"size": "1"}, {"size": "1"}, {"size": "2"}]}}}, "dtype": {"type": "DT_FLOAT"}}}, {"name": "unknown_820", "op": "Const", "attr": {"dtype": {"type": "DT_FLOAT"}, "value": {"tensor": {"dtype": "DT_FLOAT", "tensorShape": {"dim": [{"size": "2"}, {"size": "1"}, {"size": "1"}, {"size": "2"}]}}}}}, {"name": "unknown_821", "op": "Const", "attr": {"value": {"tensor": {"dtype": "DT_FLOAT", "tensorShape": {"dim": [{"size": "2"}, {"size": "1"}, {"size": "1"}, {"size": "2"}]}}}, "dtype": {"type": "DT_FLOAT"}}}, {"name": "unknown_822", "op": "Const", "attr": {"value": {"tensor": {"dtype": "DT_FLOAT", "tensorShape": {"dim": [{"size": "2"}, {"size": "1"}, {"size": "1"}, {"size": "2"}]}}}, "dtype": {"type": "DT_FLOAT"}}}, {"name": "unknown_823", "op": "Const", "attr": {"value": {"tensor": {"dtype": "DT_FLOAT", "tensorShape": {"dim": [{"size": "2"}, {"size": "1"}, {"size": "1"}, {"size": "2"}]}}}, "dtype": {"type": "DT_FLOAT"}}}, {"name": "unknown_824", "op": "Const", "attr": {"value": {"tensor": {"dtype": "DT_FLOAT", "tensorShape": {"dim": [{"size": "2"}, {"size": "1"}, {"size": "1"}, {"size": "2"}]}}}, "dtype": {"type": "DT_FLOAT"}}}, {"name": "unknown_825", "op": "Const", "attr": {"value": {"tensor": {"dtype": "DT_FLOAT", "tensorShape": {"dim": [{"size": "2"}, {"size": "1"}, {"size": "1"}, {"size": "2"}]}}}, "dtype": {"type": "DT_FLOAT"}}}, {"name": "unknown_826", "op": "Const", "attr": {"value": {"tensor": {"dtype": "DT_FLOAT", "tensorShape": {"dim": [{"size": "2"}, {"size": "1"}, {"size": "1"}, {"size": "2"}]}}}, "dtype": {"type": "DT_FLOAT"}}}, {"name": "unknown_827", "op": "Const", "attr": {"value": {"tensor": {"dtype": "DT_FLOAT", "tensorShape": {"dim": [{"size": "2"}, {"size": "1"}, {"size": "1"}, {"size": "2"}]}}}, "dtype": {"type": "DT_FLOAT"}}}, {"name": "unknown_828", "op": "Const", "attr": {"value": {"tensor": {"dtype": "DT_FLOAT", "tensorShape": {"dim": [{"size": "2"}, {"size": "1"}, {"size": "1"}, {"size": "2"}]}}}, "dtype": {"type": "DT_FLOAT"}}}, {"name": "unknown_829", "op": "Const", "attr": {"value": {"tensor": {"dtype": "DT_FLOAT", "tensorShape": {"dim": [{"size": "2"}, {"size": "1"}, {"size": "1"}, {"size": "2"}]}}}, "dtype": {"type": "DT_FLOAT"}}}, {"name": "unknown_830", "op": "Const", "attr": {"value": {"tensor": {"dtype": "DT_FLOAT", "tensorShape": {"dim": [{"size": "2"}, {"size": "1"}, {"size": "1"}, {"size": "2"}]}}}, "dtype": {"type": "DT_FLOAT"}}}, {"name": "unknown_831", "op": "Const", "attr": {"value": {"tensor": {"dtype": "DT_FLOAT", "tensorShape": {"dim": [{"size": "2"}, {"size": "1"}, {"size": "1"}, {"size": "2"}]}}}, "dtype": {"type": "DT_FLOAT"}}}, {"name": "unknown_832", "op": "Const", "attr": {"dtype": {"type": "DT_FLOAT"}, "value": {"tensor": {"dtype": "DT_FLOAT", "tensorShape": {"dim": [{"size": "2"}, {"size": "1"}, {"size": "1"}, {"size": "2"}]}}}}}, {"name": "unknown_833", "op": "Const", "attr": {"value": {"tensor": {"dtype": "DT_FLOAT", "tensorShape": {"dim": [{"size": "2"}, {"size": "1"}, {"size": "1"}, {"size": "2"}]}}}, "dtype": {"type": "DT_FLOAT"}}}, {"name": "unknown_834", "op": "Const", "attr": {"dtype": {"type": "DT_FLOAT"}, "value": {"tensor": {"dtype": "DT_FLOAT", "tensorShape": {"dim": [{"size": "2"}, {"size": "1"}, {"size": "1"}, {"size": "2"}]}}}}}, {"name": "unknown_835", "op": "Const", "attr": {"value": {"tensor": {"dtype": "DT_FLOAT", "tensorShape": {"dim": [{"size": "2"}, {"size": "1"}, {"size": "1"}, {"size": "2"}]}}}, "dtype": {"type": "DT_FLOAT"}}}, {"name": "unknown_836", "op": "Const", "attr": {"dtype": {"type": "DT_FLOAT"}, "value": {"tensor": {"dtype": "DT_FLOAT", "tensorShape": {"dim": [{"size": "2"}, {"size": "1"}, {"size": "1"}, {"size": "2"}]}}}}}, {"name": "unknown_837", "op": "Const", "attr": {"value": {"tensor": {"dtype": "DT_FLOAT", "tensorShape": {"dim": [{"size": "2"}, {"size": "1"}, {"size": "1"}, {"size": "2"}]}}}, "dtype": {"type": "DT_FLOAT"}}}, {"name": "unknown_838", "op": "Const", "attr": {"value": {"tensor": {"dtype": "DT_FLOAT", "tensorShape": {"dim": [{"size": "2"}, {"size": "1"}, {"size": "1"}, {"size": "2"}]}}}, "dtype": {"type": "DT_FLOAT"}}}, {"name": "unknown_839", "op": "Const", "attr": {"value": {"tensor": {"dtype": "DT_FLOAT", "tensorShape": {"dim": [{"size": "2"}, {"size": "1"}, {"size": "1"}, {"size": "2"}]}}}, "dtype": {"type": "DT_FLOAT"}}}, {"name": "unknown_840", "op": "Const", "attr": {"dtype": {"type": "DT_FLOAT"}, "value": {"tensor": {"dtype": "DT_FLOAT", "tensorShape": {"dim": [{"size": "2"}, {"size": "1"}, {"size": "1"}, {"size": "2"}]}}}}}, {"name": "unknown_841", "op": "Const", "attr": {"dtype": {"type": "DT_FLOAT"}, "value": {"tensor": {"dtype": "DT_FLOAT", "tensorShape": {"dim": [{"size": "2"}, {"size": "1"}, {"size": "1"}, {"size": "2"}]}}}}}, {"name": "unknown_842", "op": "Const", "attr": {"value": {"tensor": {"dtype": "DT_FLOAT", "tensorShape": {"dim": [{"size": "2"}, {"size": "1"}, {"size": "1"}, {"size": "2"}]}}}, "dtype": {"type": "DT_FLOAT"}}}, {"name": "unknown_843", "op": "Const", "attr": {"value": {"tensor": {"dtype": "DT_FLOAT", "tensorShape": {"dim": [{"size": "2"}, {"size": "1"}, {"size": "1"}, {"size": "2"}]}}}, "dtype": {"type": "DT_FLOAT"}}}, {"name": "unknown_844", "op": "Const", "attr": {"value": {"tensor": {"dtype": "DT_FLOAT", "tensorShape": {"dim": [{"size": "2"}, {"size": "1"}, {"size": "1"}, {"size": "2"}]}}}, "dtype": {"type": "DT_FLOAT"}}}, {"name": "unknown_845", "op": "Const", "attr": {"value": {"tensor": {"dtype": "DT_FLOAT", "tensorShape": {"dim": [{"size": "2"}, {"size": "1"}, {"size": "1"}, {"size": "2"}]}}}, "dtype": {"type": "DT_FLOAT"}}}, {"name": "unknown_846", "op": "Const", "attr": {"dtype": {"type": "DT_FLOAT"}, "value": {"tensor": {"dtype": "DT_FLOAT", "tensorShape": {"dim": [{"size": "2"}, {"size": "1"}, {"size": "1"}, {"size": "2"}]}}}}}, {"name": "unknown_847", "op": "Const", "attr": {"value": {"tensor": {"dtype": "DT_FLOAT", "tensorShape": {"dim": [{"size": "2"}, {"size": "1"}, {"size": "1"}, {"size": "2"}]}}}, "dtype": {"type": "DT_FLOAT"}}}, {"name": "unknown_848", "op": "Const", "attr": {"dtype": {"type": "DT_FLOAT"}, "value": {"tensor": {"dtype": "DT_FLOAT", "tensorShape": {"dim": [{"size": "2"}, {"size": "1"}, {"size": "1"}, {"size": "2"}]}}}}}, {"name": "unknown_849", "op": "Const", "attr": {"value": {"tensor": {"dtype": "DT_FLOAT", "tensorShape": {"dim": [{"size": "2"}, {"size": "1"}, {"size": "1"}, {"size": "2"}]}}}, "dtype": {"type": "DT_FLOAT"}}}, {"name": "unknown_850", "op": "Const", "attr": {"value": {"tensor": {"dtype": "DT_FLOAT", "tensorShape": {"dim": [{"size": "2"}, {"size": "1"}, {"size": "1"}, {"size": "2"}]}}}, "dtype": {"type": "DT_FLOAT"}}}, {"name": "unknown_851", "op": "Const", "attr": {"dtype": {"type": "DT_FLOAT"}, "value": {"tensor": {"dtype": "DT_FLOAT", "tensorShape": {"dim": [{"size": "2"}, {"size": "1"}, {"size": "1"}, {"size": "2"}]}}}}}, {"name": "unknown_852", "op": "Const", "attr": {"value": {"tensor": {"dtype": "DT_FLOAT", "tensorShape": {"dim": [{"size": "2"}, {"size": "1"}, {"size": "1"}, {"size": "2"}]}}}, "dtype": {"type": "DT_FLOAT"}}}, {"name": "unknown_853", "op": "Const", "attr": {"dtype": {"type": "DT_FLOAT"}, "value": {"tensor": {"dtype": "DT_FLOAT", "tensorShape": {"dim": [{"size": "2"}, {"size": "1"}, {"size": "1"}, {"size": "2"}]}}}}}, {"name": "unknown_854", "op": "Const", "attr": {"dtype": {"type": "DT_FLOAT"}, "value": {"tensor": {"dtype": "DT_FLOAT", "tensorShape": {"dim": [{"size": "2"}, {"size": "1"}, {"size": "1"}, {"size": "2"}]}}}}}, {"name": "unknown_855", "op": "Const", "attr": {"value": {"tensor": {"dtype": "DT_FLOAT", "tensorShape": {"dim": [{"size": "2"}, {"size": "1"}, {"size": "1"}, {"size": "2"}]}}}, "dtype": {"type": "DT_FLOAT"}}}, {"name": "unknown_856", "op": "Const", "attr": {"value": {"tensor": {"dtype": "DT_FLOAT", "tensorShape": {"dim": [{"size": "2"}, {"size": "1"}, {"size": "1"}, {"size": "2"}]}}}, "dtype": {"type": "DT_FLOAT"}}}, {"name": "unknown_857", "op": "Const", "attr": {"dtype": {"type": "DT_FLOAT"}, "value": {"tensor": {"dtype": "DT_FLOAT", "tensorShape": {"dim": [{"size": "2"}, {"size": "1"}, {"size": "1"}, {"size": "2"}]}}}}}, {"name": "unknown_858", "op": "Const", "attr": {"dtype": {"type": "DT_FLOAT"}, "value": {"tensor": {"dtype": "DT_FLOAT", "tensorShape": {"dim": [{"size": "2"}, {"size": "1"}, {"size": "1"}, {"size": "2"}]}}}}}, {"name": "unknown_859", "op": "Const", "attr": {"dtype": {"type": "DT_FLOAT"}, "value": {"tensor": {"dtype": "DT_FLOAT", "tensorShape": {"dim": [{"size": "2"}, {"size": "1"}, {"size": "1"}, {"size": "2"}]}}}}}, {"name": "unknown_860", "op": "Const", "attr": {"dtype": {"type": "DT_FLOAT"}, "value": {"tensor": {"dtype": "DT_FLOAT", "tensorShape": {"dim": [{"size": "2"}, {"size": "1"}, {"size": "1"}, {"size": "2"}]}}}}}, {"name": "unknown_861", "op": "Const", "attr": {"value": {"tensor": {"dtype": "DT_FLOAT", "tensorShape": {"dim": [{"size": "2"}, {"size": "1"}, {"size": "1"}, {"size": "2"}]}}}, "dtype": {"type": "DT_FLOAT"}}}, {"name": "unknown_862", "op": "Const", "attr": {"value": {"tensor": {"dtype": "DT_FLOAT", "tensorShape": {"dim": [{"size": "2"}, {"size": "1"}, {"size": "1"}, {"size": "2"}]}}}, "dtype": {"type": "DT_FLOAT"}}}, {"name": "unknown_863", "op": "Const", "attr": {"value": {"tensor": {"dtype": "DT_FLOAT", "tensorShape": {"dim": [{"size": "2"}, {"size": "1"}, {"size": "1"}, {"size": "2"}]}}}, "dtype": {"type": "DT_FLOAT"}}}, {"name": "PartitionedCall/model_36/tf.split_15/split/split_dim", "op": "Const", "attr": {"value": {"tensor": {"dtype": "DT_INT32", "tensorShape": {}}}, "dtype": {"type": "DT_INT32"}}}, {"name": "unknown_769", "op": "Const", "attr": {"value": {"tensor": {"dtype": "DT_FLOAT", "tensorShape": {"dim": [{"size": "1"}, {"size": "2"}, {"size": "1"}, {"size": "2"}]}}}, "dtype": {"type": "DT_FLOAT"}}}, {"name": "unknown_770", "op": "Const", "attr": {"value": {"tensor": {"dtype": "DT_FLOAT", "tensorShape": {"dim": [{"size": "1"}, {"size": "2"}, {"size": "1"}, {"size": "2"}]}}}, "dtype": {"type": "DT_FLOAT"}}}, {"name": "unknown_771", "op": "Const", "attr": {"value": {"tensor": {"dtype": "DT_FLOAT", "tensorShape": {"dim": [{"size": "1"}, {"size": "2"}, {"size": "1"}, {"size": "2"}]}}}, "dtype": {"type": "DT_FLOAT"}}}, {"name": "unknown_772", "op": "Const", "attr": {"value": {"tensor": {"dtype": "DT_FLOAT", "tensorShape": {"dim": [{"size": "1"}, {"size": "2"}, {"size": "1"}, {"size": "2"}]}}}, "dtype": {"type": "DT_FLOAT"}}}, {"name": "unknown_773", "op": "Const", "attr": {"value": {"tensor": {"dtype": "DT_FLOAT", "tensorShape": {"dim": [{"size": "1"}, {"size": "2"}, {"size": "1"}, {"size": "2"}]}}}, "dtype": {"type": "DT_FLOAT"}}}, {"name": "unknown_774", "op": "Const", "attr": {"value": {"tensor": {"dtype": "DT_FLOAT", "tensorShape": {"dim": [{"size": "1"}, {"size": "2"}, {"size": "1"}, {"size": "2"}]}}}, "dtype": {"type": "DT_FLOAT"}}}, {"name": "unknown_775", "op": "Const", "attr": {"value": {"tensor": {"dtype": "DT_FLOAT", "tensorShape": {"dim": [{"size": "1"}, {"size": "2"}, {"size": "1"}, {"size": "2"}]}}}, "dtype": {"type": "DT_FLOAT"}}}, {"name": "unknown_776", "op": "Const", "attr": {"value": {"tensor": {"dtype": "DT_FLOAT", "tensorShape": {"dim": [{"size": "1"}, {"size": "2"}, {"size": "1"}, {"size": "2"}]}}}, "dtype": {"type": "DT_FLOAT"}}}, {"name": "unknown_777", "op": "Const", "attr": {"value": {"tensor": {"dtype": "DT_FLOAT", "tensorShape": {"dim": [{"size": "1"}, {"size": "2"}, {"size": "1"}, {"size": "2"}]}}}, "dtype": {"type": "DT_FLOAT"}}}, {"name": "unknown_778", "op": "Const", "attr": {"dtype": {"type": "DT_FLOAT"}, "value": {"tensor": {"dtype": "DT_FLOAT", "tensorShape": {"dim": [{"size": "1"}, {"size": "2"}, {"size": "1"}, {"size": "2"}]}}}}}, {"name": "unknown_779", "op": "Const", "attr": {"dtype": {"type": "DT_FLOAT"}, "value": {"tensor": {"dtype": "DT_FLOAT", "tensorShape": {"dim": [{"size": "1"}, {"size": "2"}, {"size": "1"}, {"size": "2"}]}}}}}, {"name": "unknown_780", "op": "Const", "attr": {"value": {"tensor": {"dtype": "DT_FLOAT", "tensorShape": {"dim": [{"size": "1"}, {"size": "2"}, {"size": "1"}, {"size": "2"}]}}}, "dtype": {"type": "DT_FLOAT"}}}, {"name": "unknown_781", "op": "Const", "attr": {"dtype": {"type": "DT_FLOAT"}, "value": {"tensor": {"dtype": "DT_FLOAT", "tensorShape": {"dim": [{"size": "1"}, {"size": "2"}, {"size": "1"}, {"size": "2"}]}}}}}, {"name": "unknown_782", "op": "Const", "attr": {"value": {"tensor": {"dtype": "DT_FLOAT", "tensorShape": {"dim": [{"size": "1"}, {"size": "2"}, {"size": "1"}, {"size": "2"}]}}}, "dtype": {"type": "DT_FLOAT"}}}, {"name": "unknown_783", "op": "Const", "attr": {"dtype": {"type": "DT_FLOAT"}, "value": {"tensor": {"dtype": "DT_FLOAT", "tensorShape": {"dim": [{"size": "1"}, {"size": "2"}, {"size": "1"}, {"size": "2"}]}}}}}, {"name": "unknown_784", "op": "Const", "attr": {"dtype": {"type": "DT_FLOAT"}, "value": {"tensor": {"dtype": "DT_FLOAT", "tensorShape": {"dim": [{"size": "1"}, {"size": "2"}, {"size": "1"}, {"size": "2"}]}}}}}, {"name": "unknown_785", "op": "Const", "attr": {"value": {"tensor": {"dtype": "DT_FLOAT", "tensorShape": {"dim": [{"size": "1"}, {"size": "2"}, {"size": "1"}, {"size": "2"}]}}}, "dtype": {"type": "DT_FLOAT"}}}, {"name": "unknown_786", "op": "Const", "attr": {"dtype": {"type": "DT_FLOAT"}, "value": {"tensor": {"dtype": "DT_FLOAT", "tensorShape": {"dim": [{"size": "1"}, {"size": "2"}, {"size": "1"}, {"size": "2"}]}}}}}, {"name": "unknown_787", "op": "Const", "attr": {"dtype": {"type": "DT_FLOAT"}, "value": {"tensor": {"dtype": "DT_FLOAT", "tensorShape": {"dim": [{"size": "1"}, {"size": "2"}, {"size": "1"}, {"size": "2"}]}}}}}, {"name": "unknown_788", "op": "Const", "attr": {"value": {"tensor": {"dtype": "DT_FLOAT", "tensorShape": {"dim": [{"size": "1"}, {"size": "2"}, {"size": "1"}, {"size": "2"}]}}}, "dtype": {"type": "DT_FLOAT"}}}, {"name": "unknown_789", "op": "Const", "attr": {"dtype": {"type": "DT_FLOAT"}, "value": {"tensor": {"dtype": "DT_FLOAT", "tensorShape": {"dim": [{"size": "1"}, {"size": "2"}, {"size": "1"}, {"size": "2"}]}}}}}, {"name": "unknown_790", "op": "Const", "attr": {"value": {"tensor": {"dtype": "DT_FLOAT", "tensorShape": {"dim": [{"size": "1"}, {"size": "2"}, {"size": "1"}, {"size": "2"}]}}}, "dtype": {"type": "DT_FLOAT"}}}, {"name": "unknown_791", "op": "Const", "attr": {"dtype": {"type": "DT_FLOAT"}, "value": {"tensor": {"dtype": "DT_FLOAT", "tensorShape": {"dim": [{"size": "1"}, {"size": "2"}, {"size": "1"}, {"size": "2"}]}}}}}, {"name": "unknown_792", "op": "Const", "attr": {"value": {"tensor": {"dtype": "DT_FLOAT", "tensorShape": {"dim": [{"size": "1"}, {"size": "2"}, {"size": "1"}, {"size": "2"}]}}}, "dtype": {"type": "DT_FLOAT"}}}, {"name": "unknown_793", "op": "Const", "attr": {"dtype": {"type": "DT_FLOAT"}, "value": {"tensor": {"dtype": "DT_FLOAT", "tensorShape": {"dim": [{"size": "1"}, {"size": "2"}, {"size": "1"}, {"size": "2"}]}}}}}, {"name": "unknown_794", "op": "Const", "attr": {"dtype": {"type": "DT_FLOAT"}, "value": {"tensor": {"dtype": "DT_FLOAT", "tensorShape": {"dim": [{"size": "1"}, {"size": "2"}, {"size": "1"}, {"size": "2"}]}}}}}, {"name": "unknown_795", "op": "Const", "attr": {"value": {"tensor": {"dtype": "DT_FLOAT", "tensorShape": {"dim": [{"size": "1"}, {"size": "2"}, {"size": "1"}, {"size": "2"}]}}}, "dtype": {"type": "DT_FLOAT"}}}, {"name": "unknown_796", "op": "Const", "attr": {"value": {"tensor": {"dtype": "DT_FLOAT", "tensorShape": {"dim": [{"size": "1"}, {"size": "2"}, {"size": "1"}, {"size": "2"}]}}}, "dtype": {"type": "DT_FLOAT"}}}, {"name": "unknown_797", "op": "Const", "attr": {"dtype": {"type": "DT_FLOAT"}, "value": {"tensor": {"dtype": "DT_FLOAT", "tensorShape": {"dim": [{"size": "1"}, {"size": "2"}, {"size": "1"}, {"size": "2"}]}}}}}, {"name": "unknown_798", "op": "Const", "attr": {"dtype": {"type": "DT_FLOAT"}, "value": {"tensor": {"dtype": "DT_FLOAT", "tensorShape": {"dim": [{"size": "1"}, {"size": "2"}, {"size": "1"}, {"size": "2"}]}}}}}, {"name": "unknown_799", "op": "Const", "attr": {"dtype": {"type": "DT_FLOAT"}, "value": {"tensor": {"dtype": "DT_FLOAT", "tensorShape": {"dim": [{"size": "1"}, {"size": "2"}, {"size": "1"}, {"size": "2"}]}}}}}, {"name": "PartitionedCall/model_36/tf.split_14/split/split_dim", "op": "Const", "attr": {"value": {"tensor": {"dtype": "DT_INT32", "tensorShape": {}}}, "dtype": {"type": "DT_INT32"}}}, {"name": "unknown_767", "op": "Const", "attr": {"value": {"tensor": {"dtype": "DT_FLOAT", "tensorShape": {"dim": [{"size": "1"}, {"size": "1"}, {"size": "128"}, {"size": "32"}]}}}, "dtype": {"type": "DT_FLOAT"}}}, {"name": "unknown_768", "op": "Const", "attr": {"value": {"tensor": {"dtype": "DT_FLOAT", "tensorShape": {"dim": [{"size": "32"}]}}}, "dtype": {"type": "DT_FLOAT"}}}, {"name": "unknown_800", "op": "Const", "attr": {"value": {"tensor": {"dtype": "DT_FLOAT", "tensorShape": {"dim": [{"size": "1"}, {"size": "2"}, {"size": "1"}, {"size": "2"}]}}}, "dtype": {"type": "DT_FLOAT"}}}, {"name": "PartitionedCall/model_36/tf.concat_4064/concat/axis", "op": "Const", "attr": {"value": {"tensor": {"dtype": "DT_INT32", "tensorShape": {}}}, "dtype": {"type": "DT_INT32"}}}, {"name": "unknown_864", "op": "Const", "attr": {"value": {"tensor": {"dtype": "DT_FLOAT", "tensorShape": {"dim": [{"size": "2"}, {"size": "1"}, {"size": "1"}, {"size": "2"}]}}}, "dtype": {"type": "DT_FLOAT"}}}, {"name": "PartitionedCall/model_36/tf.concat_4065/concat/axis", "op": "Const", "attr": {"value": {"tensor": {"dtype": "DT_INT32", "tensorShape": {}}}, "dtype": {"type": "DT_INT32"}}}, {"name": "PartitionedCall/model_36/tf.compat.v1.transpose_7772/transpose/perm", "op": "Const", "attr": {"dtype": {"type": "DT_INT32"}, "value": {"tensor": {"dtype": "DT_INT32", "tensorShape": {"dim": [{"size": "4"}]}}}}}, {"name": "PartitionedCall/model_36/tf.reshape_14/Reshape/shape", "op": "Const", "attr": {"value": {"tensor": {"dtype": "DT_INT32", "tensorShape": {"dim": [{"size": "5"}]}}}, "dtype": {"type": "DT_INT32"}}}, {"name": "unknown_865", "op": "Const", "attr": {"value": {"tensor": {"dtype": "DT_INT64", "tensorShape": {"dim": [{"size": "5"}]}}}, "dtype": {"type": "DT_INT64"}}}, {"name": "unknown_866", "op": "Const", "attr": {"value": {"tensor": {"dtype": "DT_INT64", "tensorShape": {"dim": [{"size": "5"}]}}}, "dtype": {"type": "DT_INT64"}}}, {"name": "PartitionedCall/model_36/tf.strided_slice_15/StridedSlice/strides", "op": "Const", "attr": {"value": {"tensor": {"dtype": "DT_INT64", "tensorShape": {"dim": [{"size": "5"}]}}}, "dtype": {"type": "DT_INT64"}}}, {"name": "PartitionedCall/model_36/tf.reshape_15/Reshape/shape", "op": "Const", "attr": {"dtype": {"type": "DT_INT32"}, "value": {"tensor": {"dtype": "DT_INT32", "tensorShape": {"dim": [{"size": "4"}]}}}}}, {"name": "PartitionedCall/model_36/tf.concat_4643/concat/axis", "op": "Const", "attr": {"value": {"tensor": {"dtype": "DT_INT32", "tensorShape": {}}}, "dtype": {"type": "DT_INT32"}}}, {"name": "PartitionedCall/model_36/tf.compat.v1.transpose_8879/transpose/perm", "op": "Const", "attr": {"value": {"tensor": {"dtype": "DT_INT32", "tensorShape": {"dim": [{"size": "4"}]}}}, "dtype": {"type": "DT_INT32"}}}, {"name": "unknown_867", "op": "Const", "attr": {"value": {"tensor": {"dtype": "DT_FLOAT", "tensorShape": {"dim": [{"size": "1"}, {"size": "1"}, {"size": "128"}, {"size": "256"}]}}}, "dtype": {"type": "DT_FLOAT"}}}, {"name": "unknown_868", "op": "Const", "attr": {"value": {"tensor": {"dtype": "DT_FLOAT", "tensorShape": {"dim": [{"size": "256"}]}}}, "dtype": {"type": "DT_FLOAT"}}}, {"name": "ConstantFolding/PartitionedCall/model_36/tf.nn.gelu_8/Gelu/truediv_recip", "op": "Const", "attr": {"dtype": {"type": "DT_FLOAT"}, "value": {"tensor": {"dtype": "DT_FLOAT", "tensorShape": {}}}}}, {"name": "unknown_869", "op": "Const", "attr": {"dtype": {"type": "DT_FLOAT"}, "value": {"tensor": {"dtype": "DT_FLOAT", "tensorShape": {"dim": [{"size": "1"}, {"size": "1"}, {"size": "256"}, {"size": "128"}]}}}}}, {"name": "unknown_870", "op": "Const", "attr": {"value": {"tensor": {"dtype": "DT_FLOAT", "tensorShape": {"dim": [{"size": "128"}]}}}, "dtype": {"type": "DT_FLOAT"}}}, {"name": "PartitionedCall/model_36/tf.math.add_55/Add/y", "op": "Const", "attr": {"dtype": {"type": "DT_FLOAT"}, "value": {"tensor": {"dtype": "DT_FLOAT", "tensorShape": {"dim": [{"size": "128"}]}}}}}, {"name": "PartitionedCall/model_36/tf.strided_slice_16/StridedSlice/begin", "op": "Const", "attr": {"value": {"tensor": {"dtype": "DT_INT32", "tensorShape": {"dim": [{"size": "4"}]}}}, "dtype": {"type": "DT_INT32"}}}, {"name": "PartitionedCall/model_36/tf.strided_slice_16/StridedSlice/end", "op": "Const", "attr": {"dtype": {"type": "DT_INT32"}, "value": {"tensor": {"dtype": "DT_INT32", "tensorShape": {"dim": [{"size": "4"}]}}}}}, {"name": "PartitionedCall/model_36/tf.strided_slice_16/ones_like", "op": "Const", "attr": {"dtype": {"type": "DT_INT32"}, "value": {"tensor": {"dtype": "DT_INT32", "tensorShape": {"dim": [{"size": "4"}]}}}}}, {"name": "unknown_872", "op": "Const", "attr": {"value": {"tensor": {"dtype": "DT_FLOAT", "tensorShape": {"dim": [{"size": "128"}]}}}, "dtype": {"type": "DT_FLOAT"}}}, {"name": "unknown_766", "op": "Const", "attr": {"value": {"tensor": {"dtype": "DT_FLOAT", "tensorShape": {"dim": [{"size": "128"}]}}}, "dtype": {"type": "DT_FLOAT"}}}, {"name": "PartitionedCall/model_36/tf.nn.conv2d_transpose_7/conv2d_transpose/input_sizes", "op": "Const", "attr": {"value": {"tensor": {"dtype": "DT_INT32", "tensorShape": {"dim": [{"size": "4"}]}}}, "dtype": {"type": "DT_INT32"}}}, {"name": "unknown_764", "op": "Const", "attr": {"dtype": {"type": "DT_FLOAT"}, "value": {"tensor": {"dtype": "DT_FLOAT", "tensorShape": {"dim": [{"size": "4"}, {"size": "4"}, {"size": "128"}, {"size": "128"}]}}}}}, {"name": "PartitionedCall/model_36/tf.nn.gelu_7/Gelu/mul/x", "op": "Const", "attr": {"dtype": {"type": "DT_FLOAT"}, "value": {"tensor": {"dtype": "DT_FLOAT", "tensorShape": {}}}}}, {"name": "PartitionedCall/model_36/tf.nn.gelu_7/Gelu/add/x", "op": "Const", "attr": {"value": {"tensor": {"dtype": "DT_FLOAT", "tensorShape": {}}}, "dtype": {"type": "DT_FLOAT"}}}, {"name": "PartitionedCall/model_36/tf.compat.v1.gather_6/GatherV2/indices", "op": "Const", "attr": {"dtype": {"type": "DT_INT32"}, "value": {"tensor": {"dtype": "DT_INT32", "tensorShape": {}}}}}, {"name": "PartitionedCall/model_36/tf.compat.v1.gather_6/GatherV2/axis", "op": "Const", "attr": {"dtype": {"type": "DT_INT32"}, "value": {"tensor": {"dtype": "DT_INT32", "tensorShape": {}}}}}, {"name": "unknown_694", "op": "Const", "attr": {"value": {"tensor": {"dtype": "DT_FLOAT", "tensorShape": {"dim": [{"size": "2"}, {"size": "1"}, {"size": "1"}, {"size": "2"}]}}}, "dtype": {"type": "DT_FLOAT"}}}, {"name": "unknown_695", "op": "Const", "attr": {"value": {"tensor": {"dtype": "DT_FLOAT", "tensorShape": {"dim": [{"size": "2"}, {"size": "1"}, {"size": "1"}, {"size": "2"}]}}}, "dtype": {"type": "DT_FLOAT"}}}, {"name": "unknown_696", "op": "Const", "attr": {"dtype": {"type": "DT_FLOAT"}, "value": {"tensor": {"dtype": "DT_FLOAT", "tensorShape": {"dim": [{"size": "2"}, {"size": "1"}, {"size": "1"}, {"size": "2"}]}}}}}, {"name": "unknown_697", "op": "Const", "attr": {"value": {"tensor": {"dtype": "DT_FLOAT", "tensorShape": {"dim": [{"size": "2"}, {"size": "1"}, {"size": "1"}, {"size": "2"}]}}}, "dtype": {"type": "DT_FLOAT"}}}, {"name": "unknown_698", "op": "Const", "attr": {"value": {"tensor": {"dtype": "DT_FLOAT", "tensorShape": {"dim": [{"size": "2"}, {"size": "1"}, {"size": "1"}, {"size": "2"}]}}}, "dtype": {"type": "DT_FLOAT"}}}, {"name": "unknown_699", "op": "Const", "attr": {"value": {"tensor": {"dtype": "DT_FLOAT", "tensorShape": {"dim": [{"size": "2"}, {"size": "1"}, {"size": "1"}, {"size": "2"}]}}}, "dtype": {"type": "DT_FLOAT"}}}, {"name": "unknown_700", "op": "Const", "attr": {"value": {"tensor": {"dtype": "DT_FLOAT", "tensorShape": {"dim": [{"size": "2"}, {"size": "1"}, {"size": "1"}, {"size": "2"}]}}}, "dtype": {"type": "DT_FLOAT"}}}, {"name": "unknown_701", "op": "Const", "attr": {"dtype": {"type": "DT_FLOAT"}, "value": {"tensor": {"dtype": "DT_FLOAT", "tensorShape": {"dim": [{"size": "2"}, {"size": "1"}, {"size": "1"}, {"size": "2"}]}}}}}, {"name": "unknown_702", "op": "Const", "attr": {"value": {"tensor": {"dtype": "DT_FLOAT", "tensorShape": {"dim": [{"size": "2"}, {"size": "1"}, {"size": "1"}, {"size": "2"}]}}}, "dtype": {"type": "DT_FLOAT"}}}, {"name": "unknown_703", "op": "Const", "attr": {"value": {"tensor": {"dtype": "DT_FLOAT", "tensorShape": {"dim": [{"size": "2"}, {"size": "1"}, {"size": "1"}, {"size": "2"}]}}}, "dtype": {"type": "DT_FLOAT"}}}, {"name": "unknown_704", "op": "Const", "attr": {"value": {"tensor": {"dtype": "DT_FLOAT", "tensorShape": {"dim": [{"size": "2"}, {"size": "1"}, {"size": "1"}, {"size": "2"}]}}}, "dtype": {"type": "DT_FLOAT"}}}, {"name": "unknown_705", "op": "Const", "attr": {"dtype": {"type": "DT_FLOAT"}, "value": {"tensor": {"dtype": "DT_FLOAT", "tensorShape": {"dim": [{"size": "2"}, {"size": "1"}, {"size": "1"}, {"size": "2"}]}}}}}, {"name": "unknown_706", "op": "Const", "attr": {"value": {"tensor": {"dtype": "DT_FLOAT", "tensorShape": {"dim": [{"size": "2"}, {"size": "1"}, {"size": "1"}, {"size": "2"}]}}}, "dtype": {"type": "DT_FLOAT"}}}, {"name": "unknown_707", "op": "Const", "attr": {"value": {"tensor": {"dtype": "DT_FLOAT", "tensorShape": {"dim": [{"size": "2"}, {"size": "1"}, {"size": "1"}, {"size": "2"}]}}}, "dtype": {"type": "DT_FLOAT"}}}, {"name": "unknown_708", "op": "Const", "attr": {"dtype": {"type": "DT_FLOAT"}, "value": {"tensor": {"dtype": "DT_FLOAT", "tensorShape": {"dim": [{"size": "2"}, {"size": "1"}, {"size": "1"}, {"size": "2"}]}}}}}, {"name": "unknown_709", "op": "Const", "attr": {"value": {"tensor": {"dtype": "DT_FLOAT", "tensorShape": {"dim": [{"size": "2"}, {"size": "1"}, {"size": "1"}, {"size": "2"}]}}}, "dtype": {"type": "DT_FLOAT"}}}, {"name": "unknown_710", "op": "Const", "attr": {"dtype": {"type": "DT_FLOAT"}, "value": {"tensor": {"dtype": "DT_FLOAT", "tensorShape": {"dim": [{"size": "2"}, {"size": "1"}, {"size": "1"}, {"size": "2"}]}}}}}, {"name": "unknown_711", "op": "Const", "attr": {"value": {"tensor": {"dtype": "DT_FLOAT", "tensorShape": {"dim": [{"size": "2"}, {"size": "1"}, {"size": "1"}, {"size": "2"}]}}}, "dtype": {"type": "DT_FLOAT"}}}, {"name": "unknown_712", "op": "Const", "attr": {"value": {"tensor": {"dtype": "DT_FLOAT", "tensorShape": {"dim": [{"size": "2"}, {"size": "1"}, {"size": "1"}, {"size": "2"}]}}}, "dtype": {"type": "DT_FLOAT"}}}, {"name": "unknown_713", "op": "Const", "attr": {"value": {"tensor": {"dtype": "DT_FLOAT", "tensorShape": {"dim": [{"size": "2"}, {"size": "1"}, {"size": "1"}, {"size": "2"}]}}}, "dtype": {"type": "DT_FLOAT"}}}, {"name": "unknown_714", "op": "Const", "attr": {"dtype": {"type": "DT_FLOAT"}, "value": {"tensor": {"dtype": "DT_FLOAT", "tensorShape": {"dim": [{"size": "2"}, {"size": "1"}, {"size": "1"}, {"size": "2"}]}}}}}, {"name": "unknown_715", "op": "Const", "attr": {"value": {"tensor": {"dtype": "DT_FLOAT", "tensorShape": {"dim": [{"size": "2"}, {"size": "1"}, {"size": "1"}, {"size": "2"}]}}}, "dtype": {"type": "DT_FLOAT"}}}, {"name": "unknown_716", "op": "Const", "attr": {"value": {"tensor": {"dtype": "DT_FLOAT", "tensorShape": {"dim": [{"size": "2"}, {"size": "1"}, {"size": "1"}, {"size": "2"}]}}}, "dtype": {"type": "DT_FLOAT"}}}, {"name": "unknown_717", "op": "Const", "attr": {"value": {"tensor": {"dtype": "DT_FLOAT", "tensorShape": {"dim": [{"size": "2"}, {"size": "1"}, {"size": "1"}, {"size": "2"}]}}}, "dtype": {"type": "DT_FLOAT"}}}, {"name": "unknown_718", "op": "Const", "attr": {"value": {"tensor": {"dtype": "DT_FLOAT", "tensorShape": {"dim": [{"size": "2"}, {"size": "1"}, {"size": "1"}, {"size": "2"}]}}}, "dtype": {"type": "DT_FLOAT"}}}, {"name": "unknown_719", "op": "Const", "attr": {"value": {"tensor": {"dtype": "DT_FLOAT", "tensorShape": {"dim": [{"size": "2"}, {"size": "1"}, {"size": "1"}, {"size": "2"}]}}}, "dtype": {"type": "DT_FLOAT"}}}, {"name": "unknown_720", "op": "Const", "attr": {"value": {"tensor": {"dtype": "DT_FLOAT", "tensorShape": {"dim": [{"size": "2"}, {"size": "1"}, {"size": "1"}, {"size": "2"}]}}}, "dtype": {"type": "DT_FLOAT"}}}, {"name": "unknown_721", "op": "Const", "attr": {"value": {"tensor": {"dtype": "DT_FLOAT", "tensorShape": {"dim": [{"size": "2"}, {"size": "1"}, {"size": "1"}, {"size": "2"}]}}}, "dtype": {"type": "DT_FLOAT"}}}, {"name": "unknown_722", "op": "Const", "attr": {"value": {"tensor": {"dtype": "DT_FLOAT", "tensorShape": {"dim": [{"size": "2"}, {"size": "1"}, {"size": "1"}, {"size": "2"}]}}}, "dtype": {"type": "DT_FLOAT"}}}, {"name": "unknown_723", "op": "Const", "attr": {"value": {"tensor": {"dtype": "DT_FLOAT", "tensorShape": {"dim": [{"size": "2"}, {"size": "1"}, {"size": "1"}, {"size": "2"}]}}}, "dtype": {"type": "DT_FLOAT"}}}, {"name": "unknown_724", "op": "Const", "attr": {"dtype": {"type": "DT_FLOAT"}, "value": {"tensor": {"dtype": "DT_FLOAT", "tensorShape": {"dim": [{"size": "2"}, {"size": "1"}, {"size": "1"}, {"size": "2"}]}}}}}, {"name": "unknown_725", "op": "Const", "attr": {"value": {"tensor": {"dtype": "DT_FLOAT", "tensorShape": {"dim": [{"size": "2"}, {"size": "1"}, {"size": "1"}, {"size": "2"}]}}}, "dtype": {"type": "DT_FLOAT"}}}, {"name": "unknown_726", "op": "Const", "attr": {"value": {"tensor": {"dtype": "DT_FLOAT", "tensorShape": {"dim": [{"size": "2"}, {"size": "1"}, {"size": "1"}, {"size": "2"}]}}}, "dtype": {"type": "DT_FLOAT"}}}, {"name": "unknown_727", "op": "Const", "attr": {"value": {"tensor": {"dtype": "DT_FLOAT", "tensorShape": {"dim": [{"size": "2"}, {"size": "1"}, {"size": "1"}, {"size": "2"}]}}}, "dtype": {"type": "DT_FLOAT"}}}, {"name": "unknown_728", "op": "Const", "attr": {"dtype": {"type": "DT_FLOAT"}, "value": {"tensor": {"dtype": "DT_FLOAT", "tensorShape": {"dim": [{"size": "2"}, {"size": "1"}, {"size": "1"}, {"size": "2"}]}}}}}, {"name": "unknown_729", "op": "Const", "attr": {"value": {"tensor": {"dtype": "DT_FLOAT", "tensorShape": {"dim": [{"size": "2"}, {"size": "1"}, {"size": "1"}, {"size": "2"}]}}}, "dtype": {"type": "DT_FLOAT"}}}, {"name": "unknown_730", "op": "Const", "attr": {"value": {"tensor": {"dtype": "DT_FLOAT", "tensorShape": {"dim": [{"size": "2"}, {"size": "1"}, {"size": "1"}, {"size": "2"}]}}}, "dtype": {"type": "DT_FLOAT"}}}, {"name": "unknown_731", "op": "Const", "attr": {"value": {"tensor": {"dtype": "DT_FLOAT", "tensorShape": {"dim": [{"size": "2"}, {"size": "1"}, {"size": "1"}, {"size": "2"}]}}}, "dtype": {"type": "DT_FLOAT"}}}, {"name": "unknown_732", "op": "Const", "attr": {"value": {"tensor": {"dtype": "DT_FLOAT", "tensorShape": {"dim": [{"size": "2"}, {"size": "1"}, {"size": "1"}, {"size": "2"}]}}}, "dtype": {"type": "DT_FLOAT"}}}, {"name": "unknown_733", "op": "Const", "attr": {"dtype": {"type": "DT_FLOAT"}, "value": {"tensor": {"dtype": "DT_FLOAT", "tensorShape": {"dim": [{"size": "2"}, {"size": "1"}, {"size": "1"}, {"size": "2"}]}}}}}, {"name": "unknown_734", "op": "Const", "attr": {"dtype": {"type": "DT_FLOAT"}, "value": {"tensor": {"dtype": "DT_FLOAT", "tensorShape": {"dim": [{"size": "2"}, {"size": "1"}, {"size": "1"}, {"size": "2"}]}}}}}, {"name": "unknown_735", "op": "Const", "attr": {"dtype": {"type": "DT_FLOAT"}, "value": {"tensor": {"dtype": "DT_FLOAT", "tensorShape": {"dim": [{"size": "2"}, {"size": "1"}, {"size": "1"}, {"size": "2"}]}}}}}, {"name": "unknown_736", "op": "Const", "attr": {"dtype": {"type": "DT_FLOAT"}, "value": {"tensor": {"dtype": "DT_FLOAT", "tensorShape": {"dim": [{"size": "2"}, {"size": "1"}, {"size": "1"}, {"size": "2"}]}}}}}, {"name": "unknown_737", "op": "Const", "attr": {"dtype": {"type": "DT_FLOAT"}, "value": {"tensor": {"dtype": "DT_FLOAT", "tensorShape": {"dim": [{"size": "2"}, {"size": "1"}, {"size": "1"}, {"size": "2"}]}}}}}, {"name": "unknown_738", "op": "Const", "attr": {"value": {"tensor": {"dtype": "DT_FLOAT", "tensorShape": {"dim": [{"size": "2"}, {"size": "1"}, {"size": "1"}, {"size": "2"}]}}}, "dtype": {"type": "DT_FLOAT"}}}, {"name": "unknown_739", "op": "Const", "attr": {"value": {"tensor": {"dtype": "DT_FLOAT", "tensorShape": {"dim": [{"size": "2"}, {"size": "1"}, {"size": "1"}, {"size": "2"}]}}}, "dtype": {"type": "DT_FLOAT"}}}, {"name": "unknown_740", "op": "Const", "attr": {"value": {"tensor": {"dtype": "DT_FLOAT", "tensorShape": {"dim": [{"size": "2"}, {"size": "1"}, {"size": "1"}, {"size": "2"}]}}}, "dtype": {"type": "DT_FLOAT"}}}, {"name": "unknown_741", "op": "Const", "attr": {"value": {"tensor": {"dtype": "DT_FLOAT", "tensorShape": {"dim": [{"size": "2"}, {"size": "1"}, {"size": "1"}, {"size": "2"}]}}}, "dtype": {"type": "DT_FLOAT"}}}, {"name": "unknown_742", "op": "Const", "attr": {"value": {"tensor": {"dtype": "DT_FLOAT", "tensorShape": {"dim": [{"size": "2"}, {"size": "1"}, {"size": "1"}, {"size": "2"}]}}}, "dtype": {"type": "DT_FLOAT"}}}, {"name": "unknown_743", "op": "Const", "attr": {"dtype": {"type": "DT_FLOAT"}, "value": {"tensor": {"dtype": "DT_FLOAT", "tensorShape": {"dim": [{"size": "2"}, {"size": "1"}, {"size": "1"}, {"size": "2"}]}}}}}, {"name": "unknown_744", "op": "Const", "attr": {"…
 {"name": "unknown_658", "shape": [128], "dtype": "float32"}, {"name": "unknown_552", "shape": [128], "dtype": "float32"}, {"name": "PartitionedCall/model_36/tf.nn.conv2d_transpose_5/conv2d_transpose/input_sizes", "shape": [4], "dtype": "int32"}, {"name": "unknown_550", "shape": [4, 4, 128, 128], "dtype": "float32"}, {"name": "PartitionedCall/model_36/tf.nn.gelu_5/Gelu/mul/x", "shape": [], "dtype": "float32"}, {"name": "PartitionedCall/model_36/tf.nn.gelu_5/Gelu/add/x", "shape": [], "dtype": "float32"}, {"name": "PartitionedCall/model_36/tf.compat.v1.gather_4/GatherV2/indices", "shape": [], "dtype": "int32"}, {"name": "PartitionedCall/model_36/tf.compat.v1.gather_4/GatherV2/axis", "shape": [], "dtype": "int32"}, {"name": "unknown_480", "shape": [2, 1, 1, 2], "dtype": "float32"}, {"name": "unknown_481", "shape": [2, 1, 1, 2], "dtype": "float32"}, {"name": "unknown_482", "shape": [2, 1, 1, 2], "dtype": "float32"}, {"name": "unknown_483", "shape": [2, 1, 1, 2], "dtype": "float32"}, {"name": "unknown_484", "shape": [2, 1, 1, 2], "dtype": "float32"}, {"name": "unknown_485", "shape": [2, 1, 1, 2], "dtype": "float32"}, {"name": "unknown_486", "shape": [2, 1, 1, 2], "dtype": "float32"}, {"name": "unknown_487", "shape": [2, 1, 1, 2], "dtype": "float32"}, {"name": "unknown_488", "shape": [2, 1, 1, 2], "dtype": "float32"}, {"name": "unknown_489", "shape": [2, 1, 1, 2], "dtype": "float32"}, {"name": "unknown_490", "shape": [2, 1, 1, 2], "dtype": "float32"}, {"name": "unknown_491", "shape": [2, 1, 1, 2], "dtype": "float32"}, {"name": "unknown_492", "shape": [2, 1, 1, 2], "dtype": "float32"}, {"name": "unknown_493", "shape": [2, 1, 1, 2], "dtype": "float32"}, {"name": "unknown_494", "shape": [2, 1, 1, 2], "dtype": "float32"}, {"name": "unknown_495", "shape": [2, 1, 1, 2], "dtype": "float32"}, {"name": "unknown_496", "shape": [2, 1, 1, 2], "dtype": "float32"}, {"name": "unknown_497", "shape": [2, 1, 1, 2], "dtype": "float32"}, {"name": "unknown_498", "shape": [2, 1, 1, 2], "dtype": "float32"}, {"name": "unknown_499", "shape": [2, 1, 1, 2], "dtype": "float32"}, {"name": "unknown_500", "shape": [2, 1, 1, 2], "dtype": "float32"}, {"name": "unknown_501", "shape": [2, 1, 1, 2], "dtype": "float32"}, {"name": "unknown_502", "shape": [2, 1, 1, 2], "dtype": "float32"}, {"name": "unknown_503", "shape": [2, 1, 1, 2], "dtype": "float32"}, {"name": "unknown_504", "shape": [2, 1, 1, 2], "dtype": "float32"}, {"name": "unknown_505", "shape": [2, 1, 1, 2], "dtype": "float32"}, {"name": "unknown_506", "shape": [2, 1, 1, 2], "dtype": "float32"}, {"name": "unknown_507", "shape": [2, 1, 1, 2], "dtype": "float32"}, {"name": "unknown_508", "shape": [2, 1, 1, 2], "dtype": "float32"}, {"name": "unknown_509", "shape": [2, 1, 1, 2], "dtype": "float32"}, {"name": "unknown_510", "shape": [2, 1, 1, 2], "dtype": "float32"}, {"name": "unknown_511", "shape": [2, 1, 1, 2], "dtype": "float32"}, {"name": "unknown_512", "shape": [2, 1, 1, 2], "dtype": "float32"}, {"name": "unknown_513", "shape": [2, 1, 1, 2], "dtype": "float32"}, {"name": "unknown_514", "shape": [2, 1, 1, 2], "dtype": "float32"}, {"name": "unknown_515", "shape": [2, 1, 1, 2], "dtype": "float32"}, {"name": "unknown_516", "shape": [2, 1, 1, 2], "dtype": "float32"}, {"name": "unknown_517", "shape": [2, 1, 1, 2], "dtype": "float32"}, {"name": "unknown_518", "shape": [2, 1, 1, 2], "dtype": "float32"}, {"name": "unknown_519", "shape": [2, 1, 1, 2], "dtype": "float32"}, {"name": "unknown_520", "shape": [2, 1, 1, 2], "dtype": "float32"}, {"name": "unknown_521", "shape": [2, 1, 1, 2], "dtype": "float32"}, {"name": "unknown_522", "shape": [2, 1, 1, 2], "dtype": "float32"}, {"name": "unknown_523", "shape": [2, 1, 1, 2], "dtype": "float32"}, {"name": "unknown_524", "shape": [2, 1, 1, 2], "dtype": "float32"}, {"name": "unknown_525", "shape": [2, 1, 1, 2], "dtype": "float32"}, {"name": "unknown_526", "shape": [2, 1, 1, 2], "dtype": "float32"}, {"name": "unknown_527", "shape": [2, 1, 1, 2], "dtype": "float32"}, {"name": "unknown_528", "shape": [2, 1, 1, 2], "dtype": "float32"}, {"name": "unknown_529", "shape": [2, 1, 1, 2], "dtype": "float32"}, {"name": "unknown_530", "shape": [2, 1, 1, 2], "dtype": "float32"}, {"name": "unknown_531", "shape": [2, 1, 1, 2], "dtype": "float32"}, {"name": "unknown_532", "shape": [2, 1, 1, 2], "dtype": "float32"}, {"name": "unknown_533", "shape": [2, 1, 1, 2], "dtype": "float32"}, {"name": "unknown_534", "shape": [2, 1, 1, 2], "dtype": "float32"}, {"name": "unknown_535", "shape": [2, 1, 1, 2], "dtype": "float32"}, {"name": "unknown_536", "shape": [2, 1, 1, 2], "dtype": "float32"}, {"name": "unknown_537", "shape": [2, 1, 1, 2], "dtype": "float32"}, {"name": "unknown_538", "shape": [2, 1, 1, 2], "dtype": "float32"}, {"name": "unknown_539", "shape": [2, 1, 1, 2], "dtype": "float32"}, {"name": "unknown_540", "shape": [2, 1, 1, 2], "dtype": "float32"}, {"name": "unknown_541", "shape": [2, 1, 1, 2], "dtype": "float32"}, {"name": "unknown_542", "shape": [2, 1, 1, 2], "dtype": "float32"}, {"name": "PartitionedCall/model_36/tf.split_9/split/split_dim", "shape": [], "dtype": "int32"}, {"name": "unknown_448", "shape": [1, 2, 1, 2], "dtype": "float32"}, {"name": "unknown_449", "shape": [1, 2, 1, 2], "dtype": "float32"}, {"name": "unknown_450", "shape": [1, 2, 1, 2], "dtype": "float32"}, {"name": "unknown_451", "shape": [1, 2, 1, 2], "dtype": "float32"}, {"name": "unknown_452", "shape": [1, 2, 1, 2], "dtype": "float32"}, {"name": "unknown_453", "shape": [1, 2, 1, 2], "dtype": "float32"}, {"name": "unknown_454", "shape": [1, 2, 1, 2], "dtype": "float32"}, {"name": "unknown_455", "shape": [1, 2, 1, 2], "dtype": "float32"}, {"name": "unknown_456", "shape": [1, 2, 1, 2], "dtype": "float32"}, {"name": "unknown_457", "shape": [1, 2, 1, 2], "dtype": "float32"}, {"name": "unknown_458", "shape": [1, 2, 1, 2], "dtype": "float32"}, {"name": "unknown_459", "shape": [1, 2, 1, 2], "dtype": "float32"}, {"name": "unknown_460", "shape": [1, 2, 1, 2], "dtype": "float32"}, {"name": "unknown_461", "shape": [1, 2, 1, 2], "dtype": "float32"}, {"name": "unknown_462", "shape": [1, 2, 1, 2], "dtype": "float32"}, {"name": "unknown_463", "shape": [1, 2, 1, 2], "dtype": "float32"}, {"name": "unknown_464", "shape": [1, 2, 1, 2], "dtype": "float32"}, {"name": "unknown_465", "shape": [1, 2, 1, 2], "dtype": "float32"}, {"name": "unknown_466", "shape": [1, 2, 1, 2], "dtype": "float32"}, {"name": "unknown_467", "shape": [1, 2, 1, 2], "dtype": "float32"}, {"name": "unknown_468", "shape": [1, 2, 1, 2], "dtype": "float32"}, {"name": "unknown_469", "shape": [1, 2, 1, 2], "dtype": "float32"}, {"name": "unknown_470", "shape": [1, 2, 1, 2], "dtype": "float32"}, {"name": "unknown_471", "shape": [1, 2, 1, 2], "dtype": "float32"}, {"name": "unknown_472", "shape": [1, 2, 1, 2], "dtype": "float32"}, {"name": "unknown_473", "shape": [1, 2, 1, 2], "dtype": "float32"}, {"name": "unknown_474", "shape": [1, 2, 1, 2], "dtype": "float32"}, {"name": "unknown_475", "shape": [1, 2, 1, 2], "dtype": "float32"}, {"name": "unknown_476", "shape": [1, 2, 1, 2], "dtype": "float32"}, {"name": "unknown_477", "shape": [1, 2, 1, 2], "dtype": "float32"}, {"name": "unknown_478", "shape": [1, 2, 1, 2], "dtype": "float32"}, {"name": "PartitionedCall/model_36/tf.split_8/split/split_dim", "shape": [], "dtype": "int32"}, {"name": "unknown_446", "shape": [1, 1, 128, 32], "dtype": "float32"}, {"name": "unknown_447", "shape": [32], "dtype": "float32"}, {"name": "unknown_479", "shape": [1, 2, 1, 2], "dtype": "float32"}, {"name": "PartitionedCall/model_36/tf.concat_2324/concat/axis", "shape": [], "dtype": "int32"}, {"name": "unknown_543", "shape": [2, 1, 1, 2], "dtype": "float32"}, {"name": "PartitionedCall/model_36/tf.concat_2325/concat/axis", "shape": [], "dtype": "int32"}, {"name": "PartitionedCall/model_36/tf.compat.v1.transpose_4442/transpose/perm", "shape": [4], "dtype": "int32"}, {"name": "PartitionedCall/model_36/tf.reshape_8/Reshape/shape", "shape": [5], "dtype": "int32"}, {"name": "unknown_544", "shape": [5], "dtype": "int32"}, {"name": "unknown_545", "shape": [5], "dtype": "int32"}, {"name": "PartitionedCall/model_36/tf.strided_slice_9/StridedSlice/strides", "shape": [5], "dtype": "int32"}, {"name": "PartitionedCall/model_36/tf.reshape_9/Reshape/shape", "shape": [4], "dtype": "int32"}, {"name": "PartitionedCall/model_36/tf.concat_2903/concat/axis", "shape": [], "dtype": "int32"}, {"name": "PartitionedCall/model_36/tf.compat.v1.transpose_5549/transpose/perm", "shape": [4], "dtype": "int32"}, {"name": "unknown_546", "shape": [1, 1, 128, 256], "dtype": "float32"}, {"name": "unknown_547", "shape": [256], "dtype": "float32"}, {"name": "ConstantFolding/PartitionedCall/model_36/tf.nn.gelu_5/Gelu/truediv_recip", "shape": [], "dtype": "float32"}, {"name": "unknown_548", "shape": [1, 1, 256, 128], "dtype": "float32"}, {"name": "unknown_549", "shape": [128], "dtype": "float32"}, {"name": "PartitionedCall/model_36/tf.math.add_37/Add/y", "shape": [128], "dtype": "float32"}, {"name": "PartitionedCall/model_36/tf.strided_slice_10/StridedSlice/begin", "shape": [4], "dtype": "int32"}, {"name": "PartitionedCall/model_36/tf.strided_slice_10/StridedSlice/end", "shape": [4], "dtype": "int32"}, {"name": "PartitionedCall/model_36/tf.strided_slice_10/ones_like", "shape": [4], "dtype": "int32"}, {"name": "unknown_551", "shape": [128], "dtype": "float32"}, {"name": "unknown_874", "shape": [5, 5, 128, 1], "dtype": "float32"}, {"name": "unknown_875", "shape": [128], "dtype": "float32"}, {"name": "ConstantFolding/PartitionedCall/model_36/tf.nn.gelu_9/Gelu/truediv_recip", "shape": [], "dtype": "float32"}, {"name": "unknown_877", "shape": [128], "dtype": "float32"}, {"name": "PartitionedCall/model_36/tf.concat_2323/concat/axis", "shape": [], "dtype": "int32"}, {"name": "unknown_441", "shape": [3, 3, 4, 64], "dtype": "float32"}, {"name": "unknown_442", "shape": [64], "dtype": "float32"}, {"name": "unknown_443", "shape": [4, 2], "dtype": "int32"}, {"name": "unknown_444", "shape": [3, 3, 64, 128], "dtype": "float32"}, {"name": "unknown_445", "shape": [128], "dtype": "float32"}, {"name": "PartitionedCall/model_36/tf.concat_4644/concat/axis", "shape": [], "dtype": "int32"}, {"name": "PartitionedCall/model_36/tf.math.add_60/Add/y", "shape": [64], "dtype": "float32"}, {"name": "PartitionedCall/model_36/tf.strided_slice_17/StridedSlice/begin", "shape": [4], "dtype": "int32"}, {"name": "PartitionedCall/model_36/tf.strided_slice_17/StridedSlice/end", "shape": [4], "dtype": "int32"}, {"name": "PartitionedCall/model_36/tf.strided_slice_17/ones_like", "shape": [4], "dtype": "int32"}, {"name": "unknown_879", "shape": [64], "dtype": "float32"}, {"name": "unknown_880", "shape": [64], "dtype": "float32"}, {"name": "PartitionedCall/model_36/tf.concat_4645/concat/axis", "shape": [], "dtype": "int32"}, {"name": "unknown_881", "shape": [1, 1, 67, 3], "dtype": "float32"}, {"name": "unknown_882", "shape": [3], "dtype": "float32"}, {"name": "PartitionedCall/model_36/tf.nn.conv2d_transpose_4/conv2d_transpose/input_sizes", "shape": [4], "dtype": "int32"}, {"name": "unknown_436", "shape": [4, 4, 64, 256], "dtype": "float32"}, {"name": "PartitionedCall/model_36/tf.nn.gelu_4/Gelu/mul", "shape": [128], "dtype": "float32"}, {"name": "PartitionedCall/model_36/tf.nn.gelu_4/Gelu/add/x", "shape": [], "dtype": "float32"}, {"name": "unknown_431", "shape": [128], "dtype": "float32"}, {"name": "PartitionedCall/model_36/tf.nn.conv2d_transpose_3/conv2d_transpose/input_sizes", "shape": [4], "dtype": "int32"}, {"name": "unknown_429", "shape": [4, 4, 128, 128], "dtype": "float32"}, {"name": "PartitionedCall/model_36/tf.nn.gelu_3/Gelu/mul/x", "shape": [], "dtype": "float32"}, {"name": "PartitionedCall/model_36/tf.nn.gelu_3/Gelu/add/x", "shape": [], "dtype": "float32"}, {"name": "PartitionedCall/model_36/tf.compat.v1.gather_3/GatherV2/indices", "shape": [], "dtype": "int32"}, {"name": "PartitionedCall/model_36/tf.compat.v1.gather_3/GatherV2/axis", "shape": [], "dtype": "int32"}, {"name": "unknown_359", "shape": [2, 1, 1, 2], "dtype": "float32"}, {"name": "unknown_360", "shape": [2, 1, 1, 2], "dtype": "float32"}, {"name": "unknown_361", "shape": [2, 1, 1, 2], "dtype": "float32"}, {"name": "unknown_362", "shape": [2, 1, 1, 2], "dtype": "float32"}, {"name": "unknown_363", "shape": [2, 1, 1, 2], "dtype": "float32"}, {"name": "unknown_364", "shape": [2, 1, 1, 2], "dtype": "float32"}, {"name": "unknown_365", "shape": [2, 1, 1, 2], "dtype": "float32"}, {"name": "unknown_366", "shape": [2, 1, 1, 2], "dtype": "float32"}, {"name": "unknown_367", "shape": [2, 1, 1, 2], "dtype": "float32"}, {"name": "unknown_368", "shape": [2, 1, 1, 2], "dtype": "float32"}, {"name": "unknown_369", "shape": [2, 1, 1, 2], "dtype": "float32"}, {"name": "unknown_370", "shape": [2, 1, 1, 2], "dtype": "float32"}, {"name": "unknown_371", "shape": [2, 1, 1, 2], "dtype": "float32"}, {"name": "unknown_372", "shape": [2, 1, 1, 2], "dtype": "float32"}, {"name": "unknown_373", "shape": [2, 1, 1, 2], "dtype": "float32"}, {"name": "unknown_374", "shape": [2, 1, 1, 2], "dtype": "float32"}, {"name": "unknown_375", "shape": [2, 1, 1, 2], "dtype": "float32"}, {"name": "unknown_376", "shape": [2, 1, 1, 2], "dtype": "float32"}, {"name": "unknown_377", "shape": [2, 1, 1, 2], "dtype": "float32"}, {"name": "unknown_378", "shape": [2, 1, 1, 2], "dtype": "float32"}, {"name": "unknown_379", "shape": [2, 1, 1, 2], "dtype": "float32"}, {"name": "unknown_380", "shape": [2, 1, 1, 2], "dtype": "float32"}, {"name": "unknown_381", "shape": [2, 1, 1, 2], "dtype": "float32"}, {"name": "unknown_382", "shape": [2, 1, 1, 2], "dtype": "float32"}, {"name": "unknown_383", "shape": [2, 1, 1, 2], "dtype": "float32"}, {"name": "unknown_384", "shape": [2, 1, 1, 2], "dtype": "float32"}, {"name": "unknown_385", "shape": [2, 1, 1, 2], "dtype": "float32"}, {"name": "unknown_386", "shape": [2, 1, 1, 2], "dtype": "float32"}, {"name": "unknown_387", "shape": [2, 1, 1, 2], "dtype": "float32"}, {"name": "unknown_388", "shape": [2, 1, 1, 2], "dtype": "float32"}, {"name": "unknown_389", "shape": [2, 1, 1, 2], "dtype": "float32"}, {"name": "unknown_390", "shape": [2, 1, 1, 2], "dtype": "float32"}, {"name": "unknown_391", "shape": [2, 1, 1, 2], "dtype": "float32"}, {"name": "unknown_392", "shape": [2, 1, 1, 2], "dtype": "float32"}, {"name": "unknown_393", "shape": [2, 1, 1, 2], "dtype": "float32"}, {"name": "unknown_394", "shape": [2, 1, 1, 2], "dtype": "float32"}, {"name": "unknown_395", "shape": [2, 1, 1, 2], "dtype": "float32"}, {"name": "unknown_396", "shape": [2, 1, 1, 2], "dtype": "float32"}, {"name": "unknown_397", "shape": [2, 1, 1, 2], "dtype": "float32"}, {"name": "unknown_398", "shape": [2, 1, 1, 2], "dtype": "float32"}, {"name": "unknown_399", "shape": [2, 1, 1, 2], "dtype": "float32"}, {"name": "unknown_400", "shape": [2, 1, 1, 2], "dtype": "float32"}, {"name": "unknown_401", "shape": [2, 1, 1, 2], "dtype": "float32"}, {"name": "unknown_402", "shape": [2, 1, 1, 2], "dtype": "float32"}, {"name": "unknown_403", "shape": [2, 1, 1, 2], "dtype": "float32"}, {"name": "unknown_404", "shape": [2, 1, 1, 2], "dtype": "float32"}, {"name": "unknown_405", "shape": [2, 1, 1, 2], "dtype": "float32"}, {"name": "unknown_406", "shape": [2, 1, 1, 2], "dtype": "float32"}, {"name": "unknown_407", "shape": [2, 1, 1, 2], "dtype": "float32"}, {"name": "unknown_408", "shape": [2, 1, 1, 2], "dtype": "float32"}, {"name": "unknown_409", "shape": [2, 1, 1, 2], "dtype": "float32"}, {"name": "unknown_410", "shape": [2, 1, 1, 2], "dtype": "float32"}, {"name": "unknown_411", "shape": [2, 1, 1, 2], "dtype": "float32"}, {"name": "unknown_412", "shape": [2, 1, 1, 2], "dtype": "float32"}, {"name": "unknown_413", "shape": [2, 1, 1, 2], "dtype": "float32"}, {"name": "unknown_414", "shape": [2, 1, 1, 2], "dtype": "float32"}, {"name": "unknown_415", "shape": [2, 1, 1, 2], "dtype": "float32"}, {"name": "unknown_416", "shape": [2, 1, 1, 2], "dtype": "float32"}, {"name": "unknown_417", "shape": [2, 1, 1, 2], "dtype": "float32"}, {"name": "unknown_418", "shape": [2, 1, 1, 2], "dtype": "float32"}, {"name": "unknown_419", "shape": [2, 1, 1, 2], "dtype": "float32"}, {"name": "unknown_420", "shape": [2, 1, 1, 2], "dtype": "float32"}, {"name": "unknown_421", "shape": [2, 1, 1, 2], "dtype": "float32"}, {"name": "PartitionedCall/model_36/tf.split_7/split/split_dim", "shape": [], "dtype": "int32"}, {"name": "unknown_327", "shape": [1, 2, 1, 2], "dtype": "float32"}, {"name": "unknown_328", "shape": [1, 2, 1, 2], "dtype": "float32"}, {"name": "unknown_329", "shape": [1, 2, 1, 2], "dtype": "float32"}, {"name": "unknown_330", "shape": [1, 2, 1, 2], "dtype": "float32"}, {"name": "unknown_331", "shape": [1, 2, 1, 2], "dtype": "float32"}, {"name": "unknown_332", "shape": [1, 2, 1, 2], "dtype": "float32"}, {"name": "unknown_333", "shape": [1, 2, 1, 2], "dtype": "float32"}, {"name": "unknown_334", "shape": [1, 2, 1, 2], "dtype": "float32"}, {"name": "unknown_335", "shape": [1, 2, 1, 2], "dtype": "float32"}, {"name": "unknown_336", "shape": [1, 2, 1, 2], "dtype": "float32"}, {"name": "unknown_337", "shape": [1, 2, 1, 2], "dtype": "float32"}, {"name": "unknown_338", "shape": [1, 2, 1, 2], "dtype": "float32"}, {"name": "unknown_339", "shape": [1, 2, 1, 2], "dtype": "float32"}, {"name": "unknown_340", "shape": [1, 2, 1, 2], "dtype": "float32"}, {"name": "unknown_341", "shape": [1, 2, 1, 2], "dtype": "float32"}, {"name": "unknown_342", "shape": [1, 2, 1, 2], "dtype": "float32"}, {"name": "unknown_343", "shape": [1, 2, 1, 2], "dtype": "float32"}, {"name": "unknown_344", "shape": [1, 2, 1, 2], "dtype": "float32"}, {"name": "unknown_345", "shape": [1, 2, 1, 2], "dtype": "float32"}, {"name": "unknown_346", "shape": [1, 2, 1, 2], "dtype": "float32"}, {"name": "unknown_347", "shape": [1, 2, 1, 2], "dtype": "float32"}, {"name": "unknown_348", "shape": [1, 2, 1, 2], "dtype": "float32"}, {"name": "unknown_349", "shape": [1, 2, 1, 2], "dtype": "float32"}, {"name": "unknown_350", "shape": [1, 2, 1, 2], "dtype": "float32"}, {"name": "unknown_351", "shape": [1, 2, 1, 2], "dtype": "float32"}, {"name": "unknown_352", "shape": [1, 2, 1, 2], "dtype": "float32"}, {"name": "unknown_353", "shape": [1, 2, 1, 2], "dtype": "float32"}, {"name": "unknown_354", "shape": [1, 2, 1, 2], "dtype": "float32"}, {"name": "unknown_355", "shape": [1, 2, 1, 2], "dtype": "float32"}, {"name": "unknown_356", "shape": [1, 2, 1, 2], "dtype": "float32"}, {"name": "unknown_357", "shape": [1, 2, 1, 2], "dtype": "float32"}, {"name": "PartitionedCall/model_36/tf.split_6/split/split_dim", "shape": [], "dtype": "int32"}, {"name": "unknown_325", "shape": [1, 1, 128, 32], "dtype": "float32"}, {"name": "unknown_326", "shape": [32], "dtype": "float32"}, {"name": "unknown_358", "shape": [1, 2, 1, 2], "dtype": "float32"}, {"name": "PartitionedCall/model_36/tf.concat_1741/concat/axis", "shape": [], "dtype": "int32"}, {"name": "unknown_422", "shape": [2, 1, 1, 2], "dtype": "float32"}, {"name": "PartitionedCall/model_36/tf.concat_1742/concat/axis", "shape": [], "dtype": "int32"}, {"name": "PartitionedCall/model_36/tf.compat.v1.transpose_3332/transpose/perm", "shape": [4], "dtype": "int32"}, {"name": "PartitionedCall/model_36/tf.reshape_6/Reshape/shape", "shape": [5], "dtype": "int32"}, {"name": "unknown_423", "shape": [5], "dtype": "int32"}, {"name": "unknown_424", "shape": [5], "dtype": "int32"}, {"name": "PartitionedCall/model_36/tf.strided_slice_6/StridedSlice/strides", "shape": [5], "dtype": "int32"}, {"name": "PartitionedCall/model_36/tf.reshape_7/Reshape/shape", "shape": [4], "dtype": "int32"}, {"name": "PartitionedCall/model_36/tf.concat_2320/concat/axis", "shape": [], "dtype": "int32"}, {"name": "PartitionedCall/model_36/tf.compat.v1.transpose_4439/transpose/perm", "shape": [4], "dtype": "int32"}, {"name": "unknown_425", "shape": [1, 1, 128, 256], "dtype": "float32"}, {"name": "unknown_426", "shape": [256], "dtype": "float32"}, {"name": "ConstantFolding/PartitionedCall/model_36/tf.nn.gelu_3/Gelu/truediv_recip", "shape": [], "dtype": "float32"}, {"name": "unknown_427", "shape": [1, 1, 256, 128], "dtype": "float32"}, {"name": "unknown_428", "shape": [128], "dtype": "float32"}, {"name": "PartitionedCall/model_36/tf.math.add_23/Add/y", "shape": [128], "dtype": "float32"}, {"name": "PartitionedCall/model_36/tf.strided_slice_7/StridedSlice/begin", "shape": [4], "dtype": "int32"}, {"name": "PartitionedCall/model_36/tf.strided_slice_7/StridedSlice/end", "shape": [4], "dtype": "int32"}, {"name": "PartitionedCall/model_36/tf.strided_slice_7/ones_like", "shape": [4], "dtype": "int32"}, {"name": "unknown_430", "shape": [128], "dtype": "float32"}, {"name": "unknown_324", "shape": [128], "dtype": "float32"}, {"name": "PartitionedCall/model_36/tf.nn.conv2d_transpose_2/conv2d_transpose/input_sizes", "shape": [4], "dtype": "int32"}, {"name": "unknown_322", "shape": [4, 4, 128, 128], "dtype": "float32"}, {"name": "PartitionedCall/model_36/tf.nn.gelu_2/Gelu/mul/x", "shape": [], "dtype": "float32"}, {"name": "PartitionedCall/model_36/tf.nn.gelu_2/Gelu/add/x", "shape": [], "dtype": "float32"}, {"name": "PartitionedCall/model_36/tf.compat.v1.gather_2/GatherV2/indices", "shape": [], "dtype": "int32"}, {"name": "PartitionedCall/model_36/tf.compat.v1.gather_2/GatherV2/axis", "shape": [], "dtype": "int32"}, {"name": "unknown_252", "shape": [2, 1, 1, 2], "dtype": "float32"}, {"name": "unknown_253", "shape": [2, 1, 1, 2], "dtype": "float32"}, {"name": "unknown_254", "shape": [2, 1, 1, 2], "dtype": "float32"}, {"name": "unknown_255", "shape": [2, 1, 1, 2], "dtype": "float32"}, {"name": "unknown_256", "shape": [2, 1, 1, 2], "dtype": "float32"}, {"name": "unknown_257", "shape": [2, 1, 1, 2], "dtype": "float32"}, {"name": "unknown_258", "shape": [2, 1, 1, 2], "dtype": "float32"}, {"name": "unknown_259", "shape": [2, 1, 1, 2], "dtype": "float32"}, {"name": "unknown_260", "shape": [2, 1, 1, 2], "dtype": "float32"}, {"name": "unknown_261", "shape": [2, 1, 1, 2], "dtype": "float32"}, {"name": "unknown_262", "shape": [2, 1, 1, 2], "dtype": "float32"}, {"name": "unknown_263", "shape": [2, 1, 1, 2], "dtype": "float32"}, {"name": "unknown_264", "shape": [2, 1, 1, 2], "dtype": "float32"}, {"name": "unknown_265", "shape": [2, 1, 1, 2], "dtype": "float32"}, {"name": "unknown_266", "shape": [2, 1, 1, 2], "dtype": "float32"}, {"name": "unknown_267", "shape": [2, 1, 1, 2], "dtype": "float32"}, {"name": "unknown_268", "shape": [2, 1, 1, 2], "dtype": "float32"}, {"name": "unknown_269", "shape": [2, 1, 1, 2], "dtype": "float32"}, {"name": "unknown_270", "shape": [2, 1, 1, 2], "dtype": "float32"}, {"name": "unknown_271", "shape": [2, 1, 1, 2], "dtype": "float32"}, {"name": "unknown_272", "shape": [2, 1, 1, 2], "dtype": "float32"}, {"name": "unknown_273", "shape": [2, 1, 1, 2], "dtype": "float32"}, {"name": "unknown_274", "shape": [2, 1, 1, 2], "dtype": "float32"}, {"name": "unknown_275", "shape": [2, 1, 1, 2], "dtype": "float32"}, {"name": "unknown_276", "shape": [2, 1, 1, 2], "dtype": "float32"}, {"name": "unknown_277", "shape": [2, 1, 1, 2], "dtype": "float32"}, {"name": "unknown_278", "shape": [2, 1, 1, 2], "dtype": "float32"}, {"name": "unknown_279", "shape": [2, 1, 1, 2], "dtype": "float32"}, {"name": "unknown_280", "shape": [2, 1, 1, 2], "dtype": "float32"}, {"name": "unknown_281", "shape": [2, 1, 1, 2], "dtype": "float32"}, {"name": "unknown_282", "shape": [2, 1, 1, 2], "dtype": "float32"}, {"name": "unknown_283", "shape": [2, 1, 1, 2], "dtype": "float32"}, {"name": "unknown_284", "shape": [2, 1, 1, 2], "dtype": "float32"}, {"name": "unknown_285", "shape": [2, 1, 1, 2], "dtype": "float32"}, {"name": "unknown_286", "shape": [2, 1, 1, 2], "dtype": "float32"}, {"name": "unknown_287", "shape": [2, 1, 1, 2], "dtype": "float32"}, {"name": "unknown_288", "shape": [2, 1, 1, 2], "dtype": "float32"}, {"name": "unknown_289", "shape": [2, 1, 1, 2], "dtype": "float32"}, {"name": "unknown_290", "shape": [2, 1, 1, 2], "dtype": "float32"}, {"name": "unknown_291", "shape": [2, 1, 1, 2], "dtype": "float32"}, {"name": "unknown_292", "shape": [2, 1, 1, 2], "dtype": "float32"}, {"name": "unknown_293", "shape": [2, 1, 1, 2], "dtype": "float32"}, {"name": "unknown_294", "shape": [2, 1, 1, 2], "dtype": "float32"}, {"name": "unknown_295", "shape": [2, 1, 1, 2], "dtype": "float32"}, {"name": "unknown_296", "shape": [2, 1, 1, 2], "dtype": "float32"}, {"name": "unknown_297", "shape": [2, 1, 1, 2], "dtype": "float32"}, {"name": "unknown_298", "shape": [2, 1, 1, 2], "dtype": "float32"}, {"name": "unknown_299", "shape": [2, 1, 1, 2], "dtype": "float32"}, {"name": "unknown_300", "shape": [2, 1, 1, 2], "dtype": "float32"}, {"name": "unknown_301", "shape": [2, 1, 1, 2], "dtype": "float32"}, {"name": "unknown_302", "shape": [2, 1, 1, 2], "dtype": "float32"}, {"name": "unknown_303", "shape": [2, 1, 1, 2], "dtype": "float32"}, {"name": "unknown_304", "shape": [2, 1, 1, 2], "dtype": "float32"}, {"name": "unknown_305", "shape": [2, 1, 1, 2], "dtype": "float32"}, {"name": "unknown_306", "shape": [2, 1, 1, 2], "dtype": "float32"}, {"name": "unknown_307", "shape": [2, 1, 1, 2], "dtype": "float32"}, {"name": "unknown_308", "shape": [2, 1, 1, 2], "dtype": "float32"}, {"name": "unknown_309", "shape": [2, 1, 1, 2], "dtype": "float32"}, {"name": "unknown_310", "shape": [2, 1, 1, 2], "dtype": "float32"}, {"name": "unknown_311", "shape": [2, 1, 1, 2], "dtype": "float32"}, {"name": "unknown_312", "shape": [2, 1, 1, 2], "dtype": "float32"}, {"name": "unknown_313", "shape": [2, 1, 1, 2], "dtype": "float32"}, {"name": "unknown_314", "shape": [2, 1, 1, 2], "dtype": "float32"}, {"name": "PartitionedCall/model_36/tf.split_5/split/split_dim", "shape": [], "dtype": "int32"}, {"name": "unknown_220", "shape": [1, 2, 1, 2], "dtype": "float32"}, {"name": "unknown_221", "shape": [1, 2, 1, 2], "dtype": "float32"}, {"name": "unknown_222", "shape": [1, 2, 1, 2], "dtype": "float32"}, {"name": "unknown_223", "shape": [1, 2, 1, 2], "dtype": "float32"}, {"name": "unknown_224", "shape": [1, 2, 1, 2], "dtype": "float32"}, {"name": "unknown_225", "shape": [1, 2, 1, 2], "dtype": "float32"}, {"name": "unknown_226", "shape": [1, 2, 1, 2], "dtype": "float32"}, {"name": "unknown_227", "shape": [1, 2, 1, 2], "dtype": "float32"}, {"name": "unknown_228", "shape": [1, 2, 1, 2], "dtype": "float32"}, {"name": "unknown_229", "shape": [1, 2, 1, 2], "dtype": "float32"}, {"name": "unknown_230", "shape": [1, 2, 1, 2], "dtype": "float32"}, {"name": "unknown_231", "shape": [1, 2, 1, 2], "dtype": "float32"}, {"name": "unknown_232", "shape": [1, 2, 1, 2], "dtype": "float32"}, {"name": "unknown_233", "shape": [1, 2, 1, 2], "dtype": "float32"}, {"name": "unknown_234", "shape": [1, 2, 1, 2], "dtype": "float32"}, {"name": "unknown_235", "shape": [1, 2, 1, 2], "dtype": "float32"}, {"name": "unknown_236", "shape": [1, 2, 1, 2], "dtype": "float32"}, {"name": "unknown_237", "shape": [1, 2, 1, 2], "dtype": "float32"}, {"name": "unknown_238", "shape": [1, 2, 1, 2], "dtype": "float32"}, {"name": "unknown_239", "shape": [1, 2, 1, 2], "dtype": "float32"}, {"name": "unknown_240", "shape": [1, 2, 1, 2], "dtype": "float32"}, {"name": "unknown_241", "shape": [1, 2, 1, 2], "dtype": "float32"}, {"name": "unknown_242", "shape": [1, 2, 1, 2], "dtype": "float32"}, {"name": "unknown_243", "shape": [1, 2, 1, 2], "dtype": "float32"}, {"name": "unknown_244", "shape": [1, 2, 1, 2], "dtype": "float32"}, {"name": "unknown_245", "shape": [1, 2, 1, 2], "dtype": "float32"}, {"name": "unknown_246", "shape": [1, 2, 1, 2], "dtype": "float32"}, {"name": "unknown_247", "shape": [1, 2, 1, 2], "dtype": "float32"}, {"name": "unknown_248", "shape": [1, 2, 1, 2], "dtype": "float32"}, {"name": "unknown_249", "shape": [1, 2, 1, 2], "dtype": "float32"}, {"name": "unknown_250", "shape": [1, 2, 1, 2], "dtype": "float32"}, {"name": "PartitionedCall/model_36/tf.split_4/split/split_dim", "shape": [], "dtype": "int32"}, {"name": "unknown_218", "shape": [1, 1, 128, 32], "dtype": "float32"}, {"name": "unknown_219", "shape": [32], "dtype": "float32"}, {"name": "unknown_251", "shape": [1, 2, 1, 2], "dtype": "float32"}, {"name": "PartitionedCall/model_36/tf.concat_1161/concat/axis", "shape": [], "dtype": "int32"}, {"name": "unknown_315", "shape": [2, 1, 1, 2], "dtype": "float32"}, {"name": "PartitionedCall/model_36/tf.concat_1162/concat/axis", "shape": [], "dtype": "int32"}, {"name": "PartitionedCall/model_36/tf.compat.v1.transpose_2222/transpose/perm", "shape": [4], "dtype": "int32"}, {"name": "PartitionedCall/model_36/tf.reshape_4/Reshape/shape", "shape": [5], "dtype": "int32"}, {"name": "unknown_316", "shape": [5], "dtype": "int32"}, {"name": "unknown_317", "shape": [5], "dtype": "int32"}, {"name": "PartitionedCall/model_36/tf.strided_slice_4/StridedSlice/strides", "shape": [5], "dtype": "int32"}, {"name": "PartitionedCall/model_36/tf.reshape_5/Reshape/shape", "shape": [4], "dtype": "int32"}, {"name": "PartitionedCall/model_36/tf.concat_1740/concat/axis", "shape": [], "dtype": "int32"}, {"name": "PartitionedCall/model_36/tf.compat.v1.transpose_3329/transpose/perm", "shape": [4], "dtype": "int32"}, {"name": "unknown_318", "shape": [1, 1, 128, 256], "dtype": "float32"}, {"name": "unknown_319", "shape": [256], "dtype": "float32"}, {"name": "ConstantFolding/PartitionedCall/model_36/tf.nn.gelu_2/Gelu/truediv_recip", "shape": [], "dtype": "float32"}, {"name": "unknown_320", "shape": [1, 1, 256, 128], "dtype": "float32"}, {"name": "unknown_321", "shape": [128], "dtype": "float32"}, {"name": "PartitionedCall/model_36/tf.math.add_17/Add/y", "shape": [128], "dtype": "float32"}, {"name": "PartitionedCall/model_36/tf.strided_slice_5/StridedSlice/begin", "shape": [4], "dtype": "int32"}, {"name": "PartitionedCall/model_36/tf.strided_slice_5/StridedSlice/end", "shape": [4], "dtype": "int32"}, {"name": "PartitionedCall/model_36/tf.strided_slice_5/ones_like", "shape": [4], "dtype": "int32"}, {"name": "unknown_323", "shape": [128], "dtype": "float32"}, {"name": "unknown_217", "shape": [128], "dtype": "float32"}, {"name": "PartitionedCall/model_36/tf.nn.conv2d_transpose_1/conv2d_transpose/input_sizes", "shape": [4], "dtype": "int32"}, {"name": "unknown_215", "shape": [4, 4, 128, 128], "dtype": "float32"}, {"name": "PartitionedCall/model_36/tf.nn.gelu_1/Gelu/mul/x", "shape": [], "dtype": "float32"}, {"name": "PartitionedCall/model_36/tf.nn.gelu_1/Gelu/add/x", "shape": [], "dtype": "float32"}, {"name": "PartitionedCall/model_36/tf.compat.v1.gather_1/GatherV2/indices", "shape": [], "dtype": "int32"}, {"name": "PartitionedCall/model_36/tf.compat.v1.gather_1/GatherV2/axis", "shape": [], "dtype": "int32"}, {"name": "unknown_145", "shape": [2, 1, 1, 2], "dtype": "float32"}, {"name": "unknown_146", "shape": [2, 1, 1, 2], "dtype": "float32"}, {"name": "unknown_147", "shape": [2, 1, 1, 2], "dtype": "float32"}, {"name": "unknown_148", "shape": [2, 1, 1, 2], "dtype": "float32"}, {"name": "unknown_149", "shape": [2, 1, 1, 2], "dtype": "float32"}, {"name": "unknown_150", "shape": [2, 1, 1, 2], "dtype": "float32"}, {"name": "unknown_151", "shape": [2, 1, 1, 2], "dtype": "float32"}, {"name": "unknown_152", "shape": [2, 1, 1, 2], "dtype": "float32"}, {"name": "unknown_153", "shape": [2, 1, 1, 2], "dtype": "float32"}, {"name": "unknown_154", "shape": [2, 1, 1, 2], "dtype": "float32"}, {"name": "unknown_155", "shape": [2, 1, 1, 2], "dtype": "float32"}, {"name": "unknown_156", "shape": [2, 1, 1, 2], "dtype": "float32"}, {"name": "unknown_157", "shape": [2, 1, 1, 2], "dtype": "float32"}, {"name": "unknown_158", "shape": [2, 1, 1, 2], "dtype": "float32"}, {"name": "unknown_159", "shape": [2, 1, 1, 2], "dtype": "float32"}, {"name": "unknown_160", "shape": [2, 1, 1, 2], "dtype": "float32"}, {"name": "unknown_161", "shape": [2, 1, 1, 2], "dtype": "float32"}, {"name": "unknown_162", "shape": [2, 1, 1, 2], "dtype": "float32"}, {"name": "unknown_163", "shape": [2, 1, 1, 2], "dtype": "float32"}, {"name": "unknown_164", "shape": [2, 1, 1, 2], "dtype": "float32"}, {"name": "unknown_165", "shape": [2, 1, 1, 2], "dtype": "float32"}, {"name": "unknown_166", "shape": [2, 1, 1, 2], "dtype": "float32"}, {"name": "unknown_167", "shape": [2, 1, 1, 2], "dtype": "float32"}, {"name": "unknown_168", "shape": [2, 1, 1, 2], "dtype": "float32"}, {"name": "unknown_169", "shape": [2, 1, 1, 2], "dtype": "float32"}, {"name": "unknown_170", "shape": [2, 1, 1, 2], "dtype": "float32"}, {"name": "unknown_171", "shape": [2, 1, 1, 2], "dtype": "float32"}, {"name": "unknown_172", "shape": [2, 1, 1, 2], "dtype": "float32"}, {"name": "unknown_173", "shape": [2, 1, 1, 2], "dtype": "float32"}, {"name": "unknown_174", "shape": [2, 1, 1, 2], "dtype": "float32"}, {"name": "unknown_175", "shape": [2, 1, 1, 2], "dtype": "float32"}, {"name": "unknown_176", "shape": [2, 1, 1, 2], "dtype": "float32"}, {"name": "unknown_177", "shape": [2, 1, 1, 2], "dtype": "float32"}, {"name": "unknown_178", "shape": [2, 1, 1, 2], "dtype": "float32"}, {"name": "unknown_179", "shape": [2, 1, 1, 2], "dtype": "float32"}, {"name": "unknown_180", "shape": [2, 1, 1, 2], "dtype": "float32"}, {"name": "unknown_181", "shape": [2, 1, 1, 2], "dtype": "float32"}, {"name": "unknown_182", "shape": [2, 1, 1, 2], "dtype": "float32"}, {"name": "unknown_183", "shape": [2, 1, 1, 2], "dtype": "float32"}, {"name": "unknown_184", "shape": [2, 1, 1, 2], "dtype": "float32"}, {"name": "unknown_185", "shape": [2, 1, 1, 2], "dtype": "float32"}, {"name": "unknown_186", "shape": [2, 1, 1, 2], "dtype": "float32"}, {"name": "unknown_187", "shape": [2, 1, 1, 2], "dtype": "float32"}, {"name": "unknown_188", "shape": [2, 1, 1, 2], "dtype": "float32"}, {"name": "unknown_189", "shape": [2, 1, 1, 2], "dtype": "float32"}, {"name": "unknown_190", "shape": [2, 1, 1, 2], "dtype": "float32"}, {"name": "unknown_191", "shape": [2, 1, 1, 2], "dtype": "float32"}, {"name": "unknown_192", "shape": [2, 1, 1, 2], "dtype": "float32"}, {"name": "unknown_193", "shape": [2, 1, 1, 2], "dtype": "float32"}, {"name": "unknown_194", "shape": [2, 1, 1, 2], "dtype": "float32"}, {"name": "unknown_195", "shape": [2, 1, 1, 2], "dtype": "float32"}, {"name": "unknown_196", "shape": [2, 1, 1, 2], "dtype": "float32"}, {"name": "unknown_197", "shape": [2, 1, 1, 2], "dtype": "float32"}, {"name": "unknown_198", "shape": [2, 1, 1, 2], "dtype": "float32"}, {"name": "unknown_199", "shape": [2, 1, 1, 2], "dtype": "float32"}, {"name": "unknown_200", "shape": [2, 1, 1, 2], "dtype": "float32"}, {"name": "unknown_201", "shape": [2, 1, 1, 2], "dtype": "float32"}, {"name": "unknown_202", "shape": [2, 1, 1, 2], "dtype": "float32"}, {"name": "unknown_203", "shape": [2, 1, 1, 2], "dtype": "float32"}, {"name": "unknown_204", "shape": [2, 1, 1, 2], "dtype": "float32"}, {"name": "unknown_205", "shape": [2, 1, 1, 2], "dtype": "float32"}, {"name": "unknown_206", "shape": [2, 1, 1, 2], "dtype": "float32"}, {"name": "unknown_207", "shape": [2, 1, 1, 2], "dtype": "float32"}, {"name": "PartitionedCall/model_36/tf.split_3/split/split_dim", "shape": [], "dtype": "int32"}, {"name": "unknown_113", "shape": [1, 2, 1, 2], "dtype": "float32"}, {"name": "unknown_114", "shape": [1, 2, 1, 2], "dtype": "float32"}, {"name": "unknown_115", "shape": [1, 2, 1, 2], "dtype": "float32"}, {"name": "unknown_116", "shape": [1, 2, 1, 2], "dtype": "float32"}, {"name": "unknown_117", "shape": [1, 2, 1, 2], "dtype": "float32"}, {"name": "unknown_118", "shape": [1, 2, 1, 2], "dtype": "float32"}, {"name": "unknown_119", "shape": [1, 2, 1, 2], "dtype": "float32"}, {"name": "unknown_120", "shape": [1, 2, 1, 2], "dtype": "float32"}, {"name": "unknown_121", "shape": [1, 2, 1, 2], "dtype": "float32"}, {"name": "unknown_122", "shape": [1, 2, 1, 2], "dtype": "float32"}, {"name": "unknown_123", "shape": [1, 2, 1, 2], "dtype": "float32"}, {"name": "unknown_124", "shape": [1, 2, 1, 2], "dtype": "float32"}, {"name": "unknown_125", "shape": [1, 2, 1, 2], "dtype": "float32"}, {"name": "unknown_126", "shape": [1, 2, 1, 2], "dtype": "float32"}, {"name": "unknown_127", "shape": [1, 2, 1, 2], "dtype": "float32"}, {"name": "unknown_128", "shape": [1, 2, 1, 2], "dtype": "float32"}, {"name": "unknown_129", "shape": [1, 2, 1, 2], "dtype": "float32"}, {"name": "unknown_130", "shape": [1, 2, 1, 2], "dtype": "float32"}, {"name": "unknown_131", "shape": [1, 2, 1, 2], "dtype": "float32"}, {"name": "unknown_132", "shape": [1, 2, 1, 2], "dtype": "float32"}, {"name": "unknown_133", "shape": [1, 2, 1, 2], "dtype": "float32"}, {"name": "unknown_134", "shape": [1, 2, 1, 2], "dtype": "float32"}, {"name": "unknown_135", "shape": [1, 2, 1, 2], "dtype": "float32"}, {"name": "unknown_136", "shape": [1, 2, 1, 2], "dtype": "float32"}, {"name": "unknown_137", "shape": [1, 2, 1, 2], "dtype": "float32"}, {"name": "unknown_138", "shape": [1, 2, 1, 2], "dtype": "float32"}, {"name": "unknown_139", "shape": [1, 2, 1, 2], "dtype": "float32"}, {"name": "unknown_140", "shape": [1, 2, 1, 2], "dtype": "float32"}, {"name": "unknown_141", "shape": [1, 2, 1, 2], "dtype": "float32"}, {"name": "unknown_142", "shape": [1, 2, 1, 2], "dtype": "float32"}, {"name": "unknown_143", "shape": [1, 2, 1, 2], "dtype": "float32"}, {"name": "PartitionedCall/model_36/tf.split_2/split/split_dim", "shape": [], "dtype": "int32"}, {"name": "unknown_111", "shape": [1, 1, 128, 32], "dtype": "float32"}, {"name": "unknown_112", "shape": [32], "dtype": "float32"}, {"name": "unknown_144", "shape": [1, 2, 1, 2], "dtype": "float32"}, {"name": "PartitionedCall/model_36/tf.concat_581/concat/axis", "shape": [], "dtype": "int32"}, {"name": "unknown_208", "shape": [2, 1, 1, 2], "dtype": "float32"}, {"name": "PartitionedCall/model_36/tf.concat_582/concat/axis", "shape": [], "dtype": "int32"}, {"name": "PartitionedCall/model_36/tf.compat.v1.transpose_1112/transpose/perm", "shape": [4], "dtype": "int32"}, {"name": "PartitionedCall/model_36/tf.reshape_2/Reshape/shape", "shape": [5], "dtype": "int32"}, {"name": "unknown_209", "shape": [5], "dtype": "int32"}, {"name": "unknown_210", "shape": [5], "dtype": "int32"}, {"name": "PartitionedCall/model_36/tf.strided_slice_2/StridedSlice/strides", "shape": [5], "dtype": "int32"}, {"name": "PartitionedCall/model_36/tf.reshape_3/Reshape/shape", "shape": [4], "dtype": "int32"}, {"name": "PartitionedCall/model_36/tf.concat_1160/concat/axis", "shape": [], "dtype": "int32"}, {"name": "PartitionedCall/model_36/tf.compat.v1.transpose_2219/transpose/perm", "shape": [4], "dtype": "int32"}, {"name": "unknown_211", "shape": [1, 1, 128, 256], "dtype": "float32"}, {"name": "unknown_212", "shape": [256], "dtype": "float32"}, {"name": "ConstantFolding/PartitionedCall/model_36/tf.nn.gelu_1/Gelu/truediv_recip", "shape": [], "dtype": "float32"}, {"name": "unknown_213", "shape": [1, 1, 256, 128], "dtype": "float32"}, {"name": "unknown_214", "shape": [128], "dtype": "float32"}, {"name": "PartitionedCall/model_36/tf.math.add_11/Add/y", "shape": [128], "dtype": "float32"}, {"name": "PartitionedCall/model_36/tf.strided_slice_3/StridedSlice/begin", "shape": [4], "dtype": "int32"}, {"name": "PartitionedCall/model_36/tf.strided_slice_3/StridedSlice/end", "shape": [4], "dtype": "int32"}, {"name": "PartitionedCall/model_36/tf.strided_slice_3/ones_like", "shape": [4], "dtype": "int32"}, {"name": "unknown_216", "shape": [128], "dtype": "float32"}, {"name": "unknown_110", "shape": [128], "dtype": "float32"}, {"name": "PartitionedCall/model_36/tf.nn.conv2d_transpose/conv2d_transpose/input_sizes", "shape": [4], "dtype": "int32"}, {"name": "unknown_108", "shape": [4, 4, 128, 128], "dtype": "float32"}, {"name": "PartitionedCall/model_36/tf.nn.gelu/Gelu/mul/x", "shape": [], "dtype": "float32"}, {"name": "PartitionedCall/model_36/tf.nn.gelu/Gelu/add/x", "shape": [], "dtype": "float32"}, {"name": "PartitionedCall/model_36/tf.compat.v1.gather/GatherV2/indices", "shape": [], "dtype": "int32"}, {"name": "PartitionedCall/model_36/tf.compat.v1.gather/GatherV2/axis", "shape": [], "dtype": "int32"}, {"name": "unknown_38", "shape": [2, 1, 1, 2], "dtype": "float32"}, {"name": "unknown_39", "shape": [2, 1, 1, 2], "dtype": "float32"}, {"name": "unknown_40", "shape": [2, 1, 1, 2], "dtype": "float32"}, {"name": "unknown_41", "shape": [2, 1, 1, 2], "dtype": "float32"}, {"name": "unknown_42", "shape": [2, 1, 1, 2], "dtype": "float32"}, {"name": "unknown_43", "shape": [2, 1, 1, 2], "dtype": "float32"}, {"name": "unknown_44", "shape": [2, 1, 1, 2], "dtype": "float32"}, {"name": "unknown_45", "shape": [2, 1, 1, 2], "dtype": "float32"}, {"name": "unknown_46", "shape": [2, 1, 1, 2], "dtype": "float32"}, {"name": "unknown_47", "shape": [2, 1, 1, 2], "dtype": "float32"}, {"name": "unknown_48", "shape": [2, 1, 1, 2], "dtype": "float32"}, {"name": "unknown_49", "shape": [2, 1, 1, 2], "dtype": "float32"}, {"name": "unknown_50", "shape": [2, 1, 1, 2], "dtype": "float32"}, {"name": "unknown_51", "shape": [2, 1, 1, 2], "dtype": "float32"}, {"name": "unknown_52", "shape": [2, 1, 1, 2], "dtype": "float32"}, {"name": "unknown_53", "shape": [2, 1, 1, 2], "dtype": "float32"}, {"name": "unknown_54", "shape": [2, 1, 1, 2], "dtype": "float32"}, {"name": "unknown_55", "shape": [2, 1, 1, 2], "dtype": "float32"}, {"name": "unknown_56", "shape": [2, 1, 1, 2], "dtype": "float32"}, {"name": "unknown_57", "shape": [2, 1, 1, 2], "dtype": "float32"}, {"name": "unknown_58", "shape": [2, 1, 1, 2], "dtype": "float32"}, {"name": "unknown_59", "shape": [2, 1, 1, 2], "dtype": "float32"}, {"name": "unknown_60", "shape": [2, 1, 1, 2], "dtype": "float32"}, {"name": "unknown_61", "shape": [2, 1, 1, 2], "dtype": "float32"}, {"name": "unknown_62", "shape": [2, 1, 1, 2], "dtype": "float32"}, {"name": "unknown_63", "shape": [2, 1, 1, 2], "dtype": "float32"}, {"name": "unknown_64", "shape": [2, 1, 1, 2], "dtype": "float32"}, {"name": "unknown_65", "shape": [2, 1, 1, 2], "dtype": "float32"}, {"name": "unknown_66", "shape": [2, 1, 1, 2], "dtype": "float32"}, {"name": "unknown_67", "shape": [2, 1, 1, 2], "dtype": "float32"}, {"name": "unknown_68", "shape": [2, 1, 1, 2], "dtype": "float32"}, {"name": "unknown_69", "shape": [2, 1, 1, 2], "dtype": "float32"}, {"name": "unknown_70", "shape": [2, 1, 1, 2], "dtype": "float32"}, {"name": "unknown_71", "shape": [2, 1, 1, 2], "dtype": "float32"}, {"name": "unknown_72", "shape": [2, 1, 1, 2], "dtype": "float32"}, {"name": "unknown_73", "shape": [2, 1, 1, 2], "dtype": "float32"}, {"name": "unknown_74", "shape": [2, 1, 1, 2], "dtype": "float32"}, {"name": "unknown_75", "shape": [2, 1, 1, 2], "dtype": "float32"}, {"name": "unknown_76", "shape": [2, 1, 1, 2], "dtype": "float32"}, {"name": "unknown_77", "shape": [2, 1, 1, 2], "dtype": "float32"}, {"name": "unknown_78", "shape": [2, 1, 1, 2], "dtype": "float32"}, {"name": "unknown_79", "shape": [2, 1, 1, 2], "dtype": "float32"}, {"name": "unknown_80", "shape": [2, 1, 1, 2], "dtype": "float32"}, {"name": "unknown_81", "shape": [2, 1, 1, 2], "dtype": "float32"}, {"name": "unknown_82", "shape": [2, 1, 1, 2], "dtype": "float32"}, {"name": "unknown_83", "shape": [2, 1, 1, 2], "dtype": "float32"}, {"name": "unknown_84", "shape": [2, 1, 1, 2], "dtype": "float32"}, {"name": "unknown_85", "shape": [2, 1, 1, 2], "dtype": "float32"}, {"name": "unknown_86", "shape": [2, 1, 1, 2], "dtype": "float32"}, {"name": "unknown_87", "shape": [2, 1, 1, 2], "dtype": "float32"}, {"name": "unknown_88", "shape": [2, 1, 1, 2], "dtype": "float32"}, {"name": "unknown_89", "shape": [2, 1, 1, 2], "dtype": "float32"}, {"name": "unknown_90", "shape": [2, 1, 1, 2], "dtype": "float32"}, {"name": "unknown_91", "shape": [2, 1, 1, 2], "dtype": "float32"}, {"name": "unknown_92", "shape": [2, 1, 1, 2], "dtype": "float32"}, {"name": "unknown_93", "shape": [2, 1, 1, 2], "dtype": "float32"}, {"name": "unknown_94", "shape": [2, 1, 1, 2], "dtype": "float32"}, {"name": "unknown_95", "shape": [2, 1, 1, 2], "dtype": "float32"}, {"name": "unknown_96", "shape": [2, 1, 1, 2], "dtype": "float32"}, {"name": "unknown_97", "shape": [2, 1, 1, 2], "dtype": "float32"}, {"name": "unknown_98", "shape": [2, 1, 1, 2], "dtype": "float32"}, {"name": "unknown_99", "shape": [2, 1, 1, 2], "dtype": "float32"}, {"name": "unknown_100", "shape": [2, 1, 1, 2], "dtype": "float32"}, {"name": "PartitionedCall/model_36/tf.split_1/split/split_dim", "shape": [], "dtype": "int32"}, {"name": "unknown_6", "shape": [1, 2, 1, 2], "dtype": "float32"}, {"name": "unknown_7", "shape": [1, 2, 1, 2], "dtype": "float32"}, {"name": "unknown_8", "shape": [1, 2, 1, 2], "dtype": "float32"}, {"name": "unknown_9", "shape": [1, 2, 1, 2], "dtype": "float32"}, {"name": "unknown_10", "shape": [1, 2, 1, 2], "dtype": "float32"}, {"name": "unknown_11", "shape": [1, 2, 1, 2], "dtype": "float32"}, {"name": "unknown_12", "shape": [1, 2, 1, 2], "dtype": "float32"}, {"name": "unknown_13", "shape": [1, 2, 1, 2], "dtype": "float32"}, {"name": "unknown_14", "shape": [1, 2, 1, 2], "dtype": "float32"}, {"name": "unknown_15", "shape": [1, 2, 1, 2], "dtype": "float32"}, {"name": "unknown_16", "shape": [1, 2, 1, 2], "dtype": "float32"}, {"name": "unknown_17", "shape": [1, 2, 1, 2], "dtype": "float32"}, {"name": "unknown_18", "shape": [1, 2, 1, 2], "dtype": "float32"}, {"name": "unknown_19", "shape": [1, 2, 1, 2], "dtype": "float32"}, {"name": "unknown_20", "shape": [1, 2, 1, 2], "dtype": "float32"}, {"name": "unknown_21", "shape": [1, 2, 1, 2], "dtype": "float32"}, {"name": "unknown_22", "shape": [1, 2, 1, 2], "dtype": "float32"}, {"name": "unknown_23", "shape": [1, 2, 1, 2], "dtype": "float32"}, {"name": "unknown_24", "shape": [1, 2, 1, 2], "dtype": "float32"}, {"name": "unknown_25", "shape": [1, 2, 1, 2], "dtype": "float32"}, {"name": "unknown_26", "shape": [1, 2, 1, 2], "dtype": "float32"}, {"name": "unknown_27", "shape": [1, 2, 1, 2], "dtype": "float32"}, {"name": "unknown_28", "shape": [1, 2, 1, 2], "dtype": "float32"}, {"name": "unknown_29", "shape": [1, 2, 1, 2], "dtype": "float32"}, {"name": "unknown_30", "shape": [1, 2, 1, 2], "dtype": "float32"}, {"name": "unknown_31", "shape": [1, 2, 1, 2], "dtype": "float32"}, {"name": "unknown_32", "shape": [1, 2, 1, 2], "dtype": "float32"}, {"name": "unknown_33", "shape": [1, 2, 1, 2], "dtype": "float32"}, {"name": "unknown_34", "shape": [1, 2, 1, 2], "dtype": "float32"}, {"name": "unknown_35", "shape": [1, 2, 1, 2], "dtype": "float32"}, {"name": "unknown_36", "shape": [1, 2, 1, 2], "dtype": "float32"}, {"name": "PartitionedCall/model_36/tf.split/split/split_dim", "shape": [], "dtype": "int32"}, {"name": "unknown_4", "shape": [1, 1, 128, 32], "dtype": "float32"}, {"name": "unknown_5", "shape": [32], "dtype": "float32"}, {"name": "unknown_37", "shape": [1, 2, 1, 2], "dtype": "float32"}, {"name": "PartitionedCall/model_36/tf.concat_1/concat/axis", "shape": [], "dtype": "int32"}, {"name": "unknown_101", "shape": [2, 1, 1, 2], "dtype": "float32"}, {"name": "PartitionedCall/model_36/tf.concat_2/concat/axis", "shape": [], "dtype": "int32"}, {"name": "PartitionedCall/model_36/tf.compat.v1.transpose_2/transpose/perm", "shape": [4], "dtype": "int32"}, {"name": "PartitionedCall/model_36/tf.reshape/Reshape/shape", "shape": [5], "dtype": "int32"}, {"name": "unknown_102", "shape": [5], "dtype": "int32"}, {"name": "unknown_103", "shape": [5], "dtype": "int32"}, {"name": "PartitionedCall/model_36/tf.strided_slice/StridedSlice/strides", "shape": [5], "dtype": "int32"}, {"name": "PartitionedCall/model_36/tf.reshape_1/Reshape/shape", "shape": [4], "dtype": "int32"}, {"name": "PartitionedCall/model_36/tf.concat_580/concat/axis", "shape": [], "dtype": "int32"}, {"name": "PartitionedCall/model_36/tf.compat.v1.transpose_1109/transpose/perm", "shape": [4], "dtype": "int32"}, {"name": "unknown_104", "shape": [1, 1, 128, 256], "dtype": "float32"}, {"name": "unknown_105", "shape": [256], "dtype": "float32"}, {"name": "ConstantFolding/PartitionedCall/model_36/tf.nn.gelu/Gelu/truediv_recip", "shape": [], "dtype": "float32"}, {"name": "unknown_106", "shape": [1, 1, 256, 128], "dtype": "float32"}, {"name": "unknown_107", "shape": [128], "dtype": "float32"}, {"name": "PartitionedCall/model_36/tf.math.add_5/Add/y", "shape": [128], "dtype": "float32"}, {"name": "PartitionedCall/model_36/tf.strided_slice_1/StridedSlice/begin", "shape": [4], "dtype": "int32"}, {"name": "PartitionedCall/model_36/tf.strided_slice_1/StridedSlice/end", "shape": [4], "dtype": "int32"}, {"name": "PartitionedCall/model_36/tf.strided_slice_1/ones_like", "shape": [4], "dtype": "int32"}, {"name": "unknown_109", "shape": [128], "dtype": "float32"}, {"name": "unknown_432", "shape": [5, 5, 128, 1], "dtype": "float32"}, {"name": "unknown_433", "shape": [128], "dtype": "float32"}, {"name": "ConstantFolding/PartitionedCall/model_36/tf.nn.gelu_4/Gelu/truediv_recip", "shape": [], "dtype": "float32"}, {"name": "unknown_435", "shape": [128], "dtype": "float32"}, {"name": "PartitionedCall/model_36/tf.concat/concat/axis", "shape": [], "dtype": "int32"}, {"name": "unknown", "shape": [3, 3, 4, 64], "dtype": "float32"}, {"name": "unknown_0", "shape": [64], "dtype": "float32"}, {"name": "unknown_1", "shape": [4, 2], "dtype": "int32"}, {"name": "unknown_2", "shape": [3, 3, 64, 128], "dtype": "float32"}, {"name": "unknown_3", "shape": [128], "dtype": "float32"}, {"name": "PartitionedCall/model_36/tf.concat_2321/concat/axis", "shape": [], "dtype": "int32"}, {"name": "PartitionedCall/model_36/tf.math.add_28/Add/y", "shape": [64], "dtype": "float32"}, {"name": "PartitionedCall/model_36/tf.strided_slice_8/StridedSlice/begin", "shape": [4], "dtype": "int32"}, {"name": "PartitionedCall/model_36/tf.strided_slice_8/StridedSlice/end", "shape": [4], "dtype": "int32"}, {"name": "PartitionedCall/model_36/tf.strided_slice_8/ones_like", "shape": [4], "dtype": "int32"}, {"name": "unknown_437", "shape": [64], "dtype": "float32"}, {"name": "unknown_438", "shape": [64], "dtype": "float32"}, {"name": "PartitionedCall/model_36/tf.concat_2322/concat/axis", "shape": [], "dtype": "int32"}, {"name": "unknown_439", "shape": [1, 1, 67, 3], "dtype": "float32"}, {"name": "unknown_440", "shape": [3], "dtype": "float32"}, {"name": "unknown_1325", "shape": [], "dtype": "float32"}]}]}